saved_models/metalearner_dict_5_shot.pth (torch, 81275 bytes, 7 tensors)

lstm_layer.weight_ih f4 [80, 4]
0.7794423 0.38710567 -0.56492573 -0.31869978 0.20189354 0.5053412 -0.2714882 -0.174835
0.20577659 0.43418503 -0.48901477 -0.27005625 0.26502144 0.50437814 -0.47051093 -0.16738974
0.4087133 0.4440884 -0.3487827 -0.4747205 0.43274835 0.18730707 -0.36921036 -0.60081357
0.39029166 0.4098894 -0.47559652 -0.2748596 0.49618453 0.42522746 -0.5254935 -0.22542986
0.639047 0.637751 -0.64114344 -0.41093725 0.24820656 0.27262926 -0.42929533 -0.2270148
0.058339175 0.31562015 -0.59467155 -0.32825136 0.44547886 0.48460495 -0.5057419 -0.37947702
0.146778 0.4363486 -0.25598696 -0.48074073 0.3224625 0.11096972 -0.46992174 -0.42065915
0.50647116 0.5549609 -0.488198 -0.55753785 0.2992179 0.5489936 -0.35151303 -0.48565784
0.08419066 0.38534713 -0.604742 -0.1342871 0.11876279 0.39580968 -0.5662087 -0.3333116
0.6692591 0.6303615 -0.6640387 -0.47350585 0.42169747 0.27480802 -0.5078242 -0.160967
-0.5223471 -0.29168642 -0.53820616 -0.8185252 0.054750267 0.15990154 -0.63365304 -0.4715985
-0.18878092 0.12689136 -0.32888544 -0.7484088 0.0040644817 0.180148 -0.8099083 -0.47417158
0.050752204 0.11947261 -0.4476577 -0.59520775 -0.18781847 0.069275066 -0.3375639 -0.67966276
0.17923613 0.08782471 -0.5090876 -0.46752873 -0.36615723 -0.17128202 -0.55823725 -0.52916795
-0.20285055 0.15615775 -0.61643773 -0.7222041 -0.31918144 0.17939644 -0.6118845 -0.56970096
-0.067750975 0.14067724 -0.52554625 -0.42742515 0.19312803 -0.0327902 -0.39929497 -0.74403733
0.009247241 0.01151327 -0.7789137 -0.6365482 -0.2017812 0.0075679678 -0.3513932 -0.56727797
0.092322476 0.08656598 -0.31986648 -0.4478987 -0.3326227 -0.11183269 -0.36542767 -0.641481
0.043424286 0.30998015 -0.58684707 -0.45749238 0.2644905 0.40322167 -0.5332118 -0.3903643
-0.10116563 -0.086739965 -0.6445074 -0.63406736 -0.19325347 0.20524575 -0.5209324 -0.4670302
-0.30394125 0.35865098 -0.6216547 -0.6581827 0.060673833 0.37597677 -0.28538904 -0.10403447
0.42592776 0.30024558 -0.5222698 -0.37182832 -0.013757624 0.19522522 -0.5240102 -0.2254649
0.25741115 0.12784892 -0.26640204 -0.45557827 -0.37197152 -0.30488566 0.43947417 0.33482483
0.13490783 0.17833644 -0.47628105 -0.21244797 0.240256 -0.092872776 -0.5966849 -0.33961812
0.080824584 0.048726358 -0.684438 -0.47482222 -0.09144136 -0.025293097 0.4977315 0.23211089
0.22106835 0.23059663 -0.4543775 -0.274722 0.4606754 0.30052173 -0.46091425 -0.3168494
-0.32347542 -0.28048044 0.39951167 0.39341816 -0.26584715 -0.34089637 0.34451786 0.3103763
-0.34246588 -0.42183086 0.36749315 0.40217438 0.2784766 0.17332056 -0.57061255 -0.4395115
0.21242656 0.36568722 -0.64265764 -0.16398454 -0.45668748 -0.4634758 0.14284468 0.21655051
0.22926058 0.20713885 -0.5667071 -0.44685656 0.26348203 0.2957724 -0.7871532 -0.3181991
0.62298375 0.4365885 -0.16608518 -0.51978254 0.1522243 0.07739195 -0.5583415 -0.4510459
0.39602908 0.2109533 -0.87184393 -0.4221326 0.169201 0.27498645 -0.4030755 -0.14783292
00000000: 8889 473f b732 c63e f99e 10bf 9e2c a3be
00000010: 2ebd 4e3e 0a5e 013f 8000 8bbe f207 33be
00000020: 19b7 523e 804d de3e 2560 fabe d044 8abe
00000030: e4b0 873e ed1e 013f cfe6 f0be 3768 2bbe
00000040: df42 d13e 8e5f e33e a593 b2be 910e f3be
00000050: 3191 dd3e 6dcd 3f3e 2409 bdbe ebce 19bf
00000060: 4fd4 c73e 06dd d13e 6381 f3be 66ba 8cbe
00000070: e60b fe3e 6ab7 d93e be86 06bf 16d7 66be
00000080: 9698 233f a643 233f fa21 24bf 5e66 d2be
00000090: dc29 7e3e 1096 8b3e 99cc dbbe 9176 68be
000000a0: 0ff5 6e3d f798 a13e 653c 18bf 9010 a8be
000000b0: ce15 e43e 241e f83e 4d78 01bf d04a c2be
000000c0: f94c 163e 1569 df3e b910 83be a623 f6be
000000d0: ce19 a53e 1844 e33d 9599 f0be a360 d7be
000000e0: 18a8 013f eb11 0e3f 17f5 f9be cdba 0ebf
000000f0: 1733 993e d88a 0c3f 84f9 b3be 25a8 f8be
00000100: 276c ac3d 384c c53e 5fd0 1abf 8f82 09be
00000110: e839 f33d 91a7 ca3e 0ef3 10bf d1a7 aabe
00000120: 9054 2b3f 5f5f 213f 71fe 29bf 5c6f f2be
00000130: bbe8 d73e a3b3 8c3e c400 02bf 89d4 24be
00000140: 8ab8 05bf ec57 95be e1c7 09bf de8a 51bf
00000150: d141 603d 3bbd 233e 1637 22bf 5c75 f1be
00000160: c94f 41be cfef 013e ac63 a8be b897 3fbf
00000170: 582f 853b b878 383e 2656 4fbf 9ec6 f2be
00000180: 8be1 4f3d 0eae f43d 6433 e5be 895f 18bf
00000190: 7c53 40be 16e0 8d3d 2dd5 acbe 61fe 2dbf
000001a0: ad89 373e 71dd b33d 9153 02bf ed5f efbe
000001b0: f678 bbbe 8e64 2fbe a3e8 0ebf 8d77 07bf
000001c0: 0eb8 4fbe d1e7 1f3e ddce 1dbf 5ee2 38bf
000001d0: c06b a3be b3b3 373e 76a4 1cbf ecd7 11bf
000001e0: 06c1 8abd b20d 103e 338a 06bf 78d7 dabe
000001f0: 5bc3 453e 044f 06bd 6470 ccbe 3b79 3ebf
00000200: bd81 173c 28a2 3c3c e366 47bf d3f4 22bf
00000210: bb9f 4ebe b7fc f73b cfe9 b3be 2139 11bf
00000220: 9113 bd3d 8149 b13d 8ac5 a3be fa52 e5be
00000230: 864d aabe 8a08 e5bd 5619 bbbe 1938 24bf
00000240: aadd 313d b8b5 9e3e 9c3b 16bf 713c eabe
00000250: 4c6b 873e 1273 ce3e 9280 08bf d4dd c7be
00000260: ed2f cfbd b9a4 b1bd 70fe 24bf 3d52 22bf
00000270: 3de4 45be f12b 523e d35b 05bf 951e efbe
00000280: 309e 9bbe 1aa1 b73e c324 1fbf a97e 28bf
00000290: 2085 783d 0780 c03e 831e 92be 0610 d5bd
000002a0: 3413 da3e cab9 993e 79b3 05bf 4860 bebe
000002b0: a867 61bc 1fe9 473e 8825 06bf 45e0 66be
000002c0: 65cb 833e d4ea 023e d965 88be 8e41 e9be
000002d0: 0d73 bebe f919 9cbe c202 e13e 296e ab3e
000002e0: 4725 0a3e d49d 363e 1cdb f3be f68b 59be
000002f0: ab05 763e 1534 bebd 57c0 18bf 6de2 adbe
00000300: 5c87 a53d 4a95 473d 5437 2fbf e61b f3be
00000310: 9c45 bbbd 7833 cfbc aad6 fe3e 7aae 6d3e
00000320: be5f 623e 8621 6c3e 2ba4 e8be 5da8 8cbe
00000330: a5dd eb3e fcdd 993e f4fc ebbe 163a a2be
00000340: 929e a5be 229b 8fbe cb8c cc3e 1b6e c93e
00000350: 1e1d 88be f889 aebe a564 b03e a4e9 9e3e
00000360: b057 afbe 37fa d7be 1028 bc3e cde9 cd3e
00000370: 7c94 8e3e f27a 313e aa13 12bf a707 e1be
00000380: 5986 593e 5b3b bb3e 3685 24bf 90eb 27be
00000390: f1d2 e9be b34c edbe e045 123e 6bbf 5d3e
000003a0: 49c3 6a3e 351c 543e b713 11bf 62ca e4be
000003b0: 1ee7 863e 7b6f 973e df82 49bf feea a2be
000003c0: dd7b 1f3f 8788 df3e 3c12 2abe 7810 05bf
000003d0: b0e0 1b3e ac7f 9e3d 78ef 0ebf 7def e6be
000003e0: 53c4 ca3e 2404 583e 2a31 5fbf c421 d8be
000003f0: 0743 2d3e 06cb 8c3e e95f cebe 8361 17be

lstm_layer.weight_hh f4 [80, 20]
0.30193108 0.35563627 0.6224542 0.38348776 0.6531439 -0.6954519 0.4614459 0.1773277
0.43842384 -0.46477467 0.434643 0.52394325 -0.4998518 -0.230857 -0.5554873 0.6481823
0.38318986 -0.43267846 0.7900636 0.6296393 0.09101717 -0.05884868 0.15303604 -0.030343687
0.32985494 -0.064570725 0.0064372453 0.08229847 0.29762942 0.100237325 0.052651174 -0.13055556
-0.15088004 0.033489276 0.017835828 0.21965578 0.3063624 -0.19331732 0.24891315 0.14357173
-0.1322883 0.05267931 0.19006422 0.24401242 0.04670871 0.08093189 0.0144320885 0.0088434545
-0.061118573 -0.080446124 0.28914034 0.34017605 -0.033305407 0.0054207686 -0.32013422 -0.1186828
0.024568923 -0.2915823 -0.1111893 0.23973627 -0.18746257 0.33893776 0.32839873 0.27957028
0.12888613 0.06305086 0.16525573 -0.09907542 0.20535098 0.035450418 0.24118733 -0.07370461
-0.09512455 0.048242602 -0.061606653 -0.008320442 0.026749725 -0.020759488 0.0926157 0.060087472
0.16108285 0.16986366 0.34572697 0.29449186 -0.041612986 -0.25618553 0.12060074 0.3314421
0.032362442 -0.3964125 0.34286886 0.43322173 -0.16033126 -0.120460086 -0.3616362 0.23496121
0.48921496 -0.20509504 0.3131103 0.24857602 -0.24494408 -0.046457954 0.06833579 -0.08652828
0.23624717 0.20209798 -0.21452522 -0.10184435 0.32204926 0.2281713 -0.07288637 -0.07243682
0.152059 -0.14975294 0.42063698 0.20304558 -0.1583148 0.04940608 0.22548996 -0.12220085
0.06662487 0.4156767 0.1602062 0.21085858 0.26536316 -0.22889568 0.21573855 0.22985116
0.1017353 -0.2217122 0.19657528 0.32833642 0.009096053 -0.18921307 -0.14520471 -0.010885111
0.3507596 -0.10078994 -0.05478527 0.32563028 -0.031007018 -0.039638735 0.31043512 -0.11506356
0.2704708 -0.07972126 -0.040745825 0.15402755 0.444126 0.10366541 0.1659096 -0.017161002
-0.048624985 -0.2642712 0.16546473 0.1851081 -0.06323312 -0.13007331 0.2637359 0.2907523
-0.010188269 0.36115187 0.08089182 0.2288054 0.33194908 -0.2916908 0.5618484 0.35701564
0.31000698 -0.40844387 0.53508824 0.55010784 -0.47056386 -0.40489355 -0.541297 0.08968284
0.38633382 -0.45263124 0.4173254 0.28224635 -0.12335053 0.20258215 0.20944601 0.10309493
-0.23845786 -0.26212078 0.3088519 0.23209064 -0.105927415 0.07393562 0.1526611 -0.15763941
-0.06316794 -0.26327658 0.09002796 0.045978025 0.2557737 -0.11476434 -0.03274274 -0.058279857
-0.3127404 -0.0046810172 0.1815439 0.061465614 -0.062563 -0.14943857 -0.052508548 -0.116925165
-0.070194565 0.13777684 0.01909161 0.0004024215 -0.14790098 -0.20272176 -0.23728418 -0.1671474
0.023399811 -0.14000319 -0.15096354 0.07144134 0.24905416 0.013690189 0.3672892 0.013407762
0.2439533 -0.19556925 0.011690153 0.04037782 0.052451823 -0.34183648 0.20658475 0.009339341
0.030302832 -0.18646479 -0.34234363 0.068032846 0.37275904 -0.21400906 0.28362307 0.34687313
-0.1842255 0.29175723 0.033105344 -0.11624574 0.16995978 -0.25256142 -0.04558313 -0.1224059
0.13472223 -0.058761783 0.25204507 -0.016583996 -0.050891772 0.03672805 -0.09457256 -0.019076815
00000000: b696 9a3e f515 b63e 2959 1f3f 8258 c43e
00000010: 7034 273f 2309 32bf a342 ec3e 6595 353e
00000020: 1779 e03e f2f6 edbe 8789 de3e 2521 063f
00000030: 93ec ffbe c765 6cbe 6a34 0ebf 46ef 253f
00000040: 7631 c43e 0888 ddbe 9c41 4a3f 0b30 213f
00000050: 3667 ba3d 500b 71bd 7bb5 1c3e 5393 f8bc
00000060: bfe2 a83e a83d 84bd 87ef d23b 1a8c a83d
00000070: e262 983e 3a49 cd3d c2a8 573d 5bb0 05be
00000080: 4c80 1abe 0d2c 093d 711c 923c 72ed 603e
00000090: 88db 9c3e faf4 45be 17e3 7e3e 7804 133e
000000a0: 9676 07be 43c6 573d 32a0 423e 64de 793e
000000b0: a251 3f3d 9ebf a53d 9174 6c3c 23e4 103c
000000c0: 7857 7abd f0c0 a4bd 340a 943e 8e2b ae3e
000000d0: 406b 08bd b4a0 b13b a2e8 a3be f80f f3bd
000000e0: c444 c93c 464a 95be 37b7 e3bd 6d7d 753e
000000f0: 30f6 3fbe 4089 ad3e e123 a83e d623 8f3e
00000100: bafa 033e cf20 813d cc38 293e 0ee8 cabd
00000110: 8747 523e 7534 113d d0f9 763e 71f2 96bd
00000120: a9d0 c2bd 099a 453d 4257 7cbd 7752 08bc
00000130: 3d22 db3c cd0f aabc 4dad bd3d 481e 763d
00000140: e7f2 243e bdf0 2d3e 2003 b13e a3c7 963e
00000150: 6172 2abd c02a 83be 85fd f63d c7b2 a93e
00000160: 7b8e 043d 94f6 cabe 828c af3e 3dcf dd3e
00000170: e12d 24be c7b3 f6bd 6128 b9be ac99 703e
00000180: 627a fa3e 6f04 52be fe4f a03e b68a 7e3e
00000190: 9fd2 7abe b24a 3ebd a2f3 8b3d bd35 b1bd
000001a0: c7ea 713e c6f2 4e3e 80ac 5bbe c593 d0bd
000001b0: a4e3 a43e bda5 693e 7345 95bd c159 94bd
000001c0: 5bb5 1b3e d658 19be bb5d d73e 2eeb 4f3e
000001d0: 461d 22be 085e 4a3d d7e6 663e 7044 fabd
000001e0: 9f72 883d 94d3 d43e 180d 243e 50eb 573e
000001f0: aedd 873e a163 6abe 91ea 5c3e 1a5e 6b3e
00000200: 995a d03d 8608 63be 084b 493e b61b a83e
00000210: 9d07 153c 12c1 41be 8bb0 14be 7757 32bc
00000220: c396 b33e f56a cebd 8566 60bd 03b9 a63e
00000230: 6e02 febc 3a5c 22bd 5af1 9e3e 72a6 ebbd
00000240: 267b 8a3e e644 a3bd 18e5 26bd 66b9 1d3e
00000250: 7c64 e33e 884e d43d 35e4 293e 3b95 8cbc
00000260: fe2a 47bd 8e4e 87be 966f 293e fa8c 3d3e
00000270: 5e80 81bd f031 05be 6408 873e 7cdd 943e
00000280: b3ec 26bc e6e8 b83e 9caa a53d f64b 6a3e
00000290: 3bf5 a93e 7f58 95be 4cd5 0f3f c1ca b63e
000002a0: 3cb9 9e3e 8e1f d1be 8bfb 083f ded3 0c3f
000002b0: bfed f0be 354e cfbe 7192 0abf a3ab b73d
000002c0: 8ccd c53e 48bf e7be adab d53e 9882 903e
000002d0: 349f fcbd b271 4f3e 0479 563e 6f23 d33d
000002e0: 4c2e 74be b234 86be d621 9e3e 2ba9 6d3e
000002f0: 79f0 d8bd 8f6b 973d 3153 1c3e 3a6c 21be
00000300: 315e 81bd 30cc 86be 9460 b83d 7453 3c3d
00000310: c5f4 823e 9109 ebbd 401d 06bd dcb6 6ebd
00000320: 821f a0be 3863 99bb a5e6 393e 5ec3 7b3d
00000330: 0821 80bd 6d06 19be 3413 57bd 7676 efbd
00000340: 2bc2 8fbd 5f15 0d3e 0266 9c3c 19fc d239
00000350: 5b73 17be 4b96 4fbe a0fa 72be b028 2bbe
00000360: f6b0 bf3c ff5c 0fbe 3096 1abe d64f 923d
00000370: 0e08 7f3e d14c 603c 540d bc3e 3bac 5b3c
00000380: e5ce 793e 4e43 48be 0e88 3f3c 3763 253d
00000390: b9d7 563d 3105 afbe f48a 533e 0904 193c
000003a0: a53d f83c a0f0 3ebe aa47 afbe ce54 8b3d
000003b0: 46da be3e 3125 5bbe 0b37 913e 5b99 b13e
000003c0: 9ca5 3cbe 3461 953e 7899 073d 3f12 eebd
000003d0: f009 2e3e bb4f 81be 60b5 3abd f2af fabd
000003e0: a0f4 093e 32b0 70bd 0d0c 813e 29db 87bc
000003f0: e473 50bd 2770 163d 42af c1bd fb46 9cbc

lstm_layer.bias_ih f4 [80]
0.6369565 0.12339927 0.43752062 0.27400967 0.41356444 0.31376985 0.39773068 0.050693266
0.5942856 0.39501956 0.15127286 0.516398 0.22127095 0.38767037 0.3109094 0.5083332
0.34536603 0.30445653 0.35040924 0.45558655 -0.05847364 -0.0020730598 0.009887879 0.1250633
0.017840108 -0.018447652 0.22003934 -0.18268886 0.03712331 -0.11327301 -0.12971674 0.24375789
0.1456771 0.14446028 0.3883461 -0.10563263 0.009939793 0.19437823 0.09657429 0.10763102
0.12772268 0.52014333 0.05230794 0.2899016 0.17967606 -0.36118466 0.40958166 0.25335398
0.07426729 -0.37497377 0.350288 0.47229204 -0.12254353 -0.110428326 -0.13992298 0.18856193
0.13591833 -0.4260698 0.053698387 0.21533586 0.40051675 0.2498082 0.24423572 0.10473196
0.67255193 0.048093382 0.24264714 0.57000554 0.4691814 0.41913065 0.16448002 0.010072121
0.22099112 0.1397469 0.17073905 0.15428369 0.35301283 0.36113352 0.56974125 0.4408432
00000000: 950f 233f c2b8 fc3d b402 e03e ff4a 8c3e
00000010: b8be d33e 71a6 a03e 5ba3 cb3e bea3 4f3d
00000020: 1a23 183f 0140 ca3e 46e7 1a3e a932 043f
00000030: da94 623e bb7c c63e 842f 9f3e 2022 023f
00000040: d1d3 b03e bae1 9b3e d768 b33e a442 e93e
00000050: 0e82 6fbd 2cdc 07bb c500 223c 9810 003e
00000060: 6b25 923c 881f 97bc fe51 613e ca12 3bbe
00000070: 9d0e 183d aefb e7bd 77d4 04be ab9b 793e
00000080: 612c 153e 65ed 133e 4dd5 c63e ec55 d8bd
00000090: 83da 223c 160b 473e bec8 c53d a76d dc3d
000000a0: bcc9 023e 1d28 053f da40 563d fc6d 943e
000000b0: 00fd 373e 32ed b8be b0b4 d13e 9db7 813e
000000c0: 7319 983d 90fc bfbe f358 b33e 43d0 f13e
000000d0: 1af8 fabd 3f28 e2bd f847 0fbe 6116 413e
000000e0: 2d2e 0b3e d225 dabe d7f2 5b3d 0181 5c3e
000000f0: 8810 cd3e b9cd 7f3e ee18 7a3e b67d d63d
00000100: 5d2c 2c3f 91fd 443d 7e78 783e e2eb 113f
00000110: 8b38 f03e 4b98 d63e 736d 283e 8a05 253c
00000120: 7f4b 623e d019 0f3e 38d6 2e3e 8bfc 1d3e
00000130: 19be b43e 7ee6 b83e 90da 113f 33b6 e13e

lstm_layer.bias_hh f4 [80]
0.39034286 0.27735797 0.45865732 0.4813341 0.40809938 0.41820508 0.5038898 0.21753104
0.2841519 0.41287932 0.3941738 0.26836896 0.5133704 0.20812799 0.24292898 0.44768545
0.39866284 0.3254357 0.30006382 0.22920096 0.015336898 0.1973984 0.1840508 0.11481772
0.35129297 -0.10010071 0.2765782 0.0989516 0.043771602 0.26129466 -0.016613387 0.21762086
-0.056748345 0.16374156 0.15236756 0.1831353 0.03213619 0.21271823 0.20258397 0.06512576
0.12982626 0.2025996 0.32166344 0.3054238 0.037944343 -0.31262556 0.48189387 0.23495734
0.29966563 -0.34154806 0.12843 0.15659036 -0.37153646 -0.16271202 -0.25799313 0.0072144307
0.13521881 -0.24265237 0.10747672 -0.036318406 0.67493254 0.08983824 0.39871418 0.3800816
0.308854 0.16050781 0.0023638222 0.575492 0.35378084 0.43222374 0.2377958 0.10780643
0.41792122 0.03008438 0.21939808 0.26141766 0.47049344 -0.04129259 0.51006716 0.58683664
00000000: 05db c73e dd01 8e3e 22d5 ea3e 6c71 f63e
00000010: 67f2 d03e fa1e d63e ecfe 003f 75c0 5e3e
00000020: 5c7c 913e eb64 d33e 26d1 c93e a867 893e
00000030: 3e6c 033f 811f 553e 60c2 783e 0737 e53e
00000040: 891d cc3e 829f a63e f7a1 993e a8b3 6a3e
00000050: 9d47 7b3c ce22 4a3e d077 3c3e 8e25 eb3d
00000060: acdc b33e 9a01 cdbd a89b 8d3e 23a7 ca3d
00000070: da49 333d 6ac8 853e cc18 88bc 01d8 5e3e
00000080: f470 68bd deab 273e 3e06 1c3e d287 3b3e
00000090: 3da1 033d cfd2 593e 2c72 4f3e a860 853d
000000a0: 2df1 043e 4576 4f3e 12b1 a43e 8260 9c3e
000000b0: 876b 1b3d 7510 a0be cbba f63e a898 703e
000000c0: c66d 993e 63df aebe 2783 033e 3959 203e
000000d0: 073a bebe fb9d 26be ad17 84be 0867 ec3b
000000e0: cd76 0a3e dd79 78be c11c dc3d 9cc2 14bd
000000f0: 61c8 2c3f 1cfd b73d 4424 cc3e 0e9a c23e
00000100: 1d22 9e3e 295c 243e 5bea 1a3b 7253 133f
00000110: c322 b53e 6e4c dd3e be80 733e 9ec9 dc3d
00000120: c5f9 d53e 8573 f63c e4a9 603e 89d8 853e
00000130: 84e4 f03e 6b22 29bd c393 023f ed3a 163f

metalstm_layer.Wf f4 [22, 1]
0.31959352 -0.06084138 0.5289923 -0.054184686 0.5147706 -0.25881076 -0.053941015 0.31628907
0.56374294 0.10327044 -0.026431397 0.05351153 0.004977337 -0.22060643 -0.030055784 0.44232175
-0.09485942 0.026211295 0.61379313 0.44093522 -0.34190655 -0.06441274
00000000: c3a1 a33e d034 79bd 0a6c 073f c3f0 5dbd
00000010: 02c8 033f d882 84be 41f1 5cbd a4f0 a13e
00000020: 7551 103f 747f d33d a886 d8bc e82e 5b3d
00000030: ee18 a33b a7e6 61be 8c37 f6bc ff77 e23e
00000040: a845 c2bd 12b9 d63c 8c21 1d3f 43c2 e13e
00000050: 600e afbe d4ea 83bd

metalstm_layer.Wi f4 [22, 1]
0.5510392 0.25722855 0.31289878 0.19461545 0.43442133 -0.36372942 0.29619497 0.31121755
0.45853952 -0.21493769 0.26828566 0.36089405 -0.3032011 -0.27470106 -0.33890143 0.40441474
0.20006399 -0.2860738 0.38812354 0.271074 -0.73711663 -0.13206288
00000000: e810 0d3f 76b3 833e 4534 a03e 4649 473e
00000010: 796c de3e be3a babe dea6 973e e857 9f3e
00000020: b1c5 ea3e a018 5cbe bd5c 893e 1bc7 b83e
00000030: 2d3d 9bbe 9ea5 8cbe 7d84 adbe 730f cf3e
00000040: 93dd 4c3e 4478 92be 21b8 c63e 36ca 8a3e
00000050: adb3 3cbf 7e3b 07be

metalstm_layer.ct f4 [17386, 1]
0.045837753 0.1215287 -0.12783246 -0.19164129 -0.17455089 0.068266414 0.14820752 0.12773089
-0.09904257 -0.0731961 -0.038722243 0.14779535 -0.0009163074 -0.075364746 -0.075137876 -0.044314384
0.1809964 0.24421819 0.081566624 0.03267307 -0.02525578 0.19937328 0.12669955 0.22538604
0.06877554 0.05891491 0.16412577 -0.13991378 -0.17936347 -0.15931813 -0.0077149635 0.25014737
-0.03865997 -0.14192872 -0.18434612 -0.112030484 0.103135124 0.20844807 0.05251336 0.028319374
-0.042516556 0.076195545 0.19455989 0.052098434 -0.00042618086 -0.12686695 0.17634617 0.21802458
0.088064216 0.083194874 0.12051996 0.17435932 0.013034467 -0.091128916 -0.05272101 -0.03069601
0.17198546 -0.053338382 -0.16879153 -0.16333815 0.04849246 0.21685849 0.04095742 0.03588865
0.035736233 -0.06319273 0.13977456 0.20176604 0.23115623 0.19356824 -0.15636384 0.061193798
0.19573747 0.23463088 0.18765123 0.03927927 -0.017804792 -0.20714518 -0.21609746 -0.29587185
-0.119647786 0.12693149 0.062393863 -0.1676201 0.015405944 -0.049288344 0.02371412 0.0843947
0.20310956 0.053629387 0.0062179626 0.10057038 0.23198183 0.17497511 -0.028441269 -0.11572751
0.029432703 0.011247709 -0.15221035 -0.059393417 0.046027973 0.037023626 -0.15706114 -0.2558751
-0.3336854 -0.014077754 -0.06250792 -0.114522494 -0.058718856 0.0111313965 -0.07714459 0.1112596
0.06699984 0.26337934 0.20100284 -0.13360113 0.013408989 0.15461902 0.1486819 0.11313139
0.0045483545 -0.021333363 -0.06926994 -0.007486806 -0.10364948 -0.1311934 -0.069693275 -0.1629626
-0.26723477 -0.31830785 -0.036571555 0.049065445 -0.10067471 -0.058282025 0.07643915 -0.041701205
0.04593179 0.12725095 0.18210836 0.19529764 0.07332302 0.11551095 0.2589176 0.123517126
-0.017892903 -0.09555478 0.050412185 -0.0136715425 -0.119526 -0.081380375 -0.008548145 0.11108958
0.013530295 0.0039223596 -0.022125265 -0.009172235 0.22385764 -0.16937344 -0.14533307 -0.18357696
0.09172321 0.1267578 -0.24174006 -0.33289498 -0.2655208 0.12279806 0.06950254 -0.17397833
-0.40705955 -0.34482297 0.26480398 0.058515716 -0.10264465 -0.2146613 -0.39059544 0.17310667
0.19542822 -0.014666945 0.032982666 -0.17814882 0.11490303 0.12739423 0.0039776107 -0.08858484
-0.0810397 0.1549112 0.12164615 -0.16209608 -0.32833663 -0.18462671 0.21327135 0.20143001
-0.2995119 -0.29753727 -0.41871592 0.099195965 0.038274314 -0.16768809 -0.3256673 -0.28860605
0.10470426 0.28340396 -0.05049777 -0.13891025 -0.15183969 0.18351337 0.1100163 0.018963598
-0.07904532 -0.12199597 0.113161914 0.12660286 -0.12317148 -0.25933623 -0.24820873 0.1360798
0.03150305 -0.27848604 -0.20907886 -0.4310737 0.15463449 0.22029176 -0.165429 -0.2533429
-0.38644382 -0.0016720647 -0.36028406 -0.43845737 0.06403841 0.2485831 -0.22221367 -0.21895193
-0.3320013 0.23649947 0.30835655 -0.24791662 -0.17970486 -0.30867177 0.14267674 0.24906306
0.007332021 -0.07093617 -0.102221094 0.23005423 0.2462133 -0.02873502 0.046187587 0.014623699
0.26261702 0.17492895 -0.11989818 -0.26255655 -0.30967182 0.06903046 0.19712493 -0.26629636
00000000: 5ec0 3b3d 0ae4 f83d 83e6 02be 9d3d 44be
00000010: 78bd 32be 43cf 8b3d b6c3 173e e3cb 023e
00000020: d5d6 cabd d6e7 95bd 379b 1ebd aa57 173e
00000030: 5934 70ba d558 9abd e3e1 99bd 0083 35bd
00000040: 1f57 393e 5514 7a3e 670c a73d 32d4 053d
00000050: 36e5 cebc 8228 4c3e 87bd 013e 99cb 663e
00000060: 31da 8c3d c350 713d 9610 283e 8f45 0fbe
00000070: 0fab 37be 4b24 23be cecd fcbb 5113 803e
00000080: eb59 1ebd c355 11be 3bc5 3cbe 3d70 e5bd
00000090: 8238 d33d 6973 553e 4018 573d 08fe e73c
000000a0: d725 2ebd 690c 9c3d b53a 473e 2b65 553d
000000b0: 0771 dfb9 69e9 01be 1794 343e d641 5f3e
000000c0: 035b b43d 1362 aa3d 2bd3 f63d 408b 323e
000000d0: 848e 553c cca1 babd fcf1 57bd 3376 fbbc
000000e0: f51c 303e 5979 5abd b0d7 2cbe 1e42 27be
000000f0: 08a0 463d 2710 5e3e f8c2 273d faff 123d
00000100: 2860 123d 316b 81bd 1021 0f3e c29b 4e3e
00000110: 38b4 6c3e c136 463e d81d 20be 59a6 7a3d
00000120: 676f 483e 1443 703e a527 403e 4de3 203d
00000130: 5bdb 91bc de1d 54be a748 5dbe 847c 97be
00000140: e609 f5bd 54fa 013e b590 7f3d 9aa4 2bbe
00000150: 3669 7c3c 93e2 49bd 1d44 c23c 21d7 ac3d
00000160: f4fb 4f3e 7daa 5b3d 0dc0 cb3b d8f7 cd3d
00000170: a58c 6d3e ad2c 333e aafd e8bc 8b02 edbd
00000180: da1c f13c 5048 383c 08dd 1bbe 8346 73bd
00000190: d487 3c3d 16a6 173d a3d4 20be 1002 83be
000001a0: d0d8 aabe 61a6 66bc 2704 80bd c58a eabd
000001b0: 2f83 70bd 7660 363c fcfd 9dbd 13dc e33d
000001c0: 3637 893d a8d9 863e b0d3 4d3e bcce 08be
000001d0: 60b1 5b3c 7354 1e3e 1140 183e 6eb1 e73d
000001e0: 5d0a 953b 4ec3 aebc 66dd 8dbd e153 f5bb
000001f0: 2e46 d4bd 9057 06be 59bb 8ebd abdf 26be
00000200: ffd2 88be 3ff9 a2be 0ecc 15bd d9f8 483d
00000210: 8b2e cebd 22b9 6ebd 218c 9c3d e2ce 2abd
00000220: f922 3c3d 134e 023e 9d7a 3a3e 1bfc 473e
00000230: 612a 963d 0191 ec3d d990 843e 8cf6 fc3d
00000240: 2394 92bc 39b2 c3bd 027d 4e3d 9bfe 5fbc
00000250: 0cca f4bd c1aa a6bd 850d 0cbc ef82 e33d
00000260: 2cae 5d3c 2387 803b 0b40 b5bc 2447 16bc
00000270: f03a 653e 3b70 2dbe 31d2 14be 99fb 3bbe
00000280: 61d9 bb3d cccc 013e b58a 77be 3671 aabe
00000290: 58f2 87be 8d7d fb3d 5957 8e3d 6027 32be
000002a0: 1c6a d0be a38c b0be 6394 873e 2dae 6f3d
000002b0: 5c37 d2bd 2cd0 5bbe 20fc c7be e042 313e
000002c0: 561e 483e a04d 70bc d518 073d a56c 36be
000002d0: 4852 eb3d a273 023e 9e56 823b f86b b5bd
000002e0: 24f8 a5bd 0ba1 1e3e 9e21 f93d 84fc 25be
000002f0: bd1b a8be c90e 3dbe ce63 5a3e ab43 4e3e
00000300: a059 99be ce56 98be ef61 d6be 4127 cb3d
00000310: 87c5 1c3d 6db6 2bbe ddbd a6be 2cc4 93be
00000320: 306f d63d 531a 913e c0d6 4ebd 7d3e 0ebe
00000330: dd7b 1bbe eeea 3b3e 3a50 e13d 8c59 9b3c
00000340: 83e2 a1bd 06d9 f9bd 6fc1 e73d 2ea4 013e
00000350: 5441 fcbd b8c7 84be 6e2a 7ebe 8158 0b3e
00000360: 5809 013d b995 8ebe c518 56be b1b5 dcbe
00000370: 8158 1e3e 2a94 613e 3866 29be 29b6 81be
00000380: f7db c5be 2e29 dbba 2777 b8be 7c7d e0be
00000390: 9226 833d 918c 7e3e fb8b 63be ef34 60be
000003a0: 13fc a9be eb2c 723e e9e0 9d3e dbdd 7dbe
000003b0: 8d04 38be 3a0a 9ebe da19 123e 630a 7f3e
000003c0: 7341 f03b fc46 91bd 4b59 d1bd 5693 6b3e
000003d0: 571f 7c3e b465 ebbc 322f 3d3d 3d98 6f3c
000003e0: bd75 863e 9320 333e 2d8d f5bd d06d 86be
000003f0: 4e8d 9ebe d85f 8d3d 1edb 493e ff57 88be
