saved_models/metalearner_7_shot.pth (torch, 82116 bytes, 7 tensors)

weight_ih f4 [80, 4]
000000 e9 a5 28 3f 00 3f 90 3e 58 8d 03 bf b2 10 b9 be
       0.6587816 0.28173065 -0.5138755 -0.3614555
000010 91 d3 8d 3e cd a2 21 3f 43 fb d6 be cf 29 c0 be
       0.27700475 0.6313904 -0.41988572 -0.37531897
000020 61 b6 bd 3e 6c 91 f4 3e 03 91 87 be ea 16 f0 be
       0.37053207 0.47767198 -0.26477823 -0.46892482
000030 c1 39 cb 3e 04 62 25 3f 2a 48 20 bf 80 c4 aa be
       0.396925 0.64602685 -0.62610114 -0.33353043
000040 02 15 fb 3e 03 4b d3 3e 7c fc 34 be cd 2e 0a bf
       0.49039465 0.41268167 -0.1767444 -0.5397766
000050 9d f0 ef 3e 10 f2 94 3e df 51 06 bf 1a 4f 35 bf
       0.4686326 0.2909093 -0.52468675 -0.70823824
000060 c3 90 fe 3e b1 b6 05 3f 67 0a d0 be 9f 3e f2 be
       0.4971982 0.5223189 -0.40632936 -0.473134
000070 42 32 11 3f a3 bc 05 3f 4f c9 1b bf 7a 01 c7 be
       0.5671731 0.5224096 -0.6085405 -0.38868314
000080 8b 27 fe 3e 82 55 11 3f 60 80 dc be 6f 4e e0 be
       0.49639544 0.567711 -0.43066692 -0.4380984
000090 e9 27 c1 3e d4 e6 d1 3e 13 5d 0c bf 87 f6 ca be
       0.37725762 0.4099642 -0.5482952 -0.3964121
0000a0 cd e3 55 3e 12 fe e7 3e 05 be 29 bf 82 3b 05 bf
       0.2088768 0.45311028 -0.6630557 -0.52043927
0000b0 bb 48 03 3f 23 74 07 3f 1c ce e0 be dd e2 f2 be
       0.5128285 0.52911586 -0.4390725 -0.47438708
0000c0 7c 37 6b 3e 42 dd 03 3f 83 a6 a7 be 7a 37 17 bf
       0.22970384 0.5150949 -0.32744226 -0.59069026
0000d0 47 b8 fd 3e 1f 1a 86 3e cf b3 b7 be 71 c4 0e bf
       0.49554655 0.26191804 -0.3587937 -0.55768496
0000e0 09 2c 0f 3f ee 0b 18 3f 07 45 e5 be 36 5f 2b bf
       0.5592657 0.59393203 -0.44779226 -0.66942155
0000f0 2a fe a6 3e 26 58 14 3f 96 f0 70 be 36 d7 18 bf
       0.32615787 0.57947004 -0.23529276 -0.59703386
000100 c0 33 5f 3e 4c 1e 06 3f 78 08 40 bf 70 9e 9a be
       0.21797085 0.5238998 -0.7501292 -0.30199003
000110 31 ef 35 3e 72 84 f6 3e 84 96 1a bf 1b dc 10 bf
       0.17767026 0.48147923 -0.6038592 -0.56585854
000120 52 27 22 3f 85 af 1e 3f bd 5d ec be 31 c7 e2 be
       0.6334125 0.6198657 -0.46165267 -0.44292596
000130 0e 51 04 3f c5 ba b5 3e f2 da 08 bf 9a ff a0 be
       0.5168618 0.35494056 -0.53459084 -0.3144501
000140 65 ac 86 be bd 9f 1d be ed 5b 16 bf da 2f e2 be
       -0.26303402 -0.15392967 -0.5873402 -0.44177133
000150 cf 23 7b 3d 98 ea 70 3e 99 a0 ff be f8 a1 b6 be
       0.061313447 0.2352699 -0.49927214 -0.35670447
000160 d9 37 98 be d2 09 a9 3b 92 5c 95 3c e7 5e 00 bf
       -0.29730108 0.0051586414 0.018232618 -0.5014481
000170 bb 07 32 3e 03 22 8b 3e 07 4a 15 bf 48 df c5 be
       0.17385761 0.27174386 -0.5831608 -0.38646913
000180 a2 08 0e 3d f0 1f c2 bd 38 bf 63 be cc 51 08 bf
       0.0346762 -0.09478748 -0.22240913 -0.5324981
000190 ab 74 3e be 1d a5 23 3e 0c 93 f5 be ab 78 08 bf
       -0.18599193 0.15980954 -0.4796375 -0.53309125
0001a0 2c eb db bd 6c f4 e3 bd 77 31 a5 be a5 41 d7 be
       -0.10738215 -0.11130604 -0.322643 -0.4204227
0001b0 00 fb b3 be 74 87 90 be c5 03 a9 be 89 81 c7 be
       -0.35152435 -0.28228343 -0.33010688 -0.38966015
0001c0 87 11 a0 3d ec d7 8f 3e 27 fe bf be 94 76 f6 be
       0.07815843 0.28094423 -0.3749859 -0.48137343
0001d0 8f fc 37 be 4f b0 74 3e 5a c3 da be 0d 03 f1 be
       -0.17967437 0.23895381 -0.42727166 -0.4707264
0001e0 85 66 b9 bd ad e7 fb 3d 4e 68 dd be 49 31 a8 be
       -0.09052757 0.12300048 -0.4324364 -0.32850102
0001f0 f0 95 18 bd d6 45 09 be e2 4d 26 bf fd a8 3a bf
       -0.037252367 -0.13405547 -0.6496259 -0.72914106
000200 11 ba df 3d 01 7a a4 bc da 47 f4 be 79 0b 0b bf
       0.10924161 -0.020077707 -0.47711068 -0.5431438
000210 1c 5e 9b be db b9 f8 bc a5 ba 47 be 9d f5 c6 be
       -0.30345237 -0.03036206 -0.19504793 -0.38859263
000220 62 dd b4 3d 90 14 b5 3c 9f b1 01 bf 06 3a e1 be
       0.08831288 0.022104532 -0.50661653 -0.4398958
000230 99 fd ab be 03 34 33 be 23 a4 19 be 97 98 b0 be
       -0.33591917 -0.1750031 -0.1500402 -0.34491417
000240 5a 1e 1c 3e e9 e6 bd 3e e6 a3 ce be f2 eb 8c be
       0.15245953 0.37090233 -0.4035942 -0.27523762
000250 09 f3 33 3e 8c 3e 4a 3e f3 8e c2 be fb 87 d0 be
       0.1757318 0.19750422 -0.37999687 -0.40728745
000260 a4 a8 91 3d 47 3d f0 3c 6b 0e f2 be 17 fa c9 be
       0.07112244 0.029326094 -0.47276625 -0.39448616
000270 1c ea 4e be d2 db 47 3e 3b 5b 0f bf 2a 5b 8f be
       -0.20206493 0.19517449 -0.5599858 -0.2799924
000280 42 cb dd bd 15 ce 6c 3e e2 05 4e be 9d 2b 0b bf
       -0.10829784 0.23125489 -0.20119432 -0.54363424
000290 eb 47 6a 3d ea cf cf 3e 13 f8 e2 be 83 24 8e be
       0.057197493 0.40588313 -0.4432989 -0.2776223
0002a0 3c 34 77 3e a8 c6 1b 3e 38 b0 cc be 0b 06 cb be
       0.2414102 0.152125 -0.39978194 -0.39653048
0002b0 11 6c b5 3d 46 86 96 3e 3a 45 10 bf 3b 70 a1 be
       0.08858503 0.29399318 -0.5635563 -0.31530938
0002c0 77 70 92 3d 0d e4 c1 3d 93 fd 0f bf 4e a1 01 bf
       0.07150357 0.09467325 -0.562463 -0.50636756
0002d0 17 6b 90 be 32 5b 94 be f4 90 22 3f 85 16 ef 3e
       -0.28206703 -0.28975827 0.6350243 0.4669687
0002e0 ce ad 81 bb 48 a1 87 bd ff f9 b0 be e2 14 c3 be
       -0.0039574867 -0.06622559 -0.34565732 -0.3810187
0002f0 d9 92 43 3e ff 25 c6 bd 4f 90 24 bf 9c 97 bd be
       0.19098987 -0.09675216 -0.642827 -0.3702973
000300 07 38 a7 b9 f4 b2 54 bd 05 fe a7 be 39 3b d0 be
       -0.00031894466 -0.051928475 -0.3281099 -0.40670183
000310 85 e8 1d be 1b ae ba bd fb 9e 05 3f e9 5a aa 3e
       -0.1542073 -0.09115239 0.5219571 0.33272484
000320 40 da 74 3e 0b 8a 81 3e 09 aa f7 be c5 7f d8 be
       0.23911381 0.2530063 -0.48371914 -0.4228498
000330 92 26 82 3e 5e b4 c6 3d ff 67 1e bf 5f 8b f7 be
       0.25420052 0.09702371 -0.61877435 -0.4834852
000340 9b 6f aa be 33 64 92 be 40 ae a1 3e 84 8f ee 3e
       -0.33288273 -0.2859207 0.31578255 0.4659387
000350 64 02 0a be 60 ef 63 be 75 12 96 3e 5b 01 d0 3e
       -0.13477474 -0.22259283 0.29310957 0.40626034
000360 0d 9e 88 be ca 8a a5 be de 7f dc 3e bc d7 0b 3f
       -0.26683083 -0.3233245 0.43066305 0.5462606
000370 9e 95 2f 3e b0 1b 18 3e ad af fd be 77 7f f3 be
       0.17146918 0.14854312 -0.49548092 -0.47558185
000380 c8 19 8a 3e 64 f9 e0 3e ce 04 3c bf 86 8f 92 be
       0.26972795 0.4394027 -0.7344483 -0.28625125
000390 ec 54 d3 be 4f 8a 9c be 39 a1 ce 3c e9 f3 bc 3e
       -0.41275728 -0.3057427 0.025223361 0.3690484
0003a0 76 7e d3 3d 11 c0 a4 3d 8d c5 96 be d1 9e ee be
       0.10326855 0.08044446 -0.29447594 -0.46605542
0003b0 bc bb 33 3e fd e5 90 3e 5a 7c 61 bf 18 f6 b3 be
       0.17552084 0.28300467 -0.8808037 -0.35148692
0003c0 5e c5 09 3f 78 b8 c7 3e 3c fe 80 be 32 63 34 bf
       0.53816783 0.39007926 -0.25193965 -0.7046386
0003d0 fe 16 e0 3e b0 58 9e 3e 5c 31 de be f9 fd d2 be
       0.43767542 0.30927038 -0.43397033 -0.4120939
0003e0 b1 9a 26 3f c2 43 aa 3e b7 fc 25 bf 61 83 ff be
       0.6507979 0.3325482 -0.6483874 -0.49904922
0003f0 33 cd bb 3e 54 8a f4 3e ef 54 03 bf ee e5 63 be
       0.36679992 0.47761786 -0.51301473 -0.2225568

weight_hh f4 [80, 20]
000000 09 2e 5e 3e 0d dc 76 3d 2d b3 a1 3e f9 04 06 3e
       0.21697249 0.06026845 0.31582013 0.13087834
000010 54 e4 a9 3e ff 55 b0 be 63 88 d1 3e fa 13 da bd
       0.33182013 -0.3444061 0.40924367 -0.106483415
000020 ba cd 7c 3e dd d4 66 be 28 4f 4c 3e eb 24 05 3f
       0.24687853 -0.22542138 0.1995207 0.5200946
000030 98 93 bd be 23 cd 1f be 01 fc f2 be 94 a1 e6 3e
       -0.37026668 -0.15605597 -0.4745789 0.4504515
000040 9f 7e 11 3e 26 cc 8e be 30 49 24 3f 79 88 d2 3e
       0.14208458 -0.27890128 0.64174175 0.41119745
000050 39 32 8a 3e 12 62 86 3d 0b b1 4e 3d 94 01 c3 3d
       0.26991442 0.06561674 0.05046181 0.095217854
000060 b8 6e 98 3e 69 db 4f be 21 85 1d 3d 18 47 fe 3d
       0.29771972 -0.20298542 0.03845704 0.12415904
000070 9c 33 9e 3e 9c 59 78 bd ff 42 4d 3e e5 fb f4 bc
       0.3089875 -0.060632333 0.20045088 -0.029905269
000080 41 98 8d be 11 96 d9 bb d7 a5 27 be 9a e1 98 3e
       -0.27655223 -0.0066402038 -0.16371857 0.2985962
000090 33 cb e3 3e 7d f9 aa be 1f da 65 3e e6 a5 51 3e
       0.44490966 -0.3339347 0.22446488 0.20473441
0000a0 a7 e4 4c 3e c5 92 6d bd ac d5 a7 3e d5 71 21 3e
       0.20009099 -0.0580013 0.32780206 0.1576608
0000b0 e5 3f f4 3e fb f5 84 3b 9b 6a 28 3e 8c 8b 0e 3e
       0.47704998 0.0040576435 0.16446917 0.1392042
0000c0 70 ea ad 3e 3c 6b 93 bb 7a cf 86 3e 5f 97 12 3f
       0.33967924 -0.0044988673 0.26330167 0.57262224
0000d0 0f d7 ae bd c1 ce 5b be ba a6 e6 be e8 ca 0d 3e
       -0.08537113 -0.21465589 -0.45049077 0.13846934
0000e0 10 f2 8f bd bd a4 b6 be d9 fe 92 3e b2 19 cf 3e
       -0.07028592 -0.3567256 0.28710058 0.4044929
0000f0 c4 9f 31 bd 38 c2 d1 3e 86 57 98 3e 91 3c bd 3e
       -0.043365255 0.4096849 0.29754275 0.3696027
000100 92 8d 6b 3e 7b d1 57 bd 23 72 28 3e 72 ec b9 bc
       0.23003224 -0.05269001 0.1644979 -0.022695754
000110 f1 1a 95 3e cb c2 86 bd 24 e3 9f 3e 60 a3 87 bc
       0.29122117 -0.065801226 0.31227982 -0.016557395
000120 4e 99 34 be 49 01 92 3c 21 42 2e be 54 d7 d5 3d
       -0.17636606 0.017822878 -0.17017414 0.10441461
000130 f0 62 df 3d 0a 0a d6 bd a4 4c 2b 3e 6d 5d 1d 3e
       0.10907543 -0.104511335 0.16728455 0.1536767
000140 b4 a5 06 3f 82 ab 67 bc 42 38 e5 3e 1a 44 15 3e
       0.5259659 -0.014140012 0.44769484 0.1457676
000150 a7 9c a3 3e 06 b0 67 be 03 cd 3b 3e 75 92 bd 3e
       0.31955454 -0.22625741 0.18339925 0.370258
000160 72 01 d5 3e 1c 1d 83 be c9 86 6f 3e a1 f8 18 3f
       0.41602665 -0.25608146 0.2339126 0.5975438
000170 93 28 0c be 35 98 85 be 2a e7 d2 be 72 81 c7 3e
       -0.13687353 -0.26092687 -0.4119199 0.38965946
000180 0a e5 aa 3e 48 40 4b be 66 08 34 3f 9d f8 a5 3e
       0.33377868 -0.1984874 0.70325315 0.3241624
000190 dc a3 01 be 91 6d 1e 3e 53 c5 5f 3d 26 50 25 3e
       -0.12660164 0.15471484 0.054631542 0.16143855
0001a0 90 45 6e 3e 1f 4a e7 bc ae a7 3e 3d 8d 7c e7 bd
       0.23268723 -0.028233586 0.04654663 -0.11303053
0001b0 37 d8 c3 3e 1a 19 77 bd 71 92 71 3e cc 57 81 3e
       0.38250896 -0.060326673 0.23591019 0.25262296
0001c0 5d 4c 2a be d0 e2 b4 be 18 e1 fb bb 52 49 99 3e
       -0.16630693 -0.35329294 -0.0076867454 0.2993875
0001d0 94 39 d1 3d 4c 23 8a be 92 44 91 3e 3b 2a 75 bc
       0.1021606 -0.26980054 0.28372627 -0.014963682
0001e0 d0 61 a3 3e 31 91 ed 3e 37 e5 aa 3d f7 de 7a 3e
       0.31910563 0.46399835 0.083445005 0.24499117
0001f0 48 a3 b5 3e 07 41 d1 be 09 75 1c 3e d0 74 80 3e
       0.35476136 -0.40869924 0.1527902 0.2508912
000200 88 f5 68 3e f9 a3 9c be 97 08 af 3e e8 6e e0 3e
       0.22749913 -0.3059385 0.3418624 0.43834615
000210 e4 48 ba bd 34 19 6e be 38 22 b2 be ad e6 c8 3d
       -0.09095934 -0.23251802 -0.34791732 0.09809623
000220 f7 42 ca 3e 0e a9 27 be ac c9 93 3d 71 c0 be 3e
       0.39504215 -0.16373083 0.072162 0.37256196
000230 83 30 9a 3e 36 38 7a bd 3d 97 8d 3e dc 14 d0 bd
       0.30115137 -0.061088763 0.27654448 -0.101602286
000240 63 52 b7 3e 7f cd 58 bd df 9b 59 3e bb 58 2e 3e
       0.35805044 -0.05293035 0.21250866 0.17026035
000250 0f 4a 15 3f d0 42 97 3d 40 22 5e 3e a4 05 87 3e
       0.5831613 0.0738579 0.21692753 0.2637149
000260 f2 c7 2e be 5c fa eb be a7 14 4f 3b 5b 94 94 3e
       -0.1706846 -0.46089447 0.0031598003 0.29019436
000270 1e d1 2a bd 5c 84 7e be ba 7b be 3e 17 7d b1 3e
       -0.041703336 -0.24855179 0.3720377 0.34665748
000280 df 72 f1 3d b6 e5 62 3e 35 4a 3b be ee 84 d6 3d
       0.11789488 0.2215794 -0.18290026 0.10474573
000290 52 be 8a 3e 96 3c 1c be d7 f8 77 3e 17 6b 88 3e
       0.27098328 -0.15257487 0.24216019 0.26644203
0002a0 5d e7 39 3e 33 cd 9d be 96 4c e0 3e 44 13 b5 3e
       0.18154664 -0.30820617 0.4380843 0.3536626
0002b0 7c c5 8a be 4f ed 62 be c1 05 cc be bc 66 36 3c
       -0.27103794 -0.22160839 -0.3984814 0.011132892
0002c0 07 53 8c 3e 4d eb 91 be fe ae aa 3e a4 50 45 3e
       0.27407095 -0.28499833 0.33336633 0.19269043
0002d0 b6 e9 6a 3d c8 fc 9c 3e 5c fe 5e 3e 13 80 56 3e
       0.05735179 0.30661607 0.21776718 0.20947294
0002e0 e0 91 ae bd 62 7a e4 be 00 ae a5 3e a1 5e a8 3e
       -0.08523917 -0.4462462 0.32359314 0.32884696
0002f0 42 a1 f3 3c d4 9e 64 bd e6 52 88 3e b4 e0 4e bd
       0.02973998 -0.055815533 0.26625746 -0.050507262
000300 f3 f9 3a be 7b 33 a5 be b4 5f ad bd 1c 2a 43 3e
       -0.1825941 -0.3226584 -0.084655195 0.19059032
000310 3a 6d b5 3e 53 a8 7a be 5e 0f bd 3d 79 73 a4 3d
       0.35434896 -0.24478273 0.09231447 0.08029837
000320 8d 47 47 bd 19 f9 42 bc b0 08 44 3e 6e f3 7d 3d
       -0.04865222 -0.01190021 0.19143939 0.06199973
000330 44 6b f1 3d 1f f9 9d be bd 52 10 3d 70 a9 a6 bd
       0.117880374 -0.30854127 0.035235155 -0.081377864
000340 15 b2 33 3e 2a 78 e9 3d 9c 21 b0 3d c7 40 3f 3e
       0.17548402 0.113998726 0.086001605 0.18677054
000350 83 15 82 be e8 b5 99 be 11 fa f2 be 81 a5 be bc
       -0.25407037 -0.30021596 -0.4745641 -0.023272278
000360 89 54 b7 3c a0 1f 8f be d1 2d 9d 3d 38 39 2e 3e
       0.022379177 -0.27953815 0.076747544 0.17014015
000370 79 59 eb 3e 88 ce ce bc 0c d9 b7 3e de 1a 18 bc
       0.459667 -0.025244966 0.3590778 -0.009283749
000380 8f e5 ac 3e a4 48 90 be 9e e3 a5 3d 16 8a a3 3a
       0.3376889 -0.2818042 0.08100055 0.0012477066
000390 82 9f 73 3e ae 49 b3 be cb 71 82 3e 8e 19 59 3e
       0.23791316 -0.3501715 0.25477442 0.21201155
0003a0 95 84 8a bd a7 e1 9b be 09 92 0c bf 68 22 20 3e
       -0.06763569 -0.30445597 -0.5491033 0.15638125
0003b0 cd 8f b4 3e 74 65 9d be 85 e0 ec 3e d5 cf c8 3e
       0.3526596 -0.30741465 0.46265045 0.39221063
0003c0 07 46 9d 3d 56 4d c0 3e d5 85 01 3e 68 5e da 3c
       0.07679372 0.37559003 0.12648709 0.026656345
0003d0 f7 2c c2 3e 4c 1f d0 be 01 0e f5 3d ab a4 a9 bc
       0.3792493 -0.40648878 0.11965562 -0.020708403
0003e0 08 c1 b7 3e 31 55 59 be ec 68 ca 3e 4c 94 26 3e
       0.3588946 -0.21223904 0.39533174 0.16267508
0003f0 f0 12 4b be 29 ca 16 be 17 06 9a be 20 60 33 3e
       -0.19831443 -0.14725555 -0.3008277 0.17517138

bias_ih f4 [80]
000000 bb 15 08 3f 50 6f 7f 3e a4 46 f6 3e 1b d1 d4 3e
       0.5315816 0.24944806 0.4810077 0.41565785
000010 25 aa c3 3e b4 b1 d5 3e da 99 02 3f c6 6c 17 3e
       0.38215747 0.4173714 0.5101601 0.14787588
000020 fb 34 06 3f 54 48 08 3f be d8 93 3e c3 97 0f 3f
       0.5242459 0.53235364 0.288763 0.56090945
000030 dc 9b 99 3e f2 e2 09 3f 6d 23 b3 3e 64 ef 09 3f
       0.30001724 0.53861916 0.34987965 0.53880906
000040 2e c4 f7 3e 90 be c7 3e 22 09 ae 3e e9 24 09 3f
       0.4839186 0.39012575 0.33991343 0.53571945
000050 66 5f a2 3d c2 1b 96 3d d5 0e e5 bd e9 db 5d 3e
       0.07928352 0.07329513 -0.111844696 0.2166592
000060 55 22 49 be 3c a2 93 3d 2e 48 ab 3c 96 5e 96 be
       -0.19642003 0.07208678 0.020908441 -0.29369038
000070 73 cb 25 3e 46 05 5c bd 4d ee 16 be 95 e9 11 3e
       0.16190891 -0.053715967 -0.14739342 0.1424926
000080 2c a6 e9 3d cb 2c da 3d 2a d4 a5 3e c1 da 2c be
       0.11408648 0.10653075 0.3238843 -0.16880323
000090 13 20 91 3d e5 c7 39 bc 6a be 59 3e 1e cd c7 3d
       0.07086196 -0.0113391625 0.21264043 0.0975592
0000a0 a4 54 ab 39 0e d0 0c 3f 5c 39 c4 bd b8 ff c6 3e
       0.00032678724 0.55004966 -0.09581253 0.38866973
0000b0 2d 04 16 3e 55 2e b1 be e4 fa 28 3e 72 76 7f 3e
       0.1465003 -0.3460566 0.16501957 0.24947527
0000c0 16 2b d8 bc df b4 e1 be 65 d2 be 3e 43 9f 89 3e
       -0.026387732 -0.44083306 0.37269893 0.2687932
0000d0 20 0e 03 be a7 09 01 3c dd a5 29 bd 3d b7 27 3e
       -0.12798357 0.007875836 -0.041417945 0.16378494
0000e0 4d aa 56 3e 70 63 89 be c0 7e 95 bd d4 6d 4f 3e
       0.20963402 -0.26833677 -0.07299566 0.2025674
0000f0 73 40 b5 3e ad 9f f6 3e 21 4e bb 3e b3 5e 9d 3e
       0.35400733 0.48168698 0.36583045 0.30736312
000100 c5 4c 33 3f 25 33 77 3e 65 6e 0c 3f d8 4b 2a 3f
       0.70039016 0.24140604 0.5485595 0.6652198
000110 d6 ee f7 3e 43 d5 1e 3f 48 86 bb 3e ee 83 7a 3e
       0.48424405 0.6204416 0.36625886 0.2446439
000120 88 fa ad 3e 53 29 b6 3e cf 6f 8f 3e 0b f6 87 3e
       0.33980203 0.35578403 0.2801499 0.26554903
000130 12 e5 08 3f 5a 14 10 3f 22 c3 2b 3f 2d 86 15 3f
       0.53474534 0.56281054 0.67094624 0.5840786

bias_hh f4 [80]
000000 47 e7 91 3e 5b 8b ce 3e 88 8c 00 3f cc 7b 1f 3f
       0.28496763 0.40340695 0.50214434 0.62298274
000010 d3 dd c0 3e 13 95 05 3f 15 c7 1d 3f 30 22 a1 3e
       0.37669238 0.52180594 0.616319 0.31471395
000020 da 3f 5b 3e cb da 0c 3f 23 1b 08 3f c3 31 a0 3e
       0.21411076 0.5502135 0.5316641 0.31287965
000030 fd 94 17 3f df d8 b7 3e 23 55 90 3e 8e d1 f4 3e
       0.59211713 0.35907647 0.28189954 0.47816128
000040 f3 86 09 3f 61 7c d2 3e 4d 42 94 3e fe 60 9e 3e
       0.5372154 0.4111052 0.28956833 0.30933374
000050 92 c4 1c 3e 0b a8 8b 3e 74 41 7f 3d 1e 5e 53 3e
       0.1530936 0.27276644 0.06231828 0.20641372
000060 76 52 0c 3e c0 bb 1c bc 1d 9d 9e 3d 36 6c 45 bc
       0.13703331 -0.009566247 0.07744811 -0.012049725
000070 43 9a 2c 3e b6 46 a4 3e 76 73 0c bd d9 4b ee 3d
       0.16855721 0.32085198 -0.0342898 0.116355605
000080 26 eb b4 bd dc d4 00 3e ce 07 b4 3d 40 b0 f5 3d
       -0.088339135 0.125812 0.08790551 0.11996508
000090 56 95 be 3d ae 67 e5 3b 16 26 a3 3e 56 80 61 3d
       0.09305827 0.007000885 0.31864995 0.05505403
0000a0 c3 45 1f 3b bb 15 6e 3e 2c b5 31 3e 43 f2 ce 3e
       0.0024303056 0.23250477 0.17354268 0.40419206
0000b0 d9 40 9c 3b a5 51 98 be 19 07 73 3e cb 9f 6c 3e
       0.0047684726 -0.2974979 0.23733176 0.23107831
0000c0 65 c9 4b 3e b8 97 d0 be a1 75 1a 3e b4 22 40 bd
       0.19901045 -0.40740752 0.15083934 -0.046908095
0000d0 06 03 c1 be cc e4 35 bd cf 50 23 be 75 df 8f bc
       -0.3769762 -0.04440765 -0.15948795 -0.017562607
0000e0 ee f2 55 3e 1d ea ad bd b9 6d 9d bc 92 0f 49 bd
       0.20893452 -0.08491919 -0.019217359 -0.049087115
0000f0 37 e0 20 3f 02 b8 a4 3e f4 32 05 3f a5 2c 15 3f
       0.62842125 0.32171637 0.52030873 0.5827125
000100 f7 62 ac 3e ef 27 b5 3e 5a d6 9d 3e 68 b3 2b 3f
       0.33669254 0.3538203 0.308276 0.6707063
000110 08 d9 bc 3e 54 2f 22 3f ee 0f e1 3e 2c 4c af 3e
       0.36884332 0.63353467 0.43957466 0.34237802
000120 47 67 09 3f 46 07 7c 3e aa 59 a8 3e 53 d0 be 3e
       0.53673214 0.2461215 0.32880908 0.37268314
000130 47 f8 26 3f a0 3b 24 3e 56 7c 1c 3f 02 e6 3a 3f
       0.6522259 0.1603837 0.6112722 0.73007214

Wf f4 [22, 1]
000000 8e 10 f1 3e 77 dd 14 bc 9b bb 51 3e e6 6b c2 3c
       0.47082943 -0.009086004 0.20481722 0.02373309
000010 2b 89 f9 3e 0f 1a 49 be 23 39 89 3e 3f ae 91 3e
       0.48737463 -0.19638847 0.26801404 0.28453252
000020 77 ae 92 3e 53 0a fe 3b 51 1b 3b 3e 3d 08 05 3f
       0.2864873 0.0077526956 0.18272139 0.51965696
000030 7f 9f 85 be 90 44 8c be a3 17 13 bf 24 19 d8 3e
       -0.26098248 -0.2739606 -0.5745794 0.4220668
000040 81 4c 70 3b 0b 73 bd be aa b9 b0 3e 20 9a f9 3e
       0.0036666694 -0.37001833 0.3451665 0.487504
000050 28 5d 90 be fc 30 3d 3d
       -0.28196073 0.046189293

Wi f4 [22, 1]
000000 d5 fe ed 3e ac 8d 97 3e 12 2b e5 3e 21 e1 8f 3e
       0.46483484 0.29600275 0.44759423 0.28101447
000010 ef 11 ee 3e af 1d b5 be 3c 75 f3 3e 8a 32 d5 3e
       0.46498057 -0.3537421 0.4755038 0.4164012
000020 e7 7f ee 3e 4a 95 95 be 3e c7 a9 3e 7f 86 d7 3e
       0.46581957 -0.2921546 0.33159822 0.420948
000030 45 da b8 be b5 00 c9 be ea e5 b4 be b9 b4 e7 3e
       -0.36104026 -0.39258352 -0.3533166 0.45255068
000040 21 af 93 3e dc a3 b8 be bf 5a e1 3e 4b 7b c6 3e
       0.2884455 -0.36062515 0.44014546 0.3876594
000050 d0 3a 19 bf 39 60 13 be
       -0.59855366 -0.14392175

ct f4 [17386, 1]
000000 30 96 6d 3d 35 18 dc 3d 1b 56 28 be 46 12 5e be
       0.058004558 0.107468046 -0.16439097 -0.21686658
000010 76 99 2b be c0 65 ed 3d 83 e4 f4 3d 31 ff bc 3d
       -0.1675776 0.11591673 0.11957648 0.092283614
000020 26 ce f7 bd 03 cb 79 bd b3 01 de bc 6e 04 bb 3d
       -0.120998666 -0.060984623 -0.02710042 0.09131704
000030 c8 2c b7 bc 22 e7 a1 bd 0e f6 7e bd 54 26 9d bd
       -0.02236022 -0.07905413 -0.062246375 -0.07673326
000040 ed 1e 02 3e f8 31 6c 3e f8 01 64 3d 3b 34 72 3b
       0.1270711 0.23065937 0.05566594 0.0036957401
000050 57 de 95 bd e4 3c 01 3e c7 be a2 3d 85 61 33 3e
       -0.073177986 0.12620884 0.07946544 0.1751767
000060 b0 3e c1 3c 6e 94 91 3d a9 a8 19 3e 38 b5 34 be
       0.023589462 0.07108389 0.15005745 -0.17647254
000070 c0 7b 51 be 79 fd 1b be f1 b0 23 3d bf d6 62 3e
       -0.20457363 -0.15233411 0.039963666 0.22152232
000080 64 e1 97 bd be e3 27 be ee 5f 30 be a2 9d cd bd
       -0.07416037 -0.1639547 -0.17224094 -0.10039832
000090 65 00 3f 3d 9b a9 3f 3e 13 f1 48 3d 7e 6b 29 3d
       0.046631236 0.18717043 0.04905803 0.04136228
0000a0 9b 77 99 bd 0b c5 b5 3c 8a 46 39 3e 44 20 d6 3c
       -0.07493516 0.022188684 0.18093315 0.026138432
0000b0 c7 60 f1 bc 7e 02 33 be 81 46 d3 3d 4b 06 2f 3e
       -0.029465092 -0.1748142 0.10316182 0.17092244
0000c0 4f ef 19 3d 2a d0 1b 3d 4b e2 07 3e cb 22 24 3e
       0.037581738 0.038040318 0.13269918 0.16028897
0000d0 ed a8 c0 bc c3 0b ee bd a3 09 3b bd f7 30 8b 3c
       -0.02351805 -0.11623337 -0.045663487 0.016991122
0000e0 0d cc 12 3e 82 f3 b5 bd 0e 71 43 be 9a d7 1a be
       0.14335652 -0.08884336 -0.19086096 -0.15121308
0000f0 e6 2e 76 3d c1 44 24 3e cf 20 a0 3c c3 b8 04 3d
       0.06010332 0.16041853 0.019546894 0.032402765
000100 26 d8 47 3d 66 d1 c3 bd ed c0 af 3d 25 aa 40 3e
       0.04879012 -0.09561424 0.085817195 0.18814905
000110 44 7e 52 3e ac da 28 3e 7d 38 51 be 81 15 46 bc
       0.20555979 0.16489667 -0.20431705 -0.012090088
000120 56 2b 18 3e d0 dd 3c 3e 9a 27 12 3e ee 45 35 3d
       0.14860281 0.1844399 0.1427292 0.044256143
000130 e6 fd 9d 3b 0f ea 29 be cf db 42 be 21 5d 62 be
       0.004821527 -0.16593193 -0.19029163 -0.22105838
000140 77 e3 ea bd 17 bc e8 3d 04 21 59 3d b4 4b 14 be
       -0.11469167 0.11364 0.05301 -0.14482003
000150 f1 06 ac 3d dc fb 59 bd 24 bb 9d bc 67 71 77 3d
       0.083997615 -0.053218707 -0.019254275 0.060410883
000160 0c 8f 53 3e 03 f5 b2 3d d0 fb 1d bc 05 e2 0c 3d
       0.20660037 0.087381385 -0.009642556 0.034395237
000170 70 ae 2d 3e d5 04 ca 3d e4 ed 93 bd 43 2e cf bd
       0.16961074 0.09864203 -0.072231084 -0.101162456
000180 88 08 bf bc f4 df 9a bd fa db 89 be 6b f3 12 be
       -0.023319498 -0.07562247 -0.2692564 -0.14350669
000190 d6 e7 50 3d 50 2e 74 3d f4 3c ed bd 74 97 6b be
       0.051002346 0.05961448 -0.115838915 -0.23006994
0001a0 01 8a 84 be 05 6e 15 bc 96 4d 9b bd 70 09 fe bd
       -0.2588654 -0.009120469 -0.07583158 -0.12404144
0001b0 60 dd 12 bd 3b 45 a3 3d eb 10 a6 bd b1 f0 8b 3d
       -0.03585565 0.07972189 -0.081086956 0.068330176
0001c0 2c 1e 30 3d b5 aa 88 3e 56 7b 70 3e 4d 28 19 be
       0.042997524 0.2669274 0.23484549 -0.1495678
0001d0 40 7c 58 bd 35 b1 bc 3d 6c 14 94 3d dd 89 8e 3d
       -0.05285287 0.09213487 0.07230458 0.06959889
0001e0 12 27 9d 3c 3d ce 97 bd 7f 05 20 be 0f 70 fe bd
       0.01918367 -0.07412384 -0.15627097 -0.12423717
0001f0 50 63 40 be f4 2f 01 be 8d a6 40 bd a9 53 f9 bd
       -0.18787885 -0.12615949 -0.047033835 -0.1217416
000200 4a 39 77 be 9f 55 79 be 2b 7e 01 bd 10 7a 12 3d
       -0.24142948 -0.24349068 -0.031614464 0.03576094
000210 fc a7 e1 bd 11 13 11 bd 45 87 14 3e ac e4 3a bd
       -0.110183686 -0.035418574 0.14504726 -0.045628235
000220 91 da 42 3b bb 95 d3 3d 7a 08 3e 3e d8 a2 6a 3e
       0.0029732327 0.10331293 0.18557921 0.22913682
000230 28 94 6b 3d 4c 24 4a 3d fe 4d 49 3e a0 e9 40 3d
       0.05751434 0.04935102 0.19658658 0.047097802
000240 34 93 7c bd dd d7 a5 bd 5e 51 18 bb 25 fe cd bd
       -0.06166382 -0.08097813 -0.0023241858 -0.1005824
000250 b0 2e 72 be 58 86 29 be 51 4d 8e 3d d3 64 dd 3d
       -0.23650622 -0.16555154 0.06948341 0.10810246
000260 92 83 74 bc 53 12 29 3c 4f a7 2b 3d 32 3e 34 3d
       -0.014923947 0.01031931 0.041907605 0.044004627
000270 d9 5a 4f 3e 42 4c 4f be c2 b0 0c be b8 ce 09 be
       0.202495 -0.20243934 -0.13739303 -0.13457763
000280 47 ae 0b 3e e6 b4 cf 3d 69 b2 88 be 08 e5 ab be
       0.136407 0.101419255 -0.26698616 -0.33573174
000290 e2 57 6e be 90 22 21 3e 60 bd 29 3d c3 37 23 be
       -0.23275712 0.15735841 0.041440368 -0.1593924
0002a0 d1 11 c5 be eb ec 88 be e7 66 95 3e 63 f7 0e 3d
       -0.38490155 -0.26743254 0.2918007 0.034903895
0002b0 96 7b 93 bd 6e 47 2e be ac b7 92 be a9 25 80 3e
       -0.072013065 -0.17019436 -0.28655756 0.25028732
0002c0 4f b0 44 3e 3d 3a 30 bd ab 0d 21 3d 31 42 e9 bd
       0.19207881 -0.04302429 0.039319675 -0.11389578
0002d0 eb 87 2b 3e 3f 04 da 3d 82 de f2 bc 4d 5d a5 bd
       0.16751067 0.10645341 -0.029647116 -0.08074436
0002e0 5c ef 03 bd af 13 4c 3e 14 49 c5 3d 70 15 40 be
       -0.032210693 0.19929384 0.09633079 -0.18758178
0002f0 a8 90 a9 be 3e ab 1b be b4 51 7d 3e b8 e6 30 3e
       -0.33118176 -0.15202042 0.24738199 0.17275512
000300 f6 b2 91 be 19 1a 8d be b9 aa ae be ee 0b 02 3e
       -0.2845685 -0.27558973 -0.34114626 0.12699863
000310 6b a3 71 3c 8f 2d 0c be 5b da 8f be 06 32 3d be
       0.014748435 -0.13689254 -0.2809628 -0.18476114
000320 95 94 3a 3e 52 31 8f 3e b1 3e a1 bd 68 65 07 be
       0.18220742 0.27967316 -0.078732856 -0.13222277
000330 d2 73 b3 bd 4e 76 71 3e ac 94 b6 3d 06 02 71 bc
       -0.08762325 0.23580286 0.08915076 -0.014709955
000340 b5 dc 91 bd b4 b4 95 bd 85 87 21 3e ee 63 cf 3d
       -0.07122175 -0.07309857 0.15774353 0.10126482
000350 6f 58 18 be 93 4d 86 be 42 a6 5c be 09 ab 2e 3e
       -0.14877485 -0.2623106 -0.21547797 0.17057432
000360 14 00 6d 3b d9 f6 86 be 67 cd 3f be 97 fa b4 be
       0.0036163377 -0.26360205 -0.18730699 -0.35347435
000370 79 8a 3a 3e 37 b0 48 3e e7 de 09 be a3 cd 55 be
       0.18216886 0.1959847 -0.13463937 -0.20879225
000380 89 98 90 be b4 07 1e 3e 7b 9e 5e be ef 29 8a be
       -0.28241375 0.15432626 -0.21740143 -0.26985118
000390 ca 6b 8c 3c 68 56 46 3e 4f 12 b7 bd b2 63 11 be
       0.017141242 0.19368899 -0.08939039 -0.14198187
0003a0 dd cd 4c be da ea 32 3e e1 b4 7e 3e 91 16 36 be
       -0.20000406 0.17472401 0.24873687 -0.17782046
0003b0 2c 17 13 be a7 95 75 be 59 7d a7 3d e5 00 3c 3e
       -0.14364308 -0.23982869 0.08178205 0.18359716
0003c0 61 49 85 3d 7a 9c 3f bd 20 39 f3 bd 79 f0 2d 3e
       0.065081365 -0.046780087 -0.1187613 0.16986264
0003d0 52 f7 3e 3e fe 06 c2 3c bc 3b e0 3c 8b 6c 12 bd
       0.18649033 0.023684975 0.027372234 -0.035748046
0003e0 5b dd 66 3e 28 c0 01 3e 63 be 14 3d e3 68 f5 bd
       0.22545378 0.12670958 0.03631438 -0.11982896
0003f0 86 d9 10 be 3d 3a b5 3c 10 ba 11 3e 74 92 08 be
       -0.14145479 0.022122497 0.14231133 -0.13337117
