saved_models/metalearner_3_shot.pth (torch, 82116 bytes, 7 tensors)

weight_ih f4 [80, 4]
0.8699641 0.30872875 -0.49492374 -0.46731693 0.34436962 0.6760271 -0.42723298 -0.38206345
0.42021874 0.49838272 -0.29707244 -0.4786899 0.47379705 0.70611733 -0.6337741 -0.3495014
0.53989434 0.49523032 -0.28198782 -0.5761397 0.60179126 0.28839684 -0.41258362 -0.666472
0.577055 0.5324876 -0.4166657 -0.46841767 0.6557768 0.5660804 -0.5673873 -0.46175092
0.6785961 0.7261816 -0.61824936 -0.57185405 0.45815167 0.47465435 -0.5990973 -0.33766884
0.21401674 0.4747423 -0.7033897 -0.5342797 0.5898971 0.6402898 -0.53486997 -0.53160644
0.36851603 0.5798214 -0.3576982 -0.54981375 0.47734034 0.24840637 -0.45423248 -0.64277893
0.5628993 0.59747434 -0.61988086 -0.6440058 0.4552717 0.6570346 -0.2237892 -0.63382417
0.29908508 0.5797441 -0.7759132 -0.2926099 0.2151916 0.4927517 -0.67853314 -0.57080853
0.7881818 0.7054036 -0.57043535 -0.59679365 0.65507585 0.3874228 -0.44852272 -0.3226221
-0.46753353 -0.20629461 -0.65665877 -0.5705392 0.06237539 0.23807266 -0.47682327 -0.4152762
-0.29271674 0.08337905 -0.34889713 -0.49279496 0.18226399 0.2893274 -0.5533618 -0.40181652
-0.022113461 -0.010258652 -0.4085069 -0.60680395 -0.401794 0.10320009 -0.65880233 -0.6634716
-0.19148505 -0.04377147 -0.3386834 -0.32994354 -0.42862308 -0.2448807 -0.3806914 -0.40373686
-0.13820699 0.15857293 -0.34468526 -0.63853776 -0.19162501 0.25256813 -0.45921364 -0.53004235
-0.04800887 0.20075609 -0.46320614 -0.4330639 -0.004102739 -0.09519274 -0.50582653 -0.7992311
0.025268985 -0.04775371 -0.6630082 -0.6078241 -0.28379104 0.01803439 -0.3280174 -0.41044593
0.13633423 0.07577107 -0.485761 -0.40249348 -0.48052037 -0.18750465 -0.18372571 -0.43525115
0.16094677 0.36822265 -0.355136 -0.31178477 0.20508401 0.3507026 -0.4444808 -0.3426243
-0.16745134 -0.07665128 -0.57789165 -0.5490279 -0.26646957 0.21551242 -0.4861234 -0.26202518
-0.23767382 0.25594753 -0.32617623 -0.54994583 0.11594306 0.4564552 -0.42362326 -0.26685563
0.20766842 0.1971314 -0.60277194 -0.38185346 0.12732682 0.32736662 -0.50867116 -0.32827613
0.108242415 0.10846527 -0.35670826 -0.4852336 -0.2431335 -0.23121084 0.7317845 0.44741324
-0.04226913 -0.007162504 -0.31662238 -0.347327 0.12963872 -0.07457656 -0.6361677 -0.37362647
-0.032692723 -0.008379417 -0.40738767 -0.49801183 -0.1858569 -0.1095913 0.48897597 0.31066507
0.25431642 0.27848577 -0.4690619 -0.4105478 0.35410708 0.117883116 -0.33515358 -0.49323374
-0.29933277 -0.31619164 0.49236545 0.46036658 -0.17525573 -0.32267582 0.36635226 0.41479495
-0.3383292 -0.43643132 0.43881577 0.46419805 0.10801437 0.12918407 -0.4674578 -0.5041965
0.32611084 0.48723617 -0.71287507 -0.2781232 -0.4401367 -0.4660702 0.20635262 0.39785674
0.107092194 0.1362127 -0.39676833 -0.49345553 0.15666875 0.3257692 -0.8076608 -0.34485063
0.61680245 0.39732373 -0.23777574 -0.7131763 0.45484474 0.3066774 -0.5325152 -0.3792553
0.7228689 0.34843975 -0.75173813 -0.4101879 0.45037386 0.5317538 -0.57856154 -0.17314759
00000000: f8b5 5e3f b211 9e3e a566 fdbe 2a44 efbe
00000010: 3751 b03e 1d10 2d3f 48be dabe d29d c3be
00000020: e926 d73e 052c ff3e e119 98be d816 f5be
00000030: 8795 f23e 1bc4 343f 053f 22bf d9f1 b2be
00000040: 8436 0a3f d48e fd3e b560 90be e47d 13bf
00000050: fe0e 1a3f c0a8 933e 293e d3be e99d 2abf
00000060: e0b9 133f 1b51 083f 3555 d5be 71d4 efbe
00000070: fde0 273f a5ea 103f 4b40 11bf 9e6a ecbe
00000080: 79b8 2d3f 0ae7 393f 9745 1ebf 0765 12bf
00000090: db92 ea3e e505 f33e 715e 19bf eee2 acbe
000000a0: 3427 5b3e 6c11 f33e 5911 34bf 8ec6 08bf
000000b0: 7f03 173f 08ea 233f 3ded 08bf 5c17 08bf
000000c0: 22ae bc3e 2d6f 143f 3824 b7be 98c0 0cbf
000000d0: f465 f43e 3d5e 7e3e 2991 e8be 298d 24bf
000000e0: 2b1a 103f 14f4 183f 83b0 1ebf 90dd 24bf
000000f0: 5f19 e93e 6b33 283f ff28 65be 4d42 22bf
00000100: ae21 993e 1c6a 143f 3fa2 46bf f7d0 95be
00000110: 305b 5c3e f349 fc3e 59b4 2dbf 8220 12bf
00000120: 48c6 493f 5595 343f 0d08 12bf 78c7 18bf
00000130: 0db3 273f 485c c63e c5a4 e5be b92e a5be
00000140: 8e60 efbe e53e 53be ca1a 28bf db0e 12bf
00000150: 567d 7f3d 52c9 733e 2e22 f4be 159f d4be
00000160: f8de 95be a3c2 aa3d a5a2 b2be 9f4f fcbe
00000170: 69a3 3a3e b922 943e 1ea9 0dbf e5ba cdbe
00000180: 4a27 b5bc e813 28bc d127 d1be 8157 1bbf
00000190: f1b7 cdbe 925a d33d 45a7 28bf 46d9 29bf
000001a0: a814 44be b749 33bd e967 adbe 5cee a8be
000001b0: 7c74 dbbe 02c2 7abe fce9 c2be 99b6 cebe
000001c0: 2286 0dbe f160 223e 967a b0be 3677 23bf
000001d0: 5939 44be 9c50 813e 0d1e ebbe dbb0 07bf
000001e0: f3a4 44bd 0193 4d3e 5b29 edbe 8dba ddbe
000001f0: 4570 86bb 69f4 c2bd d97d 01bf 699a 4cbf
00000200: e700 cf3c 6599 43bd e8ba 29bf 5c9a 1bbf
00000210: 0f4d 91be dbbc 933c e6f1 a7be f825 d2be
00000220: 339b 0b3e dd2d 9b3d aab5 f8be a013 cebe
00000230: c406 f6be 3801 40be 9822 3cbe 3dd9 debe
00000240: 3bcf 243e ae87 bc3e 63d4 b5be 41a2 9fbe
00000250: 8b01 523e 4b8f b33e fd92 e3be 746c afbe
00000260: 5d78 2bbe 59fb 9cbd b5f0 13bf 188d 0cbf
00000270: b36e 88be 4aaf 5c3e 2be5 f8be 2a28 86be
00000280: c460 73be 8e0b 833e 9200 a7be 40c9 0cbf
00000290: 8e73 ed3d 7fb4 e93e 26e5 d8be 4da1 88be
000002a0: 08a7 543e d0dc 493e 434f 1abf 4c82 c3be
000002b0: f661 023e 999c a73e 4638 02bf cf13 a8be
000002c0: 33ae dd3d 0a23 de3d 77a2 b6be 8a70 f8be
000002d0: fdf7 78be 89c2 6cbe 3b56 3b3f 5913 e53e
000002e0: 6522 2dbd 70b3 eabb 541c a2be d8d4 b1be
000002f0: 03c0 043e 98bb 98bd e3db 22bf f84b bfbe
00000300: cee8 05bd d249 09bc 1e95 d0be 68fb febe
00000310: 4551 3ebe 6771 e0bd 0f5b fa3e 7e0f 9f3e
00000320: c335 823e b095 8e3e e228 f0be 5233 d2be
00000330: 864d b53e b46c f13d 4099 abbe 2289 fcbe
00000340: 2542 99be dfe3 a1be 5317 fc3e 2bb5 eb3e
00000350: 3d76 33be c435 a5be 8692 bb3e 0160 d43e
00000360: 7c39 adbe ed73 dfbe 76ac e03e 5eab ed3e
00000370: a336 dd3d d448 043e a156 efbe 0613 01bf
00000380: 00f8 a63e 0577 f93e fb7e 36bf 2a66 8ebe
00000390: 9959 e1be c1a0 eebe 1a4e 533e e1b3 cb3e
000003a0: 2753 db3d 587b 0b3e 3825 cbbe 34a6 fcbe
000003b0: c66d 203e 38cb a63e dcc2 4ebf 4390 b0be
000003c0: c4e6 1d3f 046e cb3e 7c7b 73be b992 36bf
000003d0: 69e1 e83e d204 9d3e eb52 08bf c02d c2be
000003e0: f00d 393f b266 b23e e971 40bf 2604 d2be
000003f0: 6797 e63e 0421 083f 9c1c 14bf 9a4d 31be

weight_hh f4 [80, 20]
0.28404963 0.07416695 0.34334305 0.14522907 0.46705762 -0.65208274 0.50472194 -0.08502399
0.33964086 -0.2023217 0.16194192 0.76501507 -0.4217091 -0.014961721 -0.2859895 0.4756922
0.14615206 -0.15169832 0.64605975 0.575207 0.20977733 0.026806096 0.0527649 0.0524368
0.2632517 -0.095828466 0.015350424 0.07078056 0.26819918 -0.0020104935 0.18895702 -0.06532348
-0.18438716 -0.0010500571 -0.13405831 0.23545215 0.39673457 -0.29754928 0.18590207 0.09889502
-0.02188875 -0.079037756 0.233769 0.14433154 0.39947125 0.0014916797 0.06793525 0.0017659263
0.1813344 0.065791614 0.15535909 0.6271274 0.058670145 0.009577757 -0.22436844 -0.07278145
-0.09984657 -0.20282294 0.099992566 0.38075608 -0.093773946 0.3712254 0.29549 0.32087696
0.1914702 0.05243311 0.13703322 -0.06927341 0.24452762 -0.014399825 0.30205742 -0.05647324
-0.091757774 0.021892207 -0.13519041 0.043558627 0.06173944 -0.070412226 0.13129745 0.049104437
0.3146148 0.11467779 0.30696148 0.26075107 0.16344778 -0.24444765 -0.017553376 0.26547948
0.19164711 -0.3423282 0.3206573 0.50247854 -0.038011454 -0.114835225 -0.4055831 0.18286966
0.44072378 -0.18241264 0.44345856 0.26805437 -0.14010938 0.06968063 0.111641034 0.06578345
0.33284336 -0.10363044 0.10861219 -0.14882544 0.4526174 0.077992976 0.1087677 0.46268868
-0.14825065 -0.33876857 0.19156933 0.27157512 -0.0005576377 -0.0891673 0.32248548 0.03341493
0.17767967 0.37850946 0.12518509 0.1764646 0.3819166 -0.3019068 0.18831322 0.17224912
0.24348348 -0.16317885 0.15778595 0.5338432 0.01741337 -0.21001801 -0.20169221 -0.01758913
0.30027083 -0.08017244 0.037555598 0.36170793 0.21440928 -0.021319283 0.19401929 -0.07306525
0.34022492 -0.16524038 0.14393918 0.069762714 0.5042151 0.06975528 0.21606857 0.3219949
-0.15998964 -0.29798865 0.12841216 0.1899214 -0.01771676 -0.16239274 0.26261133 0.3363771
0.07454926 0.28827015 -0.106957026 0.18492371 0.307385 -0.0926994 0.30906034 0.21899265
0.28437716 -0.34994188 0.4968034 0.4259034 -0.21232519 -0.29707894 -0.5013676 -0.05811556
0.33732027 -0.40071535 0.35425794 0.17888096 -0.0341334 0.31260508 0.23524486 0.21181817
-0.15518901 -0.31163573 0.29952925 0.2795627 -0.05086856 -0.04651836 0.28992942 -0.12056947
-0.08502775 -0.33232802 -0.055651058 0.10061971 0.35824093 -0.24394247 0.021598672 -0.027143402
-0.14476198 0.033366792 0.14904016 0.09412443 0.04120288 -0.21497221 -0.06504333 -0.118454024
0.039613366 0.09783973 0.12046923 0.09546012 -0.15485066 -0.23236981 -0.40651736 -0.10117107
0.049885754 -0.22107033 -0.069734044 0.038550004 0.2717068 0.1428624 0.2592447 0.13882749
0.1993372 -0.22048907 -0.11750813 -0.071050666 0.03944642 -0.47571412 0.40127125 0.08482319
0.060594592 -0.2311356 -0.65241843 -0.0105797555 0.49656355 -0.3707017 0.23855737 0.27736545
0.047149897 0.37338686 0.14346118 0.009220499 0.42229027 -0.43785003 0.13754128 -0.05109338
0.3570735 -0.17456548 0.378325 0.28122038 -0.18829644 -0.12864403 -0.22703484 0.15584187
00000000: f46e 913e d8e4 973d a9ca af3e eeb6 143e
00000010: 2d22 ef3e e5ee 26bf 7535 013f 0f21 aebd
00000020: 68e5 ad3e 6b2d 4fbe 1ad4 253e 07d8 433f
00000030: 41ea d7be 0222 75bc 376d 92be ee8d f33e
00000040: e3a8 153e ce56 1bbe 2c64 253f c440 133f
00000050: decf 563e 7598 db3c 0220 583d f8c7 563d
00000060: edc8 863e b741 c4bd 5880 7b3c 66f5 903d
00000070: 6751 893e 7cc2 03bb f37d 413e 51c8 85bd
00000080: fdcf 3cbe 12a2 89ba 9546 09be 5e1a 713e
00000090: cb20 cb3e 6158 98be 1d5d 3e3e 7989 ca3d
000000a0: 0950 b3bc 8cde a1bd 2461 6f3e a6cb 133e
000000b0: 7f87 cc3e 7784 c33a a321 8b3d a776 e73a
000000c0: baaf 393e c1bd 863d 7416 1f3e 6c8b 203f
000000d0: 1b50 703d 06ec 1c3c d7c0 65be 710e 95bd
000000e0: 5c7c ccbd d1b0 4fbe e7c8 cc3d 76f2 c23e
000000f0: 8e0c c0bd 4111 be3e 774a 973e fc49 a43e
00000100: c410 443e 1ac4 563d 7052 0c3e 38df 8dbd
00000110: 7365 7a3e 3eed 6bbc 45a7 9a3e 7c50 67bd
00000120: 80eb bbbd 4957 b33c 5b6f 0abe 886a 323d
00000130: 7fe2 7c3d 4934 90bd d772 063e bc21 493d
00000140: 3115 a13e 30dc ea3d 0e2a 9d3e 2a81 853e
00000150: db5e 273e 7c50 7abe 19cc 8fbc edec 873e
00000160: 243f 443e a445 afbe 322d a43e 6fa2 003f
00000170: e6b1 1bbd bb2e ebbd 97a8 cfbe 2f42 3b3e
00000180: 8ca6 e13e 61ca 3abe 000d e33e 6c3e 893e
00000190: d578 0fbe b8b4 8e3d 0ea4 e43d 79b9 863d
000001a0: 726a aa3e 323c d4bd 1170 de3d b265 18be
000001b0: 78bd e73e c8ba 9f3d 9ac1 de3d 88e5 ec3e
000001c0: 05cf 17be 1373 adbe c02a 443e e50b 8b3e
000001d0: 6f2e 12ba 589d b6bd d11c a53e 18de 083d
000001e0: a9f1 353e fecb c13e 8530 003e 23b3 343e
000001f0: 938a c33e 8793 9abe 2ed5 403e 1362 303e
00000200: bc53 793e 5b18 27be a492 213e f3a9 083f
00000210: 7ca6 8e3c f60e 57be 6788 4ebe 1417 90bc
00000220: 19bd 993e 7331 a4bd e6d3 193d c831 b93e
00000230: 1b8e 5b3e c7a5 aebc feac 463e 3ca3 95bd
00000240: f631 ae3e c634 29be cb64 133e c1df 8e3d
00000250: 3e14 013f dbdb 8e3d 1441 5d3e 84dc a43e
00000260: 53d4 23be f891 98be 7a7e 033e c17a 423e
00000270: bd22 91bc 484a 26be fe74 863e 9f39 ac3e
00000280: 48ad 983d 2598 933e 490c dbbd a45c 3d3e
00000290: 9161 9d3e 2fd9 bdbd 283d 9e3e 9c3f 603e
000002a0: e299 913e 952b b3be 045d fe3e 0310 da3e
000002b0: c66b 59be bb1a 98be a159 00bf 950a 6ebd
000002c0: 3eb5 ac3e 902a cdbe 4c61 b53e 922c 373e
000002d0: 77cf 0bbd c60d a03e 07e4 703e dde6 583e
000002e0: dee9 1ebe b88e 9fbe e65b 993e d822 8f3e
000002f0: 8d5b 50bd 098a 3ebd a171 943e 20ed f6bd
00000300: 0723 aebd e626 aabe 5df2 63bd b511 ce3d
00000310: 5b6b b73e 0ecc 79be b3ef b03c d75b debc
00000320: 7c3c 14be 9eab 083d fc9d 183e 4fc4 c03d
00000330: 5ac4 283d ad21 5cbe 7035 85bd 0698 f2bd
00000340: a041 223d 3260 c83d 92b8 f63d 9880 c33d
00000350: 2c91 1ebe 5af2 6dbe 0b23 d0be c732 cfbd
00000360: 0155 4c3d 4360 62be b9d0 8ebd 9ce6 1d3d
00000370: 271d 8b3e 854a 123e b9bb 843e cb28 0e3e
00000380: 0d1f 4c3e e3c7 61be 1aa8 f0bd 0383 91bd
00000390: 9292 213d cd90 f3be 6d73 cd3e c8b7 ad3d
000003a0: 0932 783d d0ae 6cbe e504 27bf b656 2dbc
000003b0: 943d fe3e 9dcc bdbe 6248 743e d802 8e3e
000003c0: 4020 413d 902c bf3e 7de7 123e 9311 173c
000003d0: 6e36 d83e e12d e0be 9fd7 0c3e 4b47 51bd
000003e0: 56d2 b63e 4bc1 32be d0b3 c13e 1efc 8f3e
000003f0: c8d0 40be 43bb 03be d27b 68be 0395 1f3e

bias_ih f4 [80]
0.5585793 0.29408556 0.5017182 0.47574842 0.46470645 0.4148592 0.52032864 0.19154617
0.68271667 0.597044 0.31039557 0.6720828 0.36474404 0.52510715 0.35342202 0.6163738
0.53976274 0.40139857 0.42545167 0.56820214 0.026918609 0.076098114 -0.033625312 0.23424228
-0.111891255 0.015477364 0.0884423 -0.2562877 0.039538182 -0.040101554 -0.069638364 0.18135606
0.086410545 0.15492696 0.3775512 -0.18130465 0.06818306 0.14185905 0.10666279 0.11789699
0.025019228 0.6006223 -0.050805602 0.4220431 0.16029204 -0.28750983 0.22408243 0.27165046
0.017161421 -0.4592726 0.39817756 0.28965327 -0.15825409 -0.092207365 -0.15452467 0.14442569
0.25746742 -0.42866424 -0.017227765 0.2453323 0.36125198 0.47909346 0.381722 0.3614998
0.7220746 0.23950915 0.55395174 0.69979626 0.6166627 0.6883433 0.40044022 0.30451348
0.36208287 0.32530177 0.33171675 0.28214264 0.60907304 0.5627822 0.6872259 0.6246671
00000000: 0eff 0e3f 6292 963e 9b70 003f 4c95 f33e
00000010: 01ee ed3e 6d68 d43e 4234 053f ae24 443e
00000020: 85c6 2e3f e0d7 183f 2bec 9e3e 9e0d 2c3f
00000030: bbbf ba3e 6c6d 063f bbf3 b43e acca 1d3f
00000040: e42d 0a3f 1d84 cd3e cdd4 d93e b275 113f
00000050: 6a84 dc3c 54d9 9b3d b2ba 09bd 35dd 6f3e
00000060: 3e27 e5bd c594 7d3c 3d21 b53d 2438 83be
00000070: caf2 213d 8741 24bd 8f9e 8ebd 67b5 393e
00000080: 03f8 b03d 2ca5 1e3e 644e c13e eda7 39be
00000090: 8fa3 8b3d 8043 113e 0572 da3d fa73 f13d
000000a0: 20f5 cc3c 62c2 193f 8919 50bd 0916 d83e
000000b0: 9923 243e 7d34 93be dd75 653e c515 8b3e
000000c0: 1c96 8c3c c725 ebbe eedd cb3e 6f4d 943e
000000d0: 5c0d 22be 37d7 bcbd b73b 1ebe 54e4 133e
000000e0: c5d2 833e e179 dbbe 3e21 8dbc 6438 7b3e
000000f0: 05f6 b83e bd4b f53e 1171 c33e 8016 b93e
00000100: e2d9 383f e341 753e c8cf 0d3f d925 333f
00000110: 9bdd 1d3f 4437 303f 8006 cd3e 31e9 9b3e
00000120: ed62 b93e f48d a63e c7d6 a93e 0075 903e
00000130: 36ec 1b3f 7f12 103f 09ee 2f3f 2fea 1f3f

bias_hh f4 [80]
0.31196582 0.44804466 0.52285534 0.68307334 0.45924133 0.51929384 0.62648803 0.3583842
0.372582 0.6149036 0.55329543 0.42405444 0.65684325 0.34556472 0.28544173 0.55572647
0.59305966 0.42237785 0.37510648 0.34181574 0.10072886 0.2755688 0.14053828 0.22399653
0.22156197 -0.06617548 0.14498203 0.025352715 0.04618658 0.3344665 0.043465197 0.15521894
-0.11601555 0.17420824 0.14157215 0.1074631 0.09037929 0.16019906 0.21267255 0.07539193
0.027122773 0.28307688 0.21854909 0.43756524 0.018560475 -0.23895076 0.29639477 0.25325385
0.24255998 -0.42584693 0.17631878 -0.026048664 -0.40724745 -0.1444911 -0.2725947 -0.03692178
0.2567679 -0.2452472 0.036550645 -0.0063227788 0.6356656 0.3191236 0.53620017 0.63684833
0.358377 0.35192367 0.31366894 0.7052827 0.5012611 0.7014365 0.4737558 0.40224758
0.5590127 0.21563955 0.38037586 0.3892767 0.72655386 0.1603566 0.6275518 0.770661
00000000: fcb9 9f3e 1c66 e53e d9d9 053f e5dd 2e3f
00000010: ae21 eb3e 71f0 043f 8561 203f 227e b73e
00000020: 11c3 be3e 536a 1d3f c5a4 0d3f aa1d d93e
00000030: e126 283f dced b03e 6b25 923e 1744 0e3f
00000040: c2d2 173f e941 d83e f50d c03e 7902 af3e
00000050: ef4a ce3d 5b17 8d3e 44e9 0f3e 595f 653e
00000060: 24e1 623e 0387 87bd 2b76 143e 7fb0 cf3c
00000070: 242e 3d3d 313f ab3e 9008 323d b7f1 1e3e
00000080: 9099 edbd a563 323e 4af8 103e 9d15 dc3d
00000090: c718 b93d 390b 243e d5c6 593e 1667 9a3d
000000a0: 9430 de3c 74ef 903e 55cb 5f3e 8d08 e03e
000000b0: 230c 983c 82af 74be 0ec1 973e 7daa 813e
000000c0: a561 783e 9c08 dabe e98c 343e 0264 d5bc
000000d0: bd82 d0be 7af5 13be 8891 8bbe 4b3b 17bd
000000e0: 1577 833e 1522 7bbe 21b6 153d 502f cfbb
000000f0: fbba 223f 2b64 a33e 6a44 093f 7e08 233f
00000100: 317d b73e 572f b43e 3799 a03e 688d 343f
00000110: a652 003f 5891 333f 1f90 f23e 65f3 cd3e
00000120: 751b 0f3f 9dd0 5c3e a0c0 c23e 474f c73e
00000130: 6fff 393f 8534 243e 3ca7 203f 0a4a 453f

Wf f4 [22, 1]
0.45598406 -0.038891435 0.35391343 -0.038841162 0.45404893 -0.5461409 0.38396937 0.3358719
0.4039906 0.0691118 0.006361445 0.46334553 -0.52319115 -0.27335003 -0.076117724 0.33703864
-0.048635926 -0.013293623 0.43637037 0.5575538 -0.44971776 0.021648519
00000000: be76 e93e a04c 1fbd 2434 b53e e917 1fbd
00000010: 1a79 e83e e4cf 0bbf a297 c43e 67f7 ab3e
00000020: dbd7 ce3e 7d8a 8d3d ab73 d03b a03b ed3e
00000030: dbef 05bf 89f4 8bbe 9ce3 9bbd 5490 ac3e
00000040: 7736 47bd 7fcd 59bc f06b df3e d9bb 0e3f
00000050: 6841 e6be 3c58 b13c

Wi f4 [22, 1]
0.4617361 0.2536193 0.3771711 0.23513131 0.45547903 -0.34626684 0.448668 0.3823936
0.48475465 -0.24936228 0.2732419 0.42661288 -0.3307065 -0.31055963 -0.26725006 0.44594088
0.2464129 -0.26854637 0.45686606 0.3511977 -0.61747444 -0.15470506
00000000: ad68 ec3e 64da 813e 921c c13e 43c6 703e
00000010: 8c34 e93e e349 b1be d0b7 e53e 18c9 c33e
00000020: c331 f83e d358 7fbe 5de6 8b3e 016d da3e
00000030: 5d52 a9be ac01 9fbe 00d5 88be 5d52 e43e
00000040: aa53 7c3e e97e 89be 59ea e93e 2fd0 b33e
00000050: ce12 1ebf 016b 1ebe

ct f4 [17386, 1]
-0.057639893 0.082066186 -0.15442523 -0.22797261 -0.19362238 -0.0004938957 0.08929467 0.06246802
-0.12629949 -0.10919144 -0.07479138 0.0827857 -0.1003285 -0.11168253 -0.12047121 -0.06306889
0.12831181 0.1674313 0.047236115 0.0026349735 -0.009879968 0.15929298 0.042911667 0.18615447
0.056873485 -0.044535562 0.12460606 -0.1665153 -0.2156146 -0.17833206 -0.07658946 0.19109838
-0.10414032 -0.16945602 -0.22081363 -0.14825286 0.03815639 0.1094374 0.016756112 -0.016558267
-0.061267216 0.023515508 0.11773409 0.017751345 -0.030557163 -0.11153582 0.13628 0.13432744
0.048757523 0.071324535 0.017198578 0.13482586 -0.013456468 -0.12679467 -0.07132013 -0.09960435
0.113042355 -0.118837155 -0.19648562 -0.19971834 0.012613014 0.15179706 -0.058375347 5.7174824e-05
-0.009108015 -0.081987284 0.08709235 0.12494595 0.1969098 0.16399568 -0.14104442 0.021194562
0.1120183 0.19540435 0.17601469 0.041351084 0.0426522 -0.119504556 -0.10772478 -0.17588267
-0.11938972 0.17131366 0.092125975 -0.106233254 0.06184367 -0.052162956 0.034439415 0.06613033
0.20679468 0.052020002 0.0059173345 0.097494714 0.17548172 0.13165148 -0.027694732 -0.085902244
0.05760026 -0.040823393 -0.21519232 -0.021456921 0.04810356 0.09743752 -0.06944564 -0.14750408
-0.21371353 -0.013675063 -0.01816812 -0.085125715 0.0027953945 0.05756511 -0.08009811 0.1221408
0.048710704 0.2670418 0.1996011 -0.13423589 0.010176009 0.09796429 0.105296075 0.11431279
0.034341052 0.0068556704 -0.12154411 -0.069685884 -0.065829396 -0.12921637 -0.009196422 -0.075344466
-0.1588641 -0.1983287 -0.03620014 0.093430735 -0.07125291 0.0032327399 0.122934 -0.04455412
0.056696214 0.10904799 0.18580094 0.19388773 0.07318854 0.11246313 0.2024722 0.08007201
-0.017114747 -0.06573472 0.07857047 -0.065806106 -0.18233502 -0.04350195 -0.1731593 0.118054904
0.1190006 0.060091354 -0.0048722955 -0.14267564 0.26524782 -0.03116428 -0.09395787 -0.1511493
-0.028620912 0.17847453 -0.03960165 -0.18227078 -0.16312186 0.004966482 0.14340934 0.06917175
-0.21253273 -0.16216746 0.11750477 0.12952435 0.11136745 -0.06094634 -0.24393679 0.008029862
0.2017708 0.09099428 0.08901756 -0.16015972 -0.019043962 0.1695218 0.14121906 -0.037362494
-0.049076613 0.03427117 0.17340617 0.03960712 -0.17772406 -0.082623556 0.09507327 0.27421993
-0.055740066 -0.103293136 -0.23577692 -0.047650326 0.109420985 0.04663075 -0.17170592 -0.14217432
-0.060196206 0.2890817 0.055403885 -0.08209739 -0.13397232 0.049316637 0.15227467 0.1561199
-0.027848825 -0.08984564 -0.0072824256 0.17832096 0.078316696 -0.108902395 -0.1458937 0.018194774
0.10572595 -0.034817345 -0.015068927 -0.24808834 0.007637017 0.29017338 0.048879076 -0.099541135
-0.239794 0.10717267 -0.10498964 -0.12317336 -0.29766914 -0.24484766 0.027936283 0.08952182
0.085621215 0.15098476 0.030598288 -0.09624535 0.056288954 0.06942748 0.13269001 0.1056398
0.056241382 0.0658309 0.00043181222 0.067619145 0.14452839 -0.005661597 0.022287358 -0.2074976
-0.13372256 0.035502773 -0.010918445 -0.0074700154 0.0056371326 -0.29262394 -0.29681027 -0.016134521
00000000: cf17 6cbd 5112 a83d a621 1ebe a771 69be
00000010: f244 46be c878 01ba 20e0 b63d 77de 7f3d
00000020: a754 01be c39f dfbd 392c 99bd 8d8b a93d
00000030: 0779 cdbd cfb9 e4bd 9cb9 f6bd 432a 81bd
00000040: 2c64 033e 1c73 2b3e a87a 413d 85af 2c3b
00000050: 97df 21bc b31d 233e 25c4 2f3d 479f 3e3e
00000060: 2cf4 683d ec6a 36bd 7631 ff3d fd82 2abe
00000070: 13ca 5cbe ae9c 36be efda 9cbd 4baf 433e
00000080: 8547 d5bd e185 2dbe f81c 62be 99cf 17be
00000090: e049 1c3d b720 e03d 1d44 893c 34a5 87bc
000000a0: 55f3 7abd 98a3 c03c 921e f13d 456b 913c
000000b0: 0453 fabc e46c e4bd fc8c 0b3e 228d 093e
000000c0: f8b5 473d 9912 923d 08e4 8c3c ca0f 0a3e
000000d0: 8478 5cbc 76d6 01be 4a10 92bd 5efd cbbd
000000e0: c082 e73d e560 f3bd 8733 49be f782 4cbe
000000f0: d1a6 4e3c b070 1b3e fd1a 6fbd 00cf 6f38
00000100: c939 15bc f3e8 a7bd 795d b23d aae3 ff3d
00000110: b9a2 493e 7cee 273e f36d 10be 38a0 ad3c
00000120: da69 e53d 1418 483e 323d 343e c15f 293d
00000130: 13b4 2e3d cebe f4bd cf9e dcbd 961a 34be
00000140: 9982 f4bd d96c 2f3e 8bac bc3d d290 d9bd
00000150: ca4f 7d3d d3a8 55bd 5810 0d3d 576f 873d
00000160: fcc1 533e ed12 553d 33e6 c13b 4fab c73d
00000170: 7bb1 333e a5cf 063e 10e0 e2bc 84ed afbd
00000180: 40ee 6b3d 6e36 27bd 605b 5cbe 6dc6 afbc
00000190: 3d08 453d 538d c73d 8439 8ebd 4f0b 17be
000001a0: b8d7 5abe 5f0d 60bc 4fd5 94bc 6456 aebd
000001b0: f032 373b 65c9 6b3d 7a0a a4bd f524 fa3d
000001c0: e084 473d b4b9 883e 3b64 4c3e 2275 09be
000001d0: 46b9 263c 80a1 c83d 78a5 d73d d31c ea3d
000001e0: 34a9 0c3d 88a5 e03b 1eec f8bd 79b7 8ebd
000001f0: 90d1 86bd 4c51 04be 97ac 16bc 334e 9abd
00000200: 45ad 22be ae16 4bbe 9946 14bd 9d58 bf3d
00000210: 0ced 91bd 60dc 533b d2c4 fb3d 627e 36bd
00000220: 4a3a 683d 8d54 df3d 9a42 3e3e 818a 463e
00000230: e0e3 953d 1253 e63d df54 4f3e cbfc a33d
00000240: 3a34 8cbc ed9f 86bd 8ee9 a03d 5ac5 86bd
00000250: 08b6 3abe 1a2f 32bd ac50 31be c5c6 f13d
00000260: 96b6 f33d 5a22 763d c7a7 9fbb 9019 12be
00000270: 90ce 873e 3b4c ffbc fc6c c0bd e2c6 1abe
00000280: 6776 eabc 07c2 363e 5735 22bd 31a5 3abe
00000290: 6b09 27be dfbd a23b e6d9 123e eba9 8d3d
000002a0: 2ea2 59be 3a0f 26be 57a6 f03d 08a2 043e
000002b0: 9e14 e43d dfa2 79bd 91ca 79be af8f 033c
000002c0: 019d 4e3e 365b ba3d d74e b63d e900 24be
000002d0: 1502 9cbc 1f97 2d3e bb9b 103e 6a09 19bd
000002e0: 8f04 49bd ed5f 0c3d 6391 313e 133b 223d
000002f0: 4cfd 35be 8a36 a9bd c6b5 c23d 8e66 8c3e
00000300: b24f 64bd 5a8b d3bd 816f 71be fd2c 43bd
00000310: 1c18 e03d e3ff 3e3d add3 2fbe 2596 11be
00000320: 4c90 76bd 8402 943e 2fef 623d ad22 a8bd
00000330: 0a30 09be 3e00 4a3d e4ed 1b3e e5dd 1f3e
00000340: 3823 e4bc fe00 b8bd 6aa1 eebb c599 363e
00000350: 8164 a03d 3808 dfbd 2865 15be 350d 953c
00000360: d986 d83d a29c 0ebd a9e3 76bc df0a 7ebe
00000370: f13f fa3b 9b91 943e 6d35 483d 39dc cbbd
00000380: 8f8c 75be 587d db3d cf04 d7bd 5142 fcbd
00000390: 1768 98be 58b9 7abe a2da e43c 3757 b73d
000003a0: 2d5a af3d c09b 1a3e 43a9 fa3c 481c c5bd
000003b0: 3f8f 663d ff2f 8e3d e4df 073e ae59 d83d
000003c0: 5d5d 663d 5ad2 863d db64 e239 e87b 8a3d
000003d0: 40ff 133e eb84 b9bb fa93 b63c 407a 54be
000003e0: 91ee 08be 5b6b 113d 47e3 32bc 08c7 f4bb
000003f0: b2b7 b83b ced2 95be 84f7 97be 8b2c 84bc
