saved_models/metalearner_dict_9_shot.pth (torch, 81275 bytes, 7 tensors)

lstm_layer.weight_ih f4 [80, 4]
000000 68 91 43 3f fd 39 a9 3e e6 f9 d2 be 03 7b a2 be
       0.7639375 0.33052054 -0.41206282 -0.31734475
000010 83 28 86 3e 5a 4b 05 3f 33 90 82 be 89 43 7b be
       0.26202783 0.520681 -0.2550064 -0.24537481
000020 12 74 b2 3e 07 30 de 3e 4b d4 4e be c6 05 ae be
       0.3485418 0.43396017 -0.20198171 -0.3398878
000030 0c b5 c8 3e aa 9a 10 3f 9c 91 00 bf 5a b6 3a be
       0.39200628 0.56486 -0.5022218 -0.18233624
000040 38 d4 0f 3f 1c ee cc 3e 90 14 bf bc f2 7b e9 be
       0.56183195 0.40025413 -0.023325235 -0.45602375
000050 76 95 f6 3e 11 a8 73 3e 95 3f d6 be 38 7c 29 bf
       0.48160905 0.23794581 -0.41845384 -0.6620517
000060 18 c5 fb 3e 92 a4 ee 3e 34 24 a0 be ca 22 ad be
       0.49173808 0.46609932 -0.3127762 -0.33815604
000070 d1 3b 0c 3f 4d 58 fb 3e 5e dc 0b bf a9 24 8d be
       0.5477877 0.49090806 -0.5463313 -0.27567032
000080 cd 46 32 3f 1a 30 11 3f de 16 c3 be a9 0a d1 be
       0.69639283 0.5671402 -0.38103384 -0.40828446
000090 c9 b6 ca 3e b0 9f ae 3e 95 46 dc be 4f 4a 7f be
       0.3959258 0.34106207 -0.430226 -0.2493069
0000a0 dd 75 21 3e 7b 68 bd 3e 88 94 14 bf b4 ac a8 be
       0.15767618 0.36993775 -0.5803914 -0.32944262
0000b0 d2 06 1d 3f 8e 1f eb 3e ab e2 7f be 52 b7 e5 be
       0.6133853 0.45922512 -0.2498881 -0.44866425
0000c0 ab 05 81 3e 1b 2d f2 3e a7 39 7b be e9 d6 fe be
       0.25199637 0.47300038 -0.24533711 -0.49773338
0000d0 0f e1 be 3e 13 2a 0a 3e a8 6b dc be 59 ce eb be
       0.3728108 0.13492613 -0.43050885 -0.46055868
0000e0 be c7 17 3f ae 36 07 3f 36 2d eb be 8a 19 1c bf
       0.5928916 0.5281781 -0.4593293 -0.6097647
0000f0 a5 bf b1 3e f2 56 08 3f a1 6c 59 be ba dd 02 bf
       0.34716526 0.5325767 -0.21232845 -0.5111958
000100 3c 23 5e 3e b3 ee e8 3e 3a 37 20 bf 2e 01 3b be
       0.21693128 0.45494613 -0.6258427 -0.18262169
000110 06 d8 30 3e 31 bb d2 3e b3 75 13 bf a7 f3 cd be
       0.17269906 0.4115844 -0.5760147 -0.40224954
000120 29 68 50 3f f8 b3 24 3f 9c 7a c8 be fe f9 e0 be
       0.81408936 0.6433711 -0.39156044 -0.4394073
000130 42 09 09 3f a3 70 a6 3e ac 15 94 be 71 f8 31 be
       0.5352975 0.3250781 -0.28922784 -0.17379929
000140 e4 c8 f6 be 16 7a 97 be 8f af 03 bf 8d c3 30 bf
       -0.48200142 -0.29585332 -0.51439756 -0.69048387
000150 c7 7d 4c 3d 1a 67 fa 3d e1 0b ed be ee 06 bf be
       0.049924638 0.12226696 -0.46298125 -0.37309974
000160 e6 63 a1 bd 65 01 ee 3d 21 03 3c 3c ff 00 09 bf
       -0.07880382 0.1162136 0.011475355 -0.53517145
000170 34 dd 50 3e 1e 96 77 3e 7d 6c 18 bf 33 06 aa be
       0.20396882 0.24178359 -0.5954054 -0.33207855
000180 b6 58 d2 3d 88 22 78 bc 9f 49 8b be d6 74 17 bf
       0.102708265 -0.015144952 -0.27204606 -0.5916265
000190 6e 15 58 be 88 60 f9 3d a7 d8 dc be be aa 11 bf
       -0.21101925 0.12176615 -0.43134043 -0.56901157
0001a0 99 10 bd 3d 9b 45 79 3c 0b f3 90 be f6 65 d1 be
       0.092316814 0.015214349 -0.28310427 -0.40898103
0001b0 9c df a4 be 8f 5a 57 be 4d b6 e7 be 0e ad db be
       -0.3220185 -0.21030639 -0.45256272 -0.42905468
0001c0 e7 ee 8f bd 69 ac df 3d 0b 67 cf be 59 16 25 bf
       -0.07027989 0.109215565 -0.40508303 -0.64487225
0001d0 b5 1e 2b be 29 e3 36 3e 13 85 d7 be 65 bc d4 be
       -0.16710933 0.17860092 -0.42093715 -0.41549984
0001e0 d2 11 84 3d 38 4b 57 3e 14 d2 c3 be 9f da 90 be
       0.064487115 0.21024787 -0.38246214 -0.28291795
0001f0 5b d3 9c 3e d8 f9 23 be f8 15 6a be bc 07 1f bf
       0.3063 -0.16013277 -0.22859943 -0.62121177
000200 2d 9d ef 3d 61 db 56 3d 08 9f 24 bf 59 8d 05 bf
       0.11699901 0.05245531 -0.6430516 -0.52168804
000210 94 67 01 be ce 49 25 3d 9b 15 47 be e9 97 df be
       -0.12637168 0.04035359 -0.19441836 -0.43670586
000220 04 77 0c 3e 0e c4 4c bd eb a3 e7 be d2 48 cf be
       0.13717276 -0.04999166 -0.45242247 -0.40485245
000230 ff 2b bd be 17 b2 fd bd ff ab bb be a3 f8 00 bf
       -0.3694763 -0.123874836 -0.3665466 -0.5037939
000240 5e a8 35 3e 4d d3 a8 3e 7a e9 d0 be b4 cf 72 be
       0.17740008 0.3297371 -0.40803128 -0.23712045
000250 51 54 83 3e 5b b2 b9 3e 62 06 d6 be 9f fc 80 be
       0.25650266 0.36268887 -0.41801745 -0.25192735
000260 9e 42 ab 3d ef e9 9e bd 83 13 c9 be c3 f8 02 bf
       0.083623156 -0.07759463 -0.392727 -0.5116083
000270 d8 34 8c bd cd 1a 7c 3e 85 e3 d5 bd a3 d2 99 be
       -0.06846017 0.24619599 -0.104437865 -0.30043516
000280 a7 c0 3d be 3d a2 a5 3e 42 54 e6 be af 0e 1f bf
       -0.18530522 0.3235034 -0.4498616 -0.6213178
000290 c1 80 a7 3d d8 0c b8 3e cc 08 9b be 5a 7f 4d be
       0.08178855 0.359473 -0.3028015 -0.20068112
0002a0 e8 74 98 3e bc 78 f7 3d 60 b1 4c be a6 d8 bc be
       0.29776692 0.12083575 -0.19989538 -0.3688404
0002b0 b0 1c d7 3d 93 6f 85 3e d0 9f ff be 02 40 64 be
       0.105035186 0.26061687 -0.49926615 -0.22290042
0002c0 51 27 fd 3d 25 af 34 3d 76 c3 8b be 42 c7 f0 be
       0.12361015 0.044112343 -0.27297562 -0.47027022
0002d0 48 5b ab be f7 e1 8f be bc 5c 04 3f cb 9b e3 3e
       -0.3346808 -0.28102085 0.51704 0.44454798
0002e0 54 8e 16 3d 2c 33 b2 bd 0d 7d 0c be c3 ff bb be
       0.03675683 -0.087011665 -0.13719578 -0.36718568
0002f0 0e 8d 7c 3e 1d 9f 5b bd 8c 38 1f bf 8a d5 b0 be
       0.24663183 -0.05361854 -0.6219566 -0.34537917
000300 9c 1b 3d bb fc c4 d0 3c 50 f1 26 bf cf fb eb be
       -0.0028855568 0.025484554 -0.65211964 -0.46090552
000310 66 42 37 be 04 09 6b bd fb 34 f4 3e bc 68 83 3e
       -0.17896423 -0.057381645 0.4769667 0.25665843
000320 35 71 96 3e 37 20 87 3e eb 1b c5 be 25 c3 8f be
       0.29383245 0.26391765 -0.38497862 -0.2807857
000330 ec d5 ae 3e 06 6e a7 3d 48 d4 b5 be df 72 9d be
       0.34147584 0.08175282 -0.3551352 -0.30751702
000340 d2 f0 dd be 3f dc 9a be 26 f8 ad 3e 9b 30 cb 3e
       -0.43347794 -0.3024616 0.33978385 0.3968552
000350 24 f6 83 be cd b7 a8 be ec 4e 96 3e db eb b0 3e
       -0.25773728 -0.3295273 0.29357088 0.34554943
000360 de 67 b5 be 0e e4 c1 be 19 5b b5 3e a6 ea ec 3e
       -0.35430807 -0.37869304 0.35421064 0.46272773
000370 23 19 75 3e 71 30 54 3e 11 e7 1b bf 17 3d f9 be
       0.2393537 0.20721604 -0.60899454 -0.4867942
000380 c8 f2 94 3e 8e 2c d1 3e 9d ed 20 bf c2 13 5d be
       0.29091477 0.40854305 -0.6286257 -0.21589568
000390 8c a0 ec be 66 c0 e3 be 0b 81 11 3e c4 2c 90 3e
       -0.46216238 -0.44482726 0.14209382 0.28159153
0003a0 67 02 0b 3e 62 f8 b4 3d 30 71 a0 be fc 7c dc be
       0.13575135 0.08836438 -0.31336355 -0.43064106
0003b0 21 c7 53 3e c0 08 45 3e e1 f9 e6 be 4e 06 cd be
       0.2068143 0.19241619 -0.45112517 -0.40043873
0003c0 97 77 08 3f 1c 26 ce 3e 54 d5 fd bd 6e 0a 14 bf
       0.5330748 0.4026345 -0.12394205 -0.57828414
0003d0 86 f0 b0 3e b6 11 0e 3e 41 04 e5 be 3d b0 c1 be
       0.34558505 0.13873944 -0.44729808 -0.37829772
0003e0 9f 49 31 3f 77 e1 69 3e 95 bb da be a2 43 dc be
       0.6925296 0.22839914 -0.4272124 -0.4302035
0003f0 0d 94 a6 3e 4f f6 c2 3e bd b9 d6 be f0 76 04 be
       0.3253483 0.38078544 -0.41938582 -0.12935996

lstm_layer.weight_hh f4 [80, 20]
000000 09 04 9f 3e 5e 34 86 3e e7 0e 04 3f 5e a1 a6 3e
       0.31057766 0.26211828 0.5158524 0.32544988
000010 aa 8f 06 3f c3 d2 18 bf 96 68 13 3f 42 54 50 3c
       0.52562964 -0.59696597 0.5758146 0.012715401
000020 1a 8c a1 3e 03 ef c7 be ec e2 b0 3e de a7 08 3f
       0.31552202 -0.3904954 0.34548128 0.53381145
000030 5c 49 02 bf d8 0d 54 be cb 39 14 bf 9b b9 1a 3f
       -0.5089319 -0.20708406 -0.57900685 0.6043946
000040 6b f9 96 3e c0 86 a8 be fe ab 3a 3f 71 6d 2b 3f
       0.29487166 -0.32915306 0.7291869 0.6696387
000050 9d 86 b0 3d 0d c9 b0 bd 9f 89 87 3d 77 0b 5d bd
       0.086194254 -0.086320974 0.06618046 -0.05396601
000060 06 b7 74 3e 8d 04 1f bd 86 47 0e 3d 9b ea 14 3c
       0.23897943 -0.0388227 0.03473618 0.009089137
000070 59 9b 4b 3e 35 2c 00 3e 08 a4 06 3d c0 85 2e be
       0.19883479 0.12516864 0.032871276 -0.17043209
000080 d9 b7 24 be 75 c0 36 3d 1f 47 32 3b 24 ba 44 3e
       -0.16085757 0.044617135 0.0027203036 0.19211632
000090 66 04 8a 3e 26 34 29 be a0 4b 35 3e 1d 7f 1b 3e
       0.2695648 -0.165238 0.1770463 0.15185209
0000a0 82 03 f2 bd b3 b5 02 3d 63 09 5c 3e af f4 66 3e
       -0.11817075 0.031911563 0.21487956 0.22554277
0000b0 9d 1a 94 3e 27 41 9b 3d 7b 2e 9b bc c6 4d 8f 3d
       0.28926554 0.07580786 -0.018943062 0.06997256
0000c0 61 00 29 3d 0f c6 3f bd b2 12 8a 3e 1a 63 cf 3e
       0.041260127 -0.046819743 0.26967388 0.40505296
0000d0 49 77 b9 bb 3b 0e a4 bb fe 51 9a be 32 95 6f bd
       -0.005659972 -0.005006579 -0.3014068 -0.058491893
0000e0 5b 57 19 bc cb bf 96 be bd 02 57 3c eb 62 a1 3e
       -0.009359206 -0.294432 0.013123211 0.3152078
0000f0 62 87 29 be 9f 29 aa 3e 0d 9a 9a 3e 53 53 94 3e
       -0.1655555 0.3323488 0.30195656 0.2896982
000100 a3 f5 21 3e 1e 50 7e 3d c9 54 0d 3e 2f 7b b5 bd
       0.15816359 0.062088124 0.13801874 -0.08861386
000110 8d f3 51 3e d2 f6 27 3d 9a b8 66 3e 59 de e4 bd
       0.20503063 0.04100687 0.22531357 -0.11175222
000120 6b 6a ff bd c0 ed 15 3d db f3 50 bd 20 96 f9 3c
       -0.124714695 0.03660369 -0.05101381 0.030467093
000130 d8 0e 22 3b ea ef 91 bc b8 59 bd 3d 90 1f bf 3d
       0.0024728086 -0.017814595 0.09245628 0.09332192
000140 e9 dd 59 3e 87 aa 88 bb 3e 41 c6 3e 75 bf fc 3d
       0.21276058 -0.004170719 0.3872165 0.12341205
000150 b8 43 44 3e e3 84 2f be 69 37 90 3d 39 ca 91 3e
       0.19166458 -0.17140536 0.07041819 0.28474596
000160 72 87 17 3e 36 ee 51 be a5 26 fe 3d fa d1 dc 3e
       0.14797762 -0.20501027 0.124097146 0.4312895
000170 2c 16 45 bd e0 73 3f bd e7 d6 79 be 87 9d 66 3e
       -0.048116848 -0.046741366 -0.24398385 0.2252103
000180 c2 2c 90 3e b2 09 1c bd e8 d8 fc 3e 31 4b 96 3e
       0.28159148 -0.038095184 0.49384236 0.29354241
000190 80 7b 9b be c0 f1 83 3d 7f 8a a5 3c 5e 72 2f 3d
       -0.3036766 0.064425945 0.020207642 0.04283368
0001a0 54 22 fc 3d 23 3f 09 3e c6 ac 31 bd e6 aa 44 be
       0.12311235 0.13402991 -0.04337766 -0.19205818
0001b0 23 c2 43 3e 93 f9 b1 3d 3a 1c 76 3d b6 86 cb 3c
       0.19117026 0.08690181 0.060085513 0.024844509
0001c0 5e 1b 3e bd 6c 43 6f be 10 d4 68 3e a8 a7 4e 3e
       -0.046412818 -0.23365563 0.22737145 0.20181143
0001d0 61 a9 28 bd 25 ac 2f bd 6c db fd 3d 84 f3 cc bd
       -0.041177157 -0.04288878 0.12395367 -0.100073844
0001e0 97 aa a0 3d 51 6f f1 3e c1 aa df 3d db 6b 87 3e
       0.078450374 0.4715524 0.109212406 0.26449475
0001f0 d8 65 8c 3e df 8a 95 be 95 d1 0b 3e 74 9b 77 3e
       0.2742145 -0.29207513 0.13654168 0.24180394
000200 76 d7 1f 3e 81 df 8a be 86 97 8f 3e 5e 38 d1 3e
       0.15609536 -0.27123645 0.2804529 0.40863317
000210 0b b4 87 bd ea 86 5d be 24 42 6c be 93 80 cf 3c
       -0.06626137 -0.21633497 -0.23072106 0.025329864
000220 04 0d d1 3e 23 31 32 be 56 56 2d bd 1e 8f 94 3e
       0.40830243 -0.17401557 -0.042318664 0.2901544
000230 a4 b1 02 bd 71 9b 0a 3d a9 21 4d 3e 82 29 d0 bc
       -0.031907693 0.033839647 0.20032372 -0.025410417
000240 7b 85 76 3e 67 4d ac bd dc 42 9d 3d a3 3b ac 3d
       0.24074356 -0.08413201 0.07678768 0.08409812
000250 7e c4 ad 3e b2 2f 46 3c 57 f5 80 3e 4d b7 e7 3c
       0.33938974 0.012096332 0.2518718 0.028285647
000260 b8 2b 49 be 5d 06 a0 be d7 bf 57 3d 63 13 4a 3e
       -0.19645584 -0.31254855 0.052673187 0.19733958
000270 54 79 fe 3b b5 54 48 be ee 35 31 3e f0 13 ad 3e
       0.0077659283 -0.19563563 0.17305729 0.33804274
000280 bb 54 91 3c 02 28 42 3e 6d 94 93 3d 1f f0 95 3d
       0.017740598 0.18960574 0.07206044 0.0732119
000290 2a 76 df 3e d5 5c 09 be 09 18 ff 3e a6 40 93 3e
       0.4364484 -0.13414319 0.49823025 0.2876026
0002a0 b6 4d ac 3e db fc 69 be e4 13 a2 3e 35 ce bf 3e
       0.3365304 -0.22850363 0.316558 0.3746201
0002b0 94 85 94 be 38 e4 b3 be 36 85 bd be 8a fe 7d 3d
       -0.29008162 -0.35135055 -0.37015694 0.062010325
0002c0 d1 1e 48 3e 89 44 8a be 2e 31 05 3f 84 e0 b3 3e
       0.19543006 -0.27005413 0.5202817 0.3513223
0002d0 f8 d2 ad bd fa 41 4f 3e 45 57 6d 3e 5a 13 db 3d
       -0.08487505 0.20240012 0.23177822 0.106970504
0002e0 13 12 22 be 9a 43 9a be 03 eb 9c 3e 89 be 7d 3e
       -0.15827207 -0.301297 0.3064805 0.24779715
0002f0 0d 67 83 bd 08 ee a9 3d b9 e3 19 3e c0 d6 20 be
       -0.0641614 0.08297354 0.15028276 -0.1570692
000300 57 2d fc bd f8 47 97 be 27 13 8a 3d c9 a2 cf 3d
       -0.123133354 -0.29547095 0.06741934 0.10138471
000310 1f 8b 63 3e 1e 12 02 be 04 b8 a0 3c dc f6 2e bb
       0.22221039 -0.12702224 0.019618995 -0.0026697433
000320 c4 f6 8b be 85 fa 07 3d 51 20 42 3e 07 2b bf 3d
       -0.27336705 0.0331979 0.1895764 0.09334379
000330 b0 a8 da bb a6 db 4d be e2 c9 f8 bc e5 61 be bd
       -0.006672941 -0.2010332 -0.030369703 -0.09296016
000340 d3 45 bf bc e8 51 e2 3d 7a 2b a6 3d 19 e9 40 3d
       -0.023348724 0.110507786 0.08113761 0.0470973
000350 f8 9a 51 be 4d 19 80 be 59 4b 93 be c4 c2 fb bd
       -0.20469272 -0.25019303 -0.28768423 -0.12293008
000360 5d 6b 54 3d 6e 35 45 be 24 e7 d0 bd 51 83 d2 3d
       0.051860202 -0.19258663 -0.102003366 0.10278953
000370 36 1f 12 3e 84 ac 61 be ad 62 fa 3e 4e 3a 4b be
       0.14269719 -0.22038466 0.4890341 -0.1984646
000380 ac 39 b7 3e 96 06 86 3d fc ba 5c 3e 28 34 4c be
       0.35786188 0.06544225 0.21555704 -0.19941771
000390 ac 7f dc 3c aa d4 a8 bd 0d a3 b4 bd d3 74 86 3d
       0.026916347 -0.082436875 -0.08820162 0.06565251
0003a0 bb 0b 85 3e e1 2e df bb 14 6f df bd 20 97 0c be
       0.25985512 -0.0068110083 -0.10909858 -0.13729525
0003b0 27 53 05 3e 2e c2 6a 3d 72 84 f4 3e 21 c1 e6 3e
       0.13020001 0.05731409 0.47757298 0.4506922
0003c0 04 cd 13 be c1 aa 9d 3e 75 19 11 3d c5 fb 81 bd
       -0.14433676 0.30794337 0.03542467 -0.06346849
0003d0 60 77 84 3e f3 54 9b be 23 64 e0 b8 f7 6f d1 bd
       0.25872326 -0.3033825 -0.00010699804 -0.10226434
0003e0 20 86 1a 3e fe a4 d3 bd b7 7a 8b 3e 07 60 a0 bb
       0.15090227 -0.10334204 0.27242061 -0.00489426
0003f0 55 f3 1a be 72 f4 98 bb a1 13 14 be da 50 8c 3d
       -0.15131886 -0.004667812 -0.14460613 0.06851359

lstm_layer.bias_ih f4 [80]
000000 3b 93 14 3f a8 11 0e 3e 39 e5 df 3e 75 42 ab 3e
       0.58037156 0.13873923 0.4372957 0.3344914
000010 45 4d bd 3e ba 93 ba 3e e9 6a e8 3e 56 55 ee 3d
       0.36973014 0.3644083 0.45394066 0.1163737
000020 84 0f 06 3f 92 49 ed 3e 58 86 52 3e c3 66 fb 3e
       0.52367425 0.46345192 0.2055906 0.49101838
000030 6d 0e 84 3e b9 c0 d2 3e 09 79 91 3e 74 dc fb 3e
       0.25792256 0.4116266 0.28412655 0.4919163
000040 4d 76 d4 3e 5e f5 a3 3e 18 12 ba 3e d8 7f 01 3f
       0.41496506 0.32023138 0.3634193 0.505857
000050 5e 49 80 bd ea a4 22 bd fe 15 4f ba f1 2d 3f 3e
       -0.06263994 -0.039708056 -0.00078997004 0.18669869
000060 0d 29 ef bd 3e 71 0b 3d 98 f7 16 3e d1 08 63 be
       -0.11677752 0.034043543 0.14742887 -0.22171332
000070 d5 e2 20 bc a7 9c e9 bd ce 5b 76 bd 73 6b ee 3d
       -0.009819706 -0.11406832 -0.060146146 0.11641588
000080 35 19 3f 3e 10 80 35 3e 6d ea 80 3e 87 ff f0 bd
       0.1866196 0.17724633 0.25178853 -0.11767488
000090 78 47 f3 3c 9e 89 1d 3e 8b 83 d8 3d 85 25 18 3e
       0.029697165 0.15384528 0.10571965 0.14858063
0000a0 17 98 bd 3d 88 ee 00 3f fc 26 02 be f8 e8 b5 3e
       0.092575245 0.5036397 -0.12710184 0.35529304
0000b0 ca 7b c4 3d 2c b5 ac be fd b1 13 3e d9 d0 95 3e
       0.095939234 -0.33731973 0.14423366 0.292609
0000c0 ec ff 50 3d 79 6a d0 be 70 68 c4 3e c6 cd 81 3e
       0.051025316 -0.40706232 0.3836093 0.25352305
0000d0 33 fe 13 be a5 df ca bd cb 37 c6 bd 05 cc 63 3e
       -0.14452438 -0.09905938 -0.096786104 0.22245796
0000e0 64 10 37 3e 84 99 d0 be cf 46 85 bd 30 55 e5 3d
       0.17877346 -0.40742123 -0.06507646 0.11197889
0000f0 1c ae bb 3e d0 4f 9f 3e 19 fb 85 3e 66 95 57 3e
       0.36656272 0.3111558 0.26168135 0.21053085
000100 e4 cb 1f 3f e3 66 16 3e a3 a0 bf 3e 76 64 15 3f
       0.6242049 0.14687686 0.37427244 0.58356416
000110 2f 4d ba 3e 93 62 04 3f 2a a8 85 3e c0 20 d7 3d
       0.3638701 0.5171291 0.26104861 0.105042934
000120 71 83 a2 3e fc 8d 42 3e a4 e8 76 3e e0 d9 4c 3e
       0.31740907 0.18999475 0.24112183 0.20004988
000130 78 80 dd 3e e1 bc e2 3e 06 73 0b 3f 30 b5 01 3f
       0.43262076 0.44284728 0.54472387 0.50667095

lstm_layer.bias_hh f4 [80]
000000 46 e2 aa 3e 8c dc 95 3e 98 b7 ea 3e 73 b4 0a 3f
       0.33375758 0.29269826 0.45843196 0.54181594
000010 f4 80 ba 3e 34 0c f0 3e c9 62 0f 3f 25 01 91 3e
       0.36426508 0.4688431 0.5601011 0.28321186
000020 31 aa 5a 3e 81 6e f6 3e a1 a0 e5 3e 27 d2 78 3e
       0.21353985 0.48131183 0.44849113 0.24298917
000030 3d ce 0c 3f a6 a7 6d 3e 89 55 5d 3e 35 cf dc 3e
       0.55002195 0.23208484 0.2161466 0.43126836
000040 05 c0 ef 3e 23 b3 ae 3e 3e 4b a0 3e d4 16 8f 3e
       0.46826187 0.34121045 0.31307405 0.27947104
000050 06 04 37 3c 17 99 23 3e a7 88 31 3e 22 b0 34 3e
       0.011170393 0.15976368 0.17337285 0.17645314
000060 27 e0 5d 3e 3d 02 43 bd 22 dd 50 3e 3d 76 75 3d
       0.21667539 -0.047609556 0.20396855 0.059927214
000070 c0 d7 4f bb 2f 60 85 3e df e9 58 3d 24 e4 b8 3d
       -0.003171429 0.26049945 0.05295741 0.09027889
000080 09 7c 81 bc 7f 3e 49 3e 3e 82 81 3c f9 32 2f 3e
       -0.015806215 0.19652747 0.015809175 0.17109288
000090 42 8e 54 3d 5d 51 30 3e a5 cf 58 3e 0e 3e d9 3d
       0.05189348 0.17218538 0.2117296 0.10607539
0000a0 fa e6 c1 3d 7a 8f 3e 3e 01 ab 11 3e 7f db bd 3e
       0.094678834 0.1860942 0.14225389 0.37081525
0000b0 eb 90 3b bd 74 d8 93 be 31 be 5d 3e 89 65 8c 3e
       -0.0457925 -0.28876078 0.21654584 0.27421215
0000c0 57 87 8d 3e 4d 4d bf be fe a1 25 3e 49 af 7e bd
       0.2764232 -0.37363663 0.16175076 -0.062178884
0000d0 29 7b c9 be ac f9 1a be 46 03 5c be 2e 63 28 3d
       -0.39351776 -0.15134305 -0.21485624 0.04111021
0000e0 07 59 36 3e 1b 61 65 be ab 1a 39 bc 33 07 0f be
       0.17807399 -0.22400324 -0.011297862 -0.1396759
0000f0 fa 16 24 3f 69 d0 1a 3e ef 12 d5 3e 43 c5 f8 3e
       0.6409756 0.15118565 0.41616008 0.48588
000100 25 61 85 3e d6 c1 84 3e 85 34 09 3e 04 cc 16 3f
       0.26050678 0.25929135 0.13398941 0.58905053
000110 d5 6e 7e 3e 9d bc 07 3f cd 31 ab 3e cb a4 4f 3e
       0.24846967 0.53022176 0.33436432 0.20277707
000120 b6 ab 03 3f 33 85 a4 3d 33 5e 94 3e 38 47 9d 3e
       0.51433885 0.08033218 0.28978118 0.30718398
000130 67 d3 0c 3f da 90 25 3d 84 58 f8 3e 08 15 27 3f
       0.55010074 0.040421344 0.48505032 0.65266466

metalstm_layer.Wf f4 [22, 1]
000000 9e 87 bf 3e e3 63 45 3d 41 6f 90 3e 9c 3b 03 bd
       0.37408155 0.048190963 0.2820988 -0.03203927
000010 05 1e b0 3e a6 2b a1 be 6b a1 85 3e 65 0f 3e 3e
       0.34397903 -0.31478614 0.26099715 0.1856056
000020 98 fd d8 3e fc 15 6b 3d 7f 59 a0 3c de 84 35 3e
       0.42380977 0.057394013 0.019573925 0.17726466
000030 69 cb 19 bd 65 5b e7 be e9 08 04 bf ae 63 0c 3f
       -0.037547503 -0.45186916 -0.51576096 0.548396
000040 b7 59 80 bd a1 6d 87 bd ef 6c c6 3e 28 fe 04 3f
       -0.06267112 -0.06612707 0.38754985 0.5195031
000050 cd 00 93 be 34 7f 69 bd
       -0.28711548 -0.057006076

metalstm_layer.Wi f4 [22, 1]
000000 85 cc 03 3f 4f 44 90 3e e4 c1 c3 3e 42 6c 79 3e
       0.5148395 0.28177115 0.38233864 0.24357703
000010 62 b3 d7 3e c1 cd c0 be 08 14 e1 3e 6f 32 ba 3e
       0.42129046 -0.37656978 0.43960595 0.36366603
000020 b4 72 d8 3e e0 a6 8a be cb 09 99 3e a6 97 c9 3e
       0.42275012 -0.2708044 0.29890284 0.3937351
000030 41 9b b4 be 57 39 9e be 74 67 bc be 46 db d7 3e
       -0.352747 -0.30903122 -0.36797678 0.4215948
000040 d9 de 80 3e d1 7e 9c be 7c bc d2 3e 46 92 b1 3e
       0.2517002 -0.30565503 0.41159427 0.3468191
000050 e4 39 2d bf 06 ba c1 bd
       -0.6766646 -0.09459309

metalstm_layer.ct f4 [17386, 1]
000000 c3 78 ec 3c 70 eb bb 3d f9 5a 44 be 83 b1 81 be
       0.028866177 0.091757655 -0.19175328 -0.25330743
000010 36 7e 6a be 56 e4 be 3d d6 1a eb 3d 86 5e c2 3d
       -0.22899708 0.093208954 0.11479728 0.09490685
000020 a9 d6 f3 bd f7 15 d5 bd 74 76 40 bc 5b fd d4 3d
       -0.119061776 -0.1040458 -0.011746991 0.10399886
000030 a8 44 01 3b 8e bb 35 bd d6 65 8d bd d7 18 1a bd
       0.001972476 -0.04436832 -0.06904189 -0.037621345
000040 cb 1b 0e 3e 4a 42 6f 3e 55 0e b1 3d 62 db 17 3d
       0.1387779 0.23365131 0.08645312 0.037074454
000050 e3 29 2e bd c8 bc 08 3e 1c d1 9f 3d 12 74 49 3e
       -0.042520415 0.13353264 0.07803556 0.19673184
000060 81 57 8b 3d 85 d4 2b 3d f7 98 09 3e 4e bb 50 be
       0.068037994 0.04195072 0.13437258 -0.20383951
000070 18 cd 76 be 0f e2 5a be 06 16 8d 3c 17 09 5e 3e
       -0.24101675 -0.21375297 0.017222416 0.21683155
000080 a0 7e 92 bd 9e de 25 be d9 74 5c be e2 1c ae bd
       -0.07153058 -0.16198203 -0.21528949 -0.08501603
000090 10 dd 72 3d 61 a3 58 3e de 55 ab 3d ef 75 0d 3d
       0.059292853 0.21156074 0.08365987 0.0345363
0000a0 60 bd 12 bd 9c e1 0a 3d 62 51 3c 3e cd 21 69 3d
       -0.035825133 0.033906564 0.1839042 0.056917
0000b0 4d 66 80 3b 78 80 13 be cc 4a e2 3d 71 93 2d 3e
       0.003918445 -0.14404476 0.110494226 0.16950776
0000c0 bf 04 72 3d 57 ee a8 3d 50 27 d4 3d cf 14 14 3e
       0.059086557 0.08248585 0.10359061 0.14461063
0000d0 de 32 50 bd 11 5b 1c be 8a 4a db bd da be bc bb
       -0.05082976 -0.15269114 -0.107075766 -0.005760056
0000e0 8b ec 0d 3e 5c 90 b0 bd 3d 66 41 be 22 ed 46 be
       0.13859765 -0.08621284 -0.18886657 -0.19426396
0000f0 c8 76 9a 3d 7c 49 31 3e c4 c6 33 3d 6d 3f 89 3d
       0.07542187 0.17313188 0.04389073 0.06701551
000100 48 e0 2b 3d bb 59 67 bd ff bc c7 3d c5 b5 43 3e
       0.04196194 -0.056482058 0.09752845 0.19112308
000110 ff 10 72 3e aa 02 4b 3e 41 ae 31 be dd 84 9a bb
       0.23639296 0.19825235 -0.17351629 -0.0047155456
000120 a4 b7 16 3e 4e f1 52 3e f6 a4 3f 3e 79 af cd bc
       0.14718491 0.20599863 0.18715271 -0.025108086
000130 de 54 f4 bc 5d bf 32 be e8 5a 7a be 91 99 a7 be
       -0.029825624 -0.17455812 -0.2444874 -0.3273435
000140 4e 61 39 be 57 34 b3 3d 82 19 aa 3d 19 03 f3 bd
       -0.18103525 0.087502174 0.083056465 -0.11865825
000150 34 0f 89 3d 76 ac 87 bd d3 da ca bb c2 24 9c 3d
       0.06692353 -0.06624691 -0.0061906367 0.076241985
000160 e2 f6 7a 3e 7d 4b 03 3e 13 cc ec 3b 38 11 4b 3d
       0.24508241 0.12821765 0.007226476 0.049576968
000170 03 ad 26 3e a0 34 f5 3d 7a 30 b9 bc 6c 4b fc bd
       0.16276936 0.11972928 -0.022606123 -0.12319073
000180 0f 26 37 bd 2a 45 f6 bd e8 fb ae be 33 29 5e be
       -0.04471403 -0.12024911 -0.34176564 -0.21695404
000190 30 72 96 bc 99 ac cc 3c 0a f7 fe bd 45 81 91 be
       -0.018364996 0.024984645 -0.12449463 -0.28418937
0001a0 9c ef ba be e5 9c 9a bd ca ea d0 bd ab 22 c0 bd
       -0.36510932 -0.075494565 -0.102010325 -0.093816124
0001b0 15 29 21 bc d0 4d 80 3d 62 b1 c0 bd 84 94 a6 3d
       -0.009836455 0.062648416 -0.09408833 0.08133796
0001c0 ef f8 70 3d e9 62 9c 3e 43 2d 8d 3e 5f b6 07 be
       0.05883115 0.30544212 0.27573594 -0.13253163
0001d0 9a f6 19 bd ae b0 ae 3d fa 48 bf 3d 48 db f3 3d
       -0.037588693 0.08529793 0.09340091 0.11907059
0001e0 dd cb 3e bb 3a 8d c3 bd 1e a1 4d be 75 b5 49 be
       -0.0029113211 -0.09548421 -0.20080993 -0.19698127
0001f0 4b c2 85 be 1f 23 48 be d8 50 a7 bd f7 85 05 be
       -0.26124796 -0.19544648 -0.081697166 -0.13039385
000200 6e 4f 97 be 8e 12 b3 be ce aa c8 bd e2 62 1d 3c
       -0.29552788 -0.34975094 -0.097982034 0.009606095
000210 52 c8 a3 bd 40 02 1a bc 52 09 03 3e 59 49 70 bd
       -0.079971924 -0.0093999505 0.12796524 -0.0586637
000220 04 42 83 3c a3 fe f3 3d 57 6d 65 3e b2 40 8a 3e
       0.01602269 0.119138025 0.22404991 0.27002484
000230 50 2b 98 3d 18 22 84 3d 28 4c 42 3e dd ad 8b 3d
       0.07430136 0.06451815 0.18974364 0.06820271
000240 26 6e 45 bc ca fa d2 bd 9d 6b c2 bc 85 aa 14 be
       -0.012050187 -0.103017405 -0.023732955 -0.14518173
000250 28 3e 9e be ce b1 74 be e1 3a b1 3d 2f aa db 3d
       -0.30906796 -0.23895952 0.086538084 0.10725819
000260 be 56 ec bc 5b ce 8b 3c e8 47 84 3c 85 d0 6a 3d
       -0.028849956 0.017066171 0.016147569 0.057327766
000270 68 9b 55 3e 7e 0f 52 be bd f7 01 be e8 1a 15 be
       0.20860064 -0.20513722 -0.12692161 -0.14561045
000280 7d c2 1a 3e 7c 79 ea 3d 46 38 85 be 6f ef a3 be
       0.15113254 0.114489526 -0.26019496 -0.3201861
000290 59 32 58 be 6e de 21 3e 0a 6f 2c 3d 5d bb 00 be
       -0.21112956 0.15807506 0.042098083 -0.12571473
0002a0 e5 cd b2 be 9b 2b 68 be 15 ea 89 3e fe 44 92 3c
       -0.3492271 -0.22672884 0.26936403 0.017855164
0002b0 ef 9e 26 bd 5c 74 12 be d5 ae 7e be f4 07 89 3e
       -0.040678915 -0.143022 -0.2487138 0.2676388
0002c0 d0 f8 43 3e b0 60 69 bd 95 bd 3c 3d a7 f3 0e be
       0.19137883 -0.056976974 0.046079237 -0.13960133
0002d0 f8 67 39 3e 3e 35 e6 3d 66 3d 04 bd 61 e8 8f bd
       0.18106067 0.11240624 -0.032285117 -0.07026745
0002e0 2a 4e 31 bd 91 47 5b 3e fb 09 e0 3d 2c 2c 39 be
       -0.043287434 0.21414019 0.109394036 -0.18083256
0002f0 7a 9b a1 be 25 9b 05 be 73 35 7e 3e 00 b8 31 3e
       -0.31563932 -0.13047464 0.24825077 0.17355347
000300 ea 5c 80 be b2 d9 75 be f2 c7 99 be f3 89 d5 3d
       -0.25070888 -0.24008825 -0.3003536 0.10426702
000310 65 87 18 bb 9c 0e d8 bd b2 e2 81 be 33 89 16 be
       -0.002327406 -0.105496615 -0.25368267 -0.14700775
000320 8f 3b 4c 3e 83 e9 8e 3e 71 e3 bd bd b9 8c 00 be
       0.19944595 0.2791253 -0.09271897 -0.12553681
000330 b0 1d e8 bd de 77 7f 3e 70 b7 c2 3d 7a 12 8e bc
       -0.113337874 0.2494807 0.09507644 -0.017342795
000340 71 ce 78 bd ca 5a ac bd 68 a6 30 3e 6a 28 ea 3d
       -0.060743753 -0.08415754 0.17250979 0.114334896
000350 a8 74 11 be 69 bd 7c be 4f 85 46 be c4 6c 2f 3e
       -0.14204657 -0.24681629 -0.1938679 0.17131335
000360 0d bf 8a 3b 8e 49 6b be 77 98 1b be e8 15 a0 be
       0.004234201 -0.22977278 -0.1519488 -0.31266713
000370 2f 5d 23 3e ce 74 37 3e 64 72 d3 bd ae f0 39 be
       0.15953515 0.17915651 -0.10324553 -0.18158218
000380 75 71 7a be 70 be 47 3c df 40 b2 be ef e3 d0 be
       -0.24457343 0.0121914 -0.34815118 -0.407989
000390 49 c2 06 bd 68 32 80 3e b6 e3 2c be 66 34 73 be
       -0.03290013 0.25038457 -0.1688374 -0.23750457
0003a0 67 1f a7 be 03 97 25 3e 4e f5 9a 3e 75 24 29 be
       -0.32641146 0.16170888 0.30265278 -0.16517814
0003b0 99 9e 1c be 6b 37 9f be f0 8f a1 3d df 0d 66 3e
       -0.15294875 -0.31096968 0.07888782 0.22466229
0003c0 22 95 04 3e db 66 72 bd 9e 4e 31 be e0 d5 2d 3e
       0.12947515 -0.059180122 -0.17315146 0.16976118
0003d0 1d c8 60 3e f9 74 85 3d e9 03 e1 3b 1b 03 bb bd
       0.21951337 0.065164514 0.006866921 -0.09131452
0003e0 02 ab 6a 3e 88 47 26 3e 04 e9 d8 bd f5 48 80 be
       0.22916797 0.16238225 -0.10591319 -0.25055662
0003f0 87 24 8f be 86 a5 e4 bc b4 b8 4b 3e b7 f2 59 be
       -0.27957556 -0.027910959 0.19894677 -0.21283995
