saved_models/metalearner_8_shot.pth (torch, 82116 bytes, 7 tensors)

weight_ih f4 [80, 4]
0.6657171 0.2900298 -0.48039037 -0.3327498 0.19638027 0.512065 -0.19964823 -0.23643926
0.18487345 0.33722547 -0.22596039 -0.33571935 0.30325362 0.5348114 -0.43274918 -0.19858028
0.34415233 0.3168797 -0.09702775 -0.4461844 0.40699065 0.20020035 -0.3374385 -0.6032033
0.35137638 0.38187474 -0.29391626 -0.30928743 0.46742845 0.46698207 -0.496138 -0.2752791
0.5449919 0.5379231 -0.43694258 -0.41358468 0.2636357 0.28710872 -0.37352815 -0.24016102
0.07706996 0.31428856 -0.46023837 -0.36627507 0.3801806 0.45732948 -0.36594054 -0.40767977
0.15217255 0.42715254 -0.16359453 -0.4834659 0.34052876 0.1467237 -0.34627652 -0.46654645
0.48902524 0.50211453 -0.3365779 -0.5654349 0.19914754 0.47208232 -0.17419857 -0.50706446
0.13545068 0.42026958 -0.5753278 -0.18685849 0.10044187 0.37607858 -0.4896229 -0.39105156
0.5683236 0.5452392 -0.4905997 -0.47388813 0.38324675 0.25540024 -0.37419602 -0.20285289
-0.3739185 -0.27108622 -0.39145982 -0.65943664 0.02524179 0.14040382 -0.42792952 -0.3966115
-0.23167855 0.060967047 -0.08350004 -0.5566752 0.13555807 0.24876307 -0.60113 -0.42274195
-0.05069415 -0.055837628 -0.27391624 -0.614349 -0.13025747 0.16665831 -0.348555 -0.6238438
0.014787398 0.008968566 -0.31248072 -0.3941849 -0.37640348 -0.2569731 -0.26067263 -0.44537395
-0.18774241 0.11377878 -0.31307328 -0.5773019 -0.23083486 0.22693516 -0.45616162 -0.506592
-0.102364145 0.06776828 -0.2862576 -0.40068802 0.31377614 -0.00621678 -0.2972748 -0.8042457
0.087788835 0.031260833 -0.62512666 -0.62281024 -0.21276593 -0.025295505 -0.04426181 -0.4042698
0.275814 -0.0028736023 -0.21052027 -0.5285502 -0.3778524 -0.14393531 -0.099996306 -0.4166678
0.12541033 0.339249 -0.4110658 -0.31527913 0.24451058 0.34342578 -0.37448287 -0.3023758
-0.13657711 -0.0402166 -0.41126975 -0.5073439 -0.18071243 0.1801311 -0.22827426 -0.33025298
-0.12228888 0.32249948 -0.30243355 -0.55444616 0.04638001 0.36160448 -0.25712168 -0.16251333
0.28281653 0.2739272 -0.44350418 -0.30794153 0.08045331 0.26079732 -0.38136947 -0.19530623
0.12216939 0.14662096 -0.33899093 -0.4910336 -0.33763 -0.29503188 0.4241557 0.35568976
0.10221137 0.020923074 -0.17266595 -0.25514585 0.18504359 -0.057729747 -0.5198364 -0.32786763
0.056293517 0.028024511 -0.39802513 -0.4303569 -0.1366575 -0.055346243 0.39045548 0.21250531
0.24791291 0.22722112 -0.31754717 -0.30459347 0.48830324 0.17771749 -0.17391938 -0.3833725
-0.36415306 -0.30403438 0.29024395 0.4136992 -0.20700254 -0.29291654 0.14042203 0.3106021
-0.3445069 -0.35220587 0.19392113 0.4520084 0.20992137 0.1891754 -0.36309144 -0.42316583
0.26575863 0.40858307 -0.57767135 -0.1852171 -0.43580812 -0.43825862 0.08322692 0.27694678
0.14852579 0.13921517 -0.28024113 -0.41123495 0.2570439 0.32643023 -0.6197586 -0.3076283
0.46500307 0.35463816 -0.14427866 -0.58982104 0.22397594 0.13768448 -0.40195927 -0.40287074
0.43948972 0.13624574 -0.6105251 -0.35153762 0.15832801 0.3455015 -0.41280648 -0.15392248
00000000: 706c 2a3f c97e 943e baf5 f5be 2f5e aabe
00000010: e917 493e b116 033f 9670 4cbe 221d 72be
00000020: 774f 3d3e d1a8 ac3e 2962 67be 68e3 abbe
00000030: 0f44 9b3e 66e9 083f 4d91 ddbe a158 4bbe
00000040: bc34 b03e 0e3e a23e 7cb6 c6bd 4872 e4be
00000050: 1461 d03e 5201 4d3e bdc4 acbe 886b 1abf
00000060: 9be7 b33e 1685 c33e 317c 96be ec5a 9ebe
00000070: c852 ef3e 4618 ef3e cd05 febe 62f1 8cbe
00000080: 9784 0b3f 54b5 093f f0b6 dfbe 5fc1 d3be
00000090: 42fb 863e eaff 923e 153f bfbe c5ec 75be
000000a0: dbd6 9d3d 6eea a03e 5da4 ebbe 6888 bbbe
000000b0: 08a7 c23e 1727 ea3e 8f5c bbbe 67bb d0be
000000c0: 1fd3 1b3e bdb3 da3e 5385 27be d888 f7be
000000d0: c959 ae3e bd3e 163e 284b b1be 2ddf eebe
000000e0: 8461 fa3e 948a 003f f053 acbe 57c0 10bf
000000f0: 55ed 4b3e c6b4 f13e 1c61 32be face 01bf
00000100: 95b3 0a3e 932d d73e af48 13bf d557 3fbe
00000110: 78b4 cd3d 5f8d c03e daaf fabe e937 c8be
00000120: a87d 113f cc94 0b3f e22f fbbe 77a1 f2be
00000130: eb38 c43e d2c3 823e 9f96 bfbe abb8 4fbe
00000140: 3f72 bfbe d0cb 8abe 6c6d c8be d7d0 28bf
00000150: dfc7 ce3c 05c6 0f3e 9419 dbbe aa10 cbbe
00000160: 243d 6dbe 95b8 793d 1202 abbd 4482 0ebf
00000170: bccf 0a3e bfbb 7e3e a8e3 19bf a271 d8be
00000180: aba4 4fbd ffb5 64bd c03e 8cbe fa45 1dbf
00000190: 3762 05be 7aa8 2a3e cd75 b2be 3ab4 1fbf
000001a0: d846 723c e4f0 123c 79fd 9fbe 9ad2 c9be
000001b0: f5b7 c0be fa91 83be e276 85be 0e08 e4be
000001c0: 8c3f 40be d904 e93d 244b a0be 0fca 13bf
000001d0: f95f 6cbe b161 683e 048e e9be 03b0 01bf
000001e0: 4ba4 d1bd 19ca 8a3d 5b90 92be fb26 cdbe
000001f0: 44a7 a03e 21b6 cbbb 6734 98be 0ce3 4dbf
00000200: a2ca b33d 5c0b 003d 4d08 20bf 7e70 1fbf
00000210: 50df 59be 8538 cfbc df4b 35bd 74fc cebe
00000220: 7e37 8d3e 0c53 3cbb a092 57be 114f 07bf
00000230: df75 c1be c763 13be ddca ccbd 7b55 d5be
00000240: 916b 003e 0cb2 ad3e 3777 d2be 446c a1be
00000250: fb60 7a3e 81d5 af3e 38bc bfbe 00d1 9abe
00000260: dfda 0bbe 29ba 24bd f391 d2be 4ae1 01bf
00000270: ae0c 39be 4974 383e bac0 69be eb16 a9be
00000280: 9872 fabd a71e a53e 92d8 9abe 2ff0 0dbf
00000290: f7f8 3d3d 3924 b93e 74a5 83be e569 26be
000002a0: 54cd 903e 3040 8c3e fb12 e3be 83aa 9dbe
000002b0: b4c4 a43d 3a87 853e dc42 c3be 5bfe 47be
000002c0: f233 fa3d ce23 163e 3890 adbe c268 fbbe
000002d0: d7dd acbe 6b0e 97be f02a d93e f81c b63e
000002e0: 3254 d13d de66 ab3c 58cf 30be 7aa2 82be
000002f0: 117c 3d3e 0776 6cbd 0014 05bf 44de a7be
00000300: 0894 663d a993 e53c f3c9 cbbe bd57 dcbe
00000310: f2ef 0bbe beb2 62bd c8e9 c73e fe9a 593e
00000320: e2dc 7d3e a7ac 683e 8b95 a2be adf3 9bbe
00000330: e202 fa3e 93fb 353e ec17 32be 6649 c4be
00000340: 4572 babe 65aa 9bbe db9a 943e 62d0 d33e
00000350: 79f8 53be 28f9 95be cbca 0f3e 3d07 9f3e
00000360: 3563 b0be 5454 b4be 4393 463e a56d e73e
00000370: a1f5 563e 32b7 413e 1fe7 b9be 31a9 d8be
00000380: 8411 883e cd31 d13e 45e2 13bf 8da9 3dbe
00000390: 3e22 dfbe 6f63 e0be e072 aa3d f8cb 8d3e
000003a0: 2517 183e 6c8e 0e3e c47b 8fbe 638d d2be
000003b0: 429b 833e dd21 a73e 80a8 1ebf 7581 9dbe
000003c0: e214 ee3e 2293 b53e c9bd 13be 83fe 16bf
000003d0: f359 653e 29fd 0c3e 9bcd cdbe 1345 cebe
000003e0: cc04 e13e 0184 0b3e 5f4b 1cbf bdfc b3be
000003f0: bd20 223e 93e5 b03e 5f5b d3be db9d 1dbe

weight_hh f4 [80, 20]
0.32771188 0.21882741 0.39752442 0.28409198 0.41947433 -0.59207755 0.5244749 -0.0582096
0.31631622 -0.35257834 0.3651257 0.6397671 -0.4506549 -0.14090112 -0.6151388 0.5111012
0.2739307 -0.28300622 0.6545913 0.5480234 0.18798266 -0.06254613 0.053816743 -0.020104522
0.24827239 -0.12924296 0.046591155 0.010238875 0.27593353 0.08358516 0.10668865 -0.004966345
-0.2219141 0.05490613 -0.110120036 0.2369752 0.3161152 -0.2020013 0.20093404 0.11981254
-0.06272309 -0.12513289 0.12695034 0.08116035 0.2131903 0.1223209 -0.054811068 -0.03792377
0.018108413 0.10620753 0.15104039 0.3375225 0.103625715 0.089012675 -0.28600308 -0.09275937
-0.15775387 -0.1434441 -0.025695859 0.24278963 -0.09260404 0.340126 0.30807143 0.31167233
0.1738073 0.003327407 0.1540236 -0.08595283 0.24293314 -0.00299543 0.27462912 -0.020856177
-0.13852978 0.045949016 -0.12677507 0.07128833 0.05552134 -0.038929947 0.13647585 0.07318331
0.4116133 0.033584177 0.36670804 0.17542797 0.20370375 -0.31756392 0.05806211 0.2822483
0.24012917 -0.26706916 0.27075464 0.5216805 -0.13421522 -0.08295971 -0.43084684 0.29758975
0.3542812 -0.10255126 0.51864725 0.2893063 -0.19075625 0.04741016 0.001650943 0.035787657
0.15356344 0.06380796 -0.010895162 -0.19932716 0.28715637 0.08567717 0.12918533 0.19539443
-0.08209049 -0.22550505 0.1074525 0.24034524 -0.026648251 -0.04148175 0.19625957 -0.13875638
0.18146566 0.41911483 0.10788128 0.19363895 0.27428934 -0.35446072 0.12153456 0.16658165
0.14782844 -0.2176841 0.22313838 0.4039447 -0.083239995 -0.12978639 -0.27204198 0.015687974
0.33227715 -0.12855284 -0.046926215 0.29614082 0.07499987 -0.011062429 0.13411127 -0.061788082
0.19423422 -0.10871268 0.047941953 0.015115296 0.3751784 0.045434356 0.27067733 0.1412874
-0.17081942 -0.25267428 -0.0042977477 0.15306425 -0.008836667 -0.16562404 0.17760447 0.24841698
0.17970651 0.22049999 0.013871556 0.11816356 0.38267514 -0.2572681 0.44190586 0.23971346
0.38233158 -0.28623605 0.44846535 0.54971826 -0.35851714 -0.30962503 -0.5260941 0.06263473
0.26323655 -0.32750574 0.46588555 0.28925207 -0.014785226 0.22294076 0.22751711 0.14847426
-0.16619185 -0.35841003 0.2998211 0.24913314 -0.040598944 0.019356739 0.20062 -0.08339957
-0.12713061 -0.2731626 -0.0009497544 0.13578019 0.29615596 -0.15861325 0.03178881 -0.029842213
-0.19754992 -0.122571304 0.11933316 -0.04626787 -0.028222792 -0.173439 -0.06372609 -0.19796585
-0.011319681 0.24997133 -0.036048535 0.085747644 -0.12180363 -0.1523356 -0.31353495 -0.13628227
-0.092529476 -0.04812518 -0.09194982 0.028456515 0.32232225 0.020551175 0.2785377 0.010856035
0.16890633 -0.32242066 -0.10280719 -0.043208484 0.009696823 -0.36749062 0.2684579 0.075213104
-0.086120754 -0.12301837 -0.49429318 0.08132628 0.38107327 -0.257268 0.22191007 0.27806833
-0.05913628 0.27002555 0.0060573183 -0.10161256 0.2547115 -0.35273585 0.0038772337 -0.14081046
0.2145474 -0.0686853 0.29045004 0.11570502 -0.14943534 0.033625443 -0.20558307 0.08125946
00000000: dac9 a73e 4b14 603e 5288 cb3e 8174 913e
00000010: 57c5 d63e 6592 17bf fd43 063f 316d 6ebd
00000020: 33f4 a13e 2685 b4be c1f1 ba3e c7c7 233f
00000030: 3dbc e6be 6248 10be bd79 1dbf 87d7 023f
00000040: a540 8c3e 31e6 90be 4c93 273f 434b 0c3f
00000050: 877e 403e 2f18 80bd f26e 5c3d 3db2 a4bc
00000060: 1e3b 7e3e 4458 04be 5ed6 3e3d f4c0 273c
00000070: 2947 8d3e b22e ab3d 947f da3d b9bc a2bb
00000080: 733d 63be 40e5 603d 9d86 e1bd a0a9 723e
00000090: dad9 a13e 6ed9 4ebe a7c1 4d3e 4760 f53d
000000a0: f774 80bd d622 00be 45ff 013e 6637 a63d
000000b0: 8f4e 5a3e 6183 fa3d 9281 60bd f455 1bbd
000000c0: 1858 943c 5583 d93d 55aa 1a3e c0cf ac3e
000000d0: b839 d43d 474c b63d ff6e 92be a0f8 bdbd
000000e0: 3b8a 21be 03e3 12be 1f80 d2bc d89d 783e
000000f0: 30a7 bdbd ff24 ae3e 8abb 9d3e 8493 9f3e
00000100: 8afa 313e a010 5a3b 5db8 1d3e 0a08 b0bd
00000110: 77c3 783e fa4e 44bb 309c 8c3e 93da aabc
00000120: c0da 0dbe 0935 3c3d 53d1 01be 9eff 913d
00000130: 586a 633d 0275 1fbd 53c0 0b3e 22e1 953d
00000140: fabe d23e 908f 093d 28c1 bb3e 64a3 333e
00000150: b797 503e bd97 a2be 89d2 6d3d d982 903e
00000160: 6ce4 753e 4abd 88be 5aa0 8a3e da8c 053f
00000170: b76f 09be c8e6 a9bd f597 dcbe af5d 983e
00000180: 5864 b53e 6506 d2bd 11c6 043f f51f 943e
00000190: 9b55 43be 2831 423d 7464 d83a 1496 123d
000001a0: bc3f 1d3e bfad 823d 9f81 32bc 6b1c 4cbe
000001b0: 2906 933e 8377 af3d 2949 043e 7a15 483e
000001c0: 0f1f a8bd ccea 66be 0e10 dc3d 101d 763e
000001d0: 6f4d dabc c4e8 29bd 45f8 483e 2716 0ebe
000001e0: 22d2 393e 3896 d63e dcf0 dc3d 4a49 463e
000001f0: a76f 8c3e e07b b5be 1de7 f83d 6194 2a3e
00000200: 5760 173e 95e8 5ebe 637e 643e d7d1 ce3e
00000210: bb79 aabd b9e6 04be 1649 8bbe 1184 803c
00000220: 3b20 aa3e 5ba3 03be b435 40bd c59f 973e
00000230: 8899 993d 313f 35bc 7754 093e 8015 7dbd
00000240: 56e5 463e c1a4 debd c85e 443d 25a6 773c
00000250: 6217 c03e 6019 3a3d 3896 8a3e a5ad 103e
00000260: 49eb 2ebe 865e 81be 1fd4 8cbb e0bc 1c3e
00000270: abc7 10bc 5999 29be f2dd 353e 0561 7e3e
00000280: fc04 383e c0ca 613e 8645 633c bdff f13d
00000290: ffed c33e a5b8 83be 7c41 e23e 7277 753e
000002a0: f7c0 c33e 888d 92be 409d e53e 56ba 0c3f
000002b0: 8f8f b7be 2c87 9ebe 1aae 06bf a346 803d
000002c0: f1c6 863e d5ae a7be 8d88 ee3e d918 943e
000002d0: bc3d 72bc 954a 643e 3ffa 683e a309 183e
000002e0: 322e 2abe 8581 b7be 2782 993e c21c 7f3e
000002f0: 144b 26bd 0692 9e3c 546f 4d3e 65cd aabd
00000300: 872e 02be f8db 8bbe f0f8 78ba f609 0b3e
00000310: c1a1 973e 836b 22be fc34 023d a877 f4bc
00000320: 874a 4abe aa06 fbbd f264 f43d 6183 3dbd
00000330: 7c33 e7bc fe99 31be d382 82bd 8fb7 4abe
00000340: 2f76 39bc 7cf8 7f3e a1a7 13bd 769c af3d
00000350: 2e74 f9bd ddfd 1bbe a787 a0be 948d 0bbe
00000360: 1880 bdbd e91e 45bd 3050 bcbd a31d e93c
00000370: 6c07 a53e f05a a83c 7e9c 8e3e 83dd 313c
00000380: c8f5 2c3e 5214 a5be 938c d2bd 61fb 30bd
00000390: 6cdf 1e3c bb27 bcbe 5073 893e 5409 9a3d
000003a0: 1460 b0bd 0ef1 fbbd ff13 fdbe 658e a63d
000003b0: 091c c33e a2b8 83be 653c 633e f95e 8e3e
000003c0: e238 72bd ca40 8a3e 787c c63b 3f1a d0bd
000003d0: 8c69 823e cb99 b4be 3019 7e3b 9e30 10be
000003e0: 50b2 5b3e e1aa 8cbd deb5 943e c1f6 ec3d
000003f0: 9405 19be d5ba 093d 5e84 52be 5c6b a63d

bias_ih f4 [80]
0.5398817 0.13012329 0.34056103 0.304442 0.28635588 0.32666272 0.3697161 0.092448615
0.49445876 0.409499 0.14994134 0.48912248 0.21207458 0.4234238 0.25806323 0.4314215
0.3802888 0.28472555 0.26528716 0.43617883 -0.037873343 -0.021571182 -0.056036398 0.19367842
-0.15747008 0.078935154 0.14118251 -0.26838 -0.005255733 -0.06573449 -0.20262581 0.27033183
0.16542484 0.11159693 0.2989066 -0.13773529 0.03920901 0.13458261 0.14309798 0.08251653
0.091570206 0.50577146 0.025989834 0.35547352 0.19844767 -0.3513302 0.2521674 0.28849745
0.053565312 -0.4050277 0.34691396 0.34948736 -0.14609668 -0.062447958 -0.070299245 0.20441715
0.17881429 -0.40085268 -0.014224787 0.2459931 0.3185665 0.31010062 0.1695283 0.17524709
0.5571376 0.08656444 0.35728005 0.540883 0.3777884 0.4742172 0.19252835 0.067565285
0.24723098 0.18370931 0.12624376 0.12906617 0.4144364 0.39347428 0.55389184 0.4251317
00000000: b035 0a3f 0a3f 053e 045e ae3e d2df 9b3e
00000010: 3d9d 923e 5640 a73e 6e4b bd3e b355 bd3d
00000020: b329 fd3e daa9 d13e 398a 193e 436e fa3e
00000030: 142a 593e 01cb d83e dd20 843e 47e3 dc3e
00000040: 37b5 c23e 8cc7 913e b8d3 873e d552 df3e
00000050: 1421 1bbd 0cb6 b0bc 6c86 65bd a353 463e
00000060: d63f 21be c1a8 a13d 2692 103e 1a69 89be
00000070: 4938 acbb ce9f 86bd 247d 4fbe ef68 8a3e
00000080: 2165 293e ee8c e43d 490a 993e 7b0a 0dbe
00000090: a099 203d 06d0 093e 4788 123e 6dfe a83d
000000a0: 2989 bb3d 3d7a 013f a2e8 d43c a000 b63e
000000b0: de35 4b3e 8de1 b3be 161c 813e f0b5 933e
000000c0: 4d67 5b3d ca5f cfbe b59e b13e 02f0 b23e
000000d0: 5e9a 15be 6ec9 7fbd 0df9 8fbd bb52 513e
000000e0: 181b 373e 903c cdbe 150f 69bc 9de5 7b3e
000000f0: 261b a33e 82c5 9e3e d498 2d3e f973 333e
00000100: 92a0 0e3f b248 b13d 69ed b63e 4f77 0a3f
00000110: 7b6d c13e 99cc f23e 2726 453e ab5f 8a3d
00000120: 1e2a 7d3e 4b1e 3c3e 0b46 013e ec29 043e
00000130: 0231 d43e 7675 c93e dbcb 0d3f ddaa d93e

bias_hh f4 [80]
0.29326674 0.28408164 0.36169782 0.511767 0.28089085 0.4310975 0.47587475 0.25928628
0.18432412 0.42735875 0.39284194 0.24109298 0.50417453 0.24388242 0.19008297 0.37077388
0.43358538 0.3057046 0.21494208 0.20979336 0.035936758 0.17790054 0.11812623 0.18343286
0.17598309 -0.0027175343 0.19772226 0.013260409 0.0013925221 0.3088334 -0.08952232 0.24419461
-0.037000805 0.13087828 0.06292748 0.15103258 0.061405335 0.15292245 0.24910739 0.040011145
0.09367376 0.18822597 0.29534507 0.3709957 0.056716263 -0.30277148 0.32447952 0.27010083
0.27896315 -0.371602 0.1250543 0.03378607 -0.39508992 -0.11473174 -0.18836951 0.023069602
0.17811479 -0.21743487 0.039553627 -0.005661248 0.59297943 0.1501307 0.32400712 0.450596
0.19343905 0.19897915 0.11699652 0.54636943 0.2623882 0.48731026 0.26584384 0.1652997
0.44416085 0.07404713 0.17490253 0.23620029 0.5319175 -0.008951763 0.4942179 0.5711254
00000000: 0f27 963e 2673 913e 7530 b93e 2a03 033f
00000010: edd0 8f3e d0b8 dc3e dba5 f33e 2cc1 843e
00000020: 76bf 3c3e c4ce da3e 9422 c93e 14e1 763e
00000030: 9511 013f 50bc 793e 1ca5 423e 13d6 bd3e
00000040: e7fe dd3e 5085 9c3e c719 5c3e 12d4 563e
00000050: 6c32 133d 8f2b 363e 2aec f13d d3d5 3b3e
00000060: e934 343e a918 32bb b477 4a3e 3042 593c
00000070: 4a85 b63a 691f 9e3e 7a57 b7bd 270e 7a3e
00000080: 288e 17bd f504 063e 1fe0 803d 49a8 1a3e
00000090: 2984 7b3d b497 1c3e 0216 7f3e bae2 233d
000000a0: 07d8 bf3d 4fbe 403e 7837 973e 26f3 bd3e
000000b0: 504f 683d dd04 9bbe 2e22 a63e a84a 8a3e
000000c0: 42d4 8e3e 9e42 bebe 3c0e 003e 4363 0a3d
000000d0: 3a49 cabe 79f8 eabd f0e3 40be 76fc bc3c
000000e0: b963 363e 3fa7 5ebe fc02 223d fe81 b9bb
000000f0: 80cd 173f ddbb 193e 43e4 a53e 85b4 e63e
00000100: e314 463e 31c1 4b3e df9b ef3d dede 0b3f
00000110: bf57 863e bb80 f93e af1c 883e 5344 293e
00000120: 0d69 e33e 06a6 973d a619 333e 7dde 713e
00000130: bf2b 083f 6aaa 12bc 210a fd3e 4635 123f

Wf f4 [22, 1]
0.33710852 0.06212479 0.23471193 0.056057222 0.3355722 -0.19265085 0.22872493 0.15851873
0.27677825 -0.03703976 0.19392657 0.28099647 -0.14189556 -0.22926195 -0.29929346 0.25296742
0.045651134 -0.1112095 0.32110065 0.2833758 -0.06551455 0.047889464
00000000: 7d99 ac3e 9076 7e3d 5358 703e 429c 653d
00000010: 1fd0 ab3e 4446 45be de36 6a3e bc52 223e
00000020: e1b5 8d3e 01b7 17bd b094 463e c5de 8f3e
00000030: 124d 11be a5c3 6abe fe3c 99be f284 813e
00000040: affc 3a3d cec1 e3bd 4e67 a43e a216 913e
00000050: 7e2c 86bd be27 443d

Wi f4 [22, 1]
0.48075178 0.2614576 0.3013242 0.20832437 0.39327058 -0.3320658 0.35912183 0.3409422
0.41536802 -0.22100997 0.28260973 0.37316984 -0.30413848 -0.3020247 -0.31658855 0.37625343
0.21904312 -0.2841926 0.3790724 0.276289 -0.50148827 -0.14580953
00000000: 1925 f63e c5dd 853e 2a47 9a3e fc52 553e
00000010: c35a c93e 8704 aabe d1de b73e fa8f ae3e
00000020: 1eab d43e 7050 62be 39b2 903e 1e10 bf3e
00000030: 0ab8 9bbe fba2 9abe e517 a2be 4aa4 c03e
00000040: d74c 603e b181 91be c715 c23e c075 8d3e
00000050: 8961 00bf 184f 15be

ct f4 [17386, 1]
-0.00021663454 0.060306862 -0.18085599 -0.24017937 -0.20529307 0.07495386 0.07923005 0.09477484
-0.11280636 -0.10303448 -0.0038771923 0.086717926 -0.008653174 -0.037612267 -0.06815758 -0.0027517271
0.15183952 0.2304043 0.08475662 0.027710717 0.013114607 0.16824241 0.09134645 0.2117327
0.0756614 0.012866597 0.10291975 -0.19293742 -0.22789328 -0.19005248 -0.001021226 0.18127814
-0.07162331 -0.15571275 -0.21425804 -0.077126555 0.042013936 0.20090492 0.09037952 0.03540247
-0.0009563683 0.04699581 0.18066044 0.05522631 -0.0054397252 -0.08835658 0.14521307 0.18280402
0.07412293 0.09010639 0.07449986 0.11315734 -0.03998651 -0.13960242 -0.083400086 -0.024000244
0.10303364 -0.086302415 -0.18258812 -0.19323657 0.08326774 0.15584825 0.033259142 0.0737399
0.042826734 -0.021604046 0.11060123 0.18787913 0.23466574 0.18886079 -0.117812715 0.030048411
0.16048437 0.22099738 0.19475268 0.039980758 -0.011159824 -0.17402343 -0.16338989 -0.25481853
-0.10478827 0.13914286 0.11627373 -0.08826987 0.07067779 0.017563347 0.080022976 0.11159586
0.21260439 0.09842084 0.06913615 0.13243009 0.20486228 0.1357834 0.0069418326 -0.08575078
0.019707812 -0.05105256 -0.2683122 -0.1358273 0.04672312 0.043665905 -0.12396089 -0.20307198
-0.29257366 0.00074505777 -0.050405256 -0.06058942 0.020548215 0.06640239 -0.010271981 0.16754064
0.094185 0.27297702 0.24595386 -0.070563234 0.04529982 0.12741232 0.109456204 0.14860724
0.03446476 -0.031029964 -0.13155532 -0.12362131 -0.1800986 -0.13033728 -0.06304583 -0.12986015
-0.21440445 -0.2772197 -0.021740833 0.061231684 -0.046745956 0.020984719 0.1317229 0.025144774
0.102233455 0.15449141 0.19156754 0.24024218 0.13618194 0.14736558 0.23182875 0.08425939
0.017496925 -0.06558797 0.04067547 -0.075967126 -0.23563544 -0.15782173 0.06852844 0.13434853
-0.0020535 -0.0020873938 0.001562029 0.03949517 0.24267489 -0.17694594 -0.14167325 -0.12619296
0.13152494 0.15551785 -0.20837666 -0.2825604 -0.16386607 0.15663566 0.08985989 -0.092568204
-0.320846 -0.19679858 0.288223 0.060379416 -0.031397924 -0.15156338 -0.25148898 0.24964972
0.21848258 -0.03017863 0.026923735 -0.15417503 0.16324832 0.14646894 -0.0041310177 -0.08502944
-0.023889598 0.19454579 0.1504214 -0.12904178 -0.27801576 -0.083232135 0.24682604 0.22132955
-0.21752039 -0.21176545 -0.27040404 0.12310584 0.040193174 -0.096208476 -0.26219168 -0.14980114
0.18144952 0.30624244 -0.0659184 -0.14468133 -0.12791345 0.23167889 0.12913707 0.010807967
-0.075507365 -0.06475178 0.15290679 0.15536322 -0.09026919 -0.20922638 -0.14660928 0.16987576
0.051991455 -0.1965911 -0.12367432 -0.28271458 0.17838068 0.22171086 -0.09395767 -0.19011211
-0.2473493 0.17098233 -0.19558828 -0.1978149 0.113964714 0.24393436 -0.11765205 -0.16327104
-0.20794106 0.21655683 0.30046263 -0.23714177 -0.17855696 -0.26225457 0.09481124 0.20899478
-0.036609862 -0.098228455 -0.14007272 0.16281573 0.18597695 -0.10519235 -0.03365871 -0.075838216
0.20496342 0.099977 0.05296048 -0.09807034 -0.06954263 0.11895265 0.19247879 -0.16162421
00000000: 6428 63b9 5404 773d 5032 39be 95f1 75be
00000010: 5938 52be 6981 993d 5d43 a23d 5019 c23d
00000020: 0507 e7bd be03 d3bd 7e18 7ebb 2b99 b13d
00000030: 0bc6 0dbc 520f 1abd 3496 8bbd 5256 34bb
00000040: d27b 1b3e 1bef 6b3e e194 ad3d 9601 e33c
00000050: a6de 563c bd47 2c3e d913 bb3d 75d0 583e
00000060: 5df4 9a3d 6bce 523c 97c7 d23d 6391 45be
00000070: db5c 69be 1e9d 42be a9da 85ba faa0 393e
00000080: 3eaf 92bd 2a73 1fbe 7666 5bbe 87f4 9dbd
00000090: ce16 2c3d 05ba 4d3e e618 b93d 2e02 113d
000000a0: cab4 7aba ae7e 403d 0dff 383e fc34 623d
000000b0: b93f b2bb 4bf4 b4bd bcb2 143e fa30 3b3e
000000c0: c3cd 973d b389 b83d 6293 983d 09bf e73d
000000d0: e5c8 23bd f0f3 0ebe aacd aabd 299c c4bc
000000e0: 4d03 d33d 52bf b0bd 61f8 3abe cfdf 45be
000000f0: 4788 aa3d af96 1f3e bd3a 083d f204 973d
00000100: 166b 2f3d f8fa b0bc e682 e23d 6363 403e
00000110: 374c 703e b964 413e cb47 f1bd 1628 f63c
00000120: 0456 243e 234d 623e 3f6d 473e ddc2 233d
00000130: b2d7 36bc 3333 32be ae4f 27be 9377 82be
00000140: 3c9b d6bd 777b 0e3e ec20 ee3d d5c6 b4bd
00000150: 84bf 903d 02e1 8f3c 16e3 a33d 5f8c e43d
00000160: f7b4 593e de90 c93d 4197 8d3d c19b 073e
00000170: 6bc7 513e ce0a 0b3e 5078 e33b 1b9e afbd
00000180: 4772 a13c 7d1c 51bd 3760 89be 5016 0bbe
00000190: be60 3f3d 05db 323d 35df fdbd 1af2 4fbe
000001a0: 37cc 95be fb4f 433a be75 4ebd 9d2c 78bd
000001b0: bb54 a83c fafd 873d d04b 28bc c68f 2b3e
000001c0: 11e4 c03d a5c3 8b3e 54db 7b3e 7583 90bd
000001d0: 4e8c 393d 6078 023e 932a e03d 7f2c 183e
000001e0: ec2a 0d3d 8d32 febc 70b6 06be 2b2d fdbd
000001f0: c46b 38be 2377 05be 2c1e 81bd 0ffa 04be
00000200: d78c 5bbe beef 8dbe d519 b2bc 13ce 7a3d
00000210: b078 3fbd 25e8 ab3c 5ee2 063e 6afc cd3c
00000220: c65f d13d ff32 1e3e 482a 443e 0c02 763e
00000230: 4773 0b3e 01e7 163e 8464 6d3e 3090 ac3d
00000240: b655 8f3c fc52 86bd 529b 263d a794 9bbd
00000250: 6b4a 71be 059c 21be a458 8c3d a992 093e
00000260: 0394 06bb a8cc 08bb ffbc cc3a b0c5 213d
00000270: c47f 783e 5131 35be cb12 11be ba38 01be
00000280: 79ae 063e 1240 1f3e b160 55be c2ab 90be
00000290: 82cc 27be 1965 203e 7608 b83d 6694 bdbd
000002a0: ed45 a4be 9185 49be f791 933e 6850 773d
000002b0: 1c9b 00bd 6e33 1bbe 2ac3 80be 2da4 7f3e
000002c0: e6b9 5f3e 2d39 f7bc 2a8f dc3c 0fe0 1dbe
000002d0: 912a 273e f4fb 153e 7d5d 87bb ea23 aebd
000002e0: 1eb4 c3bc 0337 473e 1108 1a3e 8723 04be
000002f0: 1558 8ebe 9c75 aabd f7bf 7c3e 37a4 623e
00000300: aabd 5ebe 0bd9 58be 6672 8abe ea1e fc3d
00000310: 99a1 243d f308 c5bd fd3d 86be 7865 19be
00000320: e7cd 393e cfcb 9c3e 3a00 87bd 5827 14be
00000330: befb 02be 3b3d 6d3e 823c 043e e613 313c
00000340: 9ba3 9abd 959c 84bd 9993 1c3e 8917 1f3e
00000350: 0edf b8bd 713f 56be be20 16be e9f3 2d3e
00000360: fef4 543d 2d4f 49be f648 fdbd f7bf 90be
00000370: 6da9 363e 2c08 633e e16c c0bd c0ac 42be
00000380: 2349 7dbe fe15 2f3e 4b48 48be fd8f 4abe
00000390: 5566 e93d eec9 793e 8ff3 f0bd 8630 27be
000003a0: 80ee 54be 13c1 5d3e 3dd6 993e 4bd5 72be
000003b0: a3d7 36be 3b46 86be 652c c23d ba02 563e
000003c0: 39f4 15bd 002c c9bd 396f 0fbe 2bb9 263e
000003d0: be70 3e3e 166f d7bd b7dd 09bd 1151 9bbd
000003e0: eee1 513e bec0 cc3d 17ed 583d 1ad9 c8bd
000003f0: 5e6c 8ebd 729d f33d 2919 453e d180 25be
