saved_models/metalearner_dict_1_shot.pth (torch, 81275 bytes, 7 tensors)

lstm_layer.weight_ih f4 [80, 4]
0	0x3edcd338	0.43129897
1	0x3ded89cb	0.115985475
2	0xbef65fa8	-0.48119855
3	0x3c88deb6	0.01670776
4	0x3e49cb87	0.19706546
5	0x3f015ec0	0.505352
6	0xbdd5f6b3	-0.10447445
7	0x3be1958f	0.006884284
8	0x3e351d3a	0.1768693
9	0x3eb48e17	0.35264656
10	0xbe7384df	-0.23781155
11	0xbd8e01cb	-0.06933936
12	0x3e8c22aa	0.27370197
13	0x3ef26705	0.47344223
14	0xbe5619cb	-0.20908277
15	0x3d582695	0.05277117
16	0x3e5ad6e9	0.21371044
17	0x3e6d985f	0.23202656
18	0xbde366cb	-0.111035906
19	0xbe00f487	-0.1259328
20	0x3ebb524f	0.36586234
21	0x3e376616	0.17910036
22	0xbe6b626c	-0.22986764
23	0xbe3d7b78	-0.18504131
24	0x3ea36170	0.31910276
25	0x3ea99dfd	0.33128348
26	0xbe9d3afc	-0.30709064
27	0xbc6c29a1	-0.014414222
28	0x3edeaeb0	0.4349265
29	0x3ef54e1d	0.47911158
30	0xbf03b0fe	-0.51441944
31	0xbd991460	-0.07474589
32	0x3ed1ba03	0.40962228
33	0x3edf2f48	0.4359076
34	0xbee83f65	-0.45360866
35	0xbdec83a1	-0.11548544
36	0x3e84e175	0.2595326
37	0x3e7b3ac3	0.24534135
38	0xbe3226a4	-0.17397553
39	0x3c9176e4	0.017756887
40	0x3db68cea	0.08913596
41	0x3eac2b80	0.33626938
42	0xbed2e0fd	-0.41187277
43	0xbd439664	-0.047750846
44	0x3e8d8f8a	0.27648574
45	0x3ea7da3e	0.32783693
46	0xbea0190f	-0.31269118
47	0x3b056ce3	0.002035909
48	0x3e046100	0.12927628
49	0x3ed755a8	0.42057538
50	0xbdd2e4d2	-0.1029755
51	0xbe292101	-0.16516496
52	0x3eb2d6bf	0.34929463
53	0x3e4091ca	0.18805614
54	0xbecc7676	-0.3993413
55	0xbe3b8efb	-0.18316261
56	0x3ee13e7f	0.43992993
57	0x3ef6f2a3	0.48231992
58	0xbeba8113	-0.364266
59	0xbe1f9312	-0.15583447
60	0x3dfb0ff2	0.12258901
61	0x3ed3a793	0.41338786
62	0xbe3bfd1a	-0.1835827
63	0xbe0139d6	-0.12619719
64	0x3e020464	0.12696987
65	0x3ec626f9	0.3870161
66	0xbed1354d	-0.40860978
67	0x3d8828f0	0.06648433
68	0x3de4844a	0.11158045
69	0x3ebfd7ab	0.3746923
70	0xbee22605	-0.44169632
71	0xbdcd7748	-0.10032517
72	0x3efb5670	0.49089384
73	0x3ee184d8	0.44046664
74	0xbee2a5de	-0.44267172
75	0xbe00a4c3	-0.12562852
76	0x3eb2022c	0.34767282
77	0x3e78f964	0.24313885
78	0xbeb23333	-0.34804687
79	0x3cfe7a60	0.031064212
80	0x3e213941	0.15744497
81	0x3e1c574a	0.15267673
82	0xbeffbb99	-0.49947813
83	0xbe3e03e6	-0.18556175
84	0x3ea781c5	0.32716194
85	0x3ed81f61	0.4221144
86	0xbef264b2	-0.4734245
87	0xbe31966c	-0.17342538
88	0x3e753590	0.23946214
89	0x3edd79b8	0.43256927
90	0xbdf6c87e	-0.120499596
91	0xbe445a21	-0.19175006
92	0x3ee8880b	0.45416293
93	0x3efa2418	0.48855662
94	0xbefac4b3	-0.48978195
95	0xbdf60383	-0.120123886
96	0x3f07aa66	0.5299438
97	0x3e8d93a3	0.276517
98	0xbe6ecf95	-0.23321374
99	0xbe276797	-0.1634811
100	0x3e050ded	0.12993594
101	0x3ee770ca	0.4520324
102	0xbe98e2ea	-0.29860622
103	0xbe4e968a	-0.20174614
104	0x3ebb1b67	0.36544344
105	0x3e7f16dc	0.24911064
106	0xbee52202	-0.44752508
107	0xbe0d9a09	-0.13828291
108	0x3e14a67d	0.14516635
109	0x3df77200	0.12082291
110	0xbea3a137	-0.31958935
111	0xbe2212c1	-0.15827467
112	0x3ec6dbfd	0.38839713
113	0x3ef0c5c9	0.47025898
114	0xbea9d53a	-0.3317049
115	0xbe531f1a	-0.20617333
116	0x3e075b5c	0.13218445
117	0x3eee705d	0.465701
118	0xbea58794	-0.3233
119	0xbe2e0215	-0.16992982
120	0x3e770b6f	0.24125455
121	0x3ed5734f	0.41689536
122	0xbea21d20	-0.31662846
123	0xbdc92965	-0.098223485
124	0x3f0ab45e	0.5418147
125	0x3e849c68	0.25900578
126	0xbecbeaca	-0.39827567
127	0xbe86258d	-0.26200524
128	0x3f057a49	0.5213972
129	0x3e9c7f14	0.30565703
130	0xbec1d98d	-0.3786129
131	0xbe1f398e	-0.15549299
132	0x3e744f98	0.23858488
133	0x3eb9d9d5	0.36299005
134	0xbe24a101	-0.16077043
135	0xbdfb8865	-0.122818746
136	0x3ed04b81	0.40682605
137	0x3e821f1c	0.2541436
138	0xbe5f3c78	-0.21800411
139	0xbcbb4556	-0.02286021
140	0x3e11dfa3	0.14245467
141	0x3e5c7b67	0.2153145
142	0xbde58016	-0.11206071
143	0xbd812965	-0.063067235
144	0x3ed090fc	0.40735614
145	0x3f0f327c	0.5593641
146	0xbeb1c9e4	-0.34724343
147	0xbd5dd9fc	-0.054162964
148	0x3edc9494	0.43082106
149	0x3f09e128	0.53859186
150	0xbef79e8f	-0.48363158
151	0xbdc65b2f	-0.09685361
152	0x3ed5c597	0.41752312
153	0x3e7906ed	0.24319048
154	0xbed6bd35	-0.41941229
155	0xbdb55d3b	-0.08855673
156	0x3e62cc6c	0.22148293
157	0x3ef37fb1	0.47558358
158	0xbe45b1bc	-0.19306082
159	0xbd03e2f5	-0.032198865
160	0x3e043a03	0.12912755
161	0x3eed8564	0.4639083
162	0xbe231760	-0.15926886
163	0xbdcab1ec	-0.09897217
164	0x3d26fb3a	0.040766932
165	0x3eada383	0.33913812
166	0xbe1885a0	-0.14894724
167	0x3d08b71a	0.033377744
168	0x3ed3b50b	0.41349062
169	0x3ec34204	0.38136303
170	0xbe99f9f7	-0.3007352
171	0xbd135ae2	-0.035975344
172	0x3d789bc5	0.06069543
173	0x3e5659e3	0.20932727
174	0xbe13c1c5	-0.14429386
175	0x39956a72	0.00028498803
176	0x3e96b304	0.29433453
177	0x3e9504a4	0.29105103
178	0xbe77700e	-0.24163839
179	0xbd5390e7	-0.05165186
180	0xbea2f65f	-0.3182859
181	0xbe8ca493	-0.2746931
182	0x3e8e419c	0.2778443
183	0x3d3a48b3	0.045479488
184	0x3dfc85bc	0.12330195
185	0x3e16de89	0.14733328
186	0xbe981b00	-0.297081
187	0x3a899109	0.0010495494
188	0x3eceb596	0.40372914
189	0x3d84e95f	0.064898245
190	0xbebc52ff	-0.3678207
191	0xbd1751e0	-0.036943316
192	0x3e2dd7ab	0.16976802
193	0x3e3740ca	0.17895809
194	0xbed7f278	-0.42177176
195	0xbd5858dc	-0.052819118
196	0xbe1deb44	-0.15421778
197	0xbd0f66c7	-0.035010125
198	0x3e269e99	0.16271438
199	0x3bfed708	0.0077770986
200	0x3e918b84	0.28426754
201	0x3e865b7e	0.26241678
202	0xbe55f32d	-0.20893545
203	0xbd443dee	-0.047910623
204	0x3ed40dbd	0.4141673
205	0x3e754bd9	0.23954715
206	0xbe817764	-0.252864
207	0xbd020194	-0.031739786
208	0xbeed6600	-0.46366882
209	0xbeab08ee	-0.3340525
210	0x3d451cf1	0.048123304
211	0x3d82f1e7	0.063937955
212	0xbebab91d	-0.36469355
213	0xbee77e63	-0.45213613
214	0x3e009bf8	0.12559497
215	0x3d5f7e40	0.05456376
216	0xbec3e288	-0.38258767
217	0xbede445c	-0.4341153
218	0x3e2de64f	0.16982387
219	0x3d95aefd	0.07308767
220	0x3eba3bf7	0.36373875
221	0x3e972c15	0.2952582
222	0xbe95f404	-0.29287732
223	0xbd4adca7	-0.049526837
224	0x3e89d4d1	0.2692018
225	0x3ec56cfa	0.38559705
226	0xbec738c3	-0.38910493
227	0x3c9a71ee	0.018853154
228	0xbeef2c03	-0.46713266
229	0xbee9953c	-0.4562167
230	0x3d01077f	0.03150129
231	0x3d0aa904	0.033852592
232	0x3e71ede4	0.23625904
233	0x3e918f71	0.2842975
234	0xbec542f0	-0.38527632
235	0xbd023e00	-0.03179741
236	0x3eb49bf7	0.35275242
237	0x3ed77099	0.42078093
238	0xbee1e272	-0.44118077
239	0xbd16e039	-0.03683493
240	0x3edb958c	0.42887533
241	0x3e860f2c	0.2618345
242	0xbe880ae2	-0.26570803
243	0xbe6ed0b8	-0.23321807
244	0x3f4f4619	0.80966336
245	0x3e7f4b42	0.24931052
246	0xbe8d8eac	-0.27647913
247	0xbd928200	-0.07153702
248	0x3ee241ec	0.4419092
249	0x3d9de6f6	0.07710068
250	0xbedbfa71	-0.4296451
251	0x3dcd2c35	0.100181974
252	0x3eb3c505	0.3511125
253	0x3e936905	0.2879106
254	0xbe0db39e	-0.1383805
255	0x3e15a0f7	0.14612184

lstm_layer.weight_hh f4 [80, 20]
0	0x3e8cd066	0.27502745
1	0x3ebc53cb	0.3678268
2	0x3eba0c80	0.36337662
3	0x3ec9e53c	0.39432704
4	0x3ea168d7	0.315253
5	0xbf0c5d2d	-0.54829675
6	0x3ecef21d	0.40419093
7	0x3de0e05b	0.109802924
8	0x3e315cb2	0.17320517
9	0xbefe85d9	-0.49711493
10	0x3edf60c7	0.43628523
11	0x3ee1cd57	0.44101974
12	0xbef66e64	-0.48131096
13	0xbe0a5c7e	-0.13511845
14	0xbf021eb6	-0.5082811
15	0x3f01a429	0.50641114
16	0x3ecf2169	0.40455177
17	0xbec2dd3b	-0.3805941
18	0x3f0810f0	0.53150845
19	0x3f042a06	0.5162662
20	0x3f013f67	0.5048737
21	0x3e400aa6	0.18754062
22	0x3e86b679	0.2631109
23	0x3e449e79	0.19201078
24	0x3f01be5a	0.5068108
25	0xbe954752	-0.29155976
26	0x3e7700e1	0.24121429
27	0x3eae2f45	0.3402044
28	0x3efac400	0.4897766
29	0xbe17225c	-0.14759201
30	0x3ea7fb78	0.32809043
31	0x3e084cad	0.133105
32	0xbee2b274	-0.44276774
33	0xbe3dacd7	-0.18522964
34	0xbe8fa3bc	-0.28054607
35	0x3efc1a3b	0.49238762
36	0x3f0917f7	0.5355219
37	0xbed5d9fe	-0.41767877
38	0x3ee18e73	0.44053993
39	0x3eac400c	0.33642614
40	0x3e9a8118	0.30176616
41	0x3e75a6ee	0.2398946
42	0x3ed4e726	0.41582602
43	0x3ed7bda3	0.4213687
44	0x3f082ca0	0.5319309
45	0xbe19a466	-0.1500412
46	0x3e500b47	0.20316802
47	0x3eb8b968	0.36078954
48	0x3e9753ad	0.29556027
49	0xbe8882e7	-0.2666237
50	0x3efc10ee	0.49231666
51	0x3f14c581	0.5811387
52	0xbe6f626b	-0.23377387
53	0xbe609b87	-0.21934329
54	0xbf0f2c8e	-0.5592736
55	0x3e6d31b9	0.23163499
56	0x3e479a1f	0.19492386
57	0xbef3ca43	-0.4761525
58	0x3e8c5b27	0.27413294
59	0x3f0b7b76	0.5448526
60	0x3e882357	0.26589462
61	0x3f1aa0f7	0.6040186
62	0x3f12e865	0.57385856
63	0x3f0719f3	0.5277397
64	0x3f0395bb	0.51400346
65	0xbe60f7e2	-0.2196956
66	0x3edb959e	0.42887586
67	0x3e871dfb	0.2639006
68	0x3f0adce3	0.54243296
69	0xbe763101	-0.24042131
70	0x3f07c52f	0.53035253
71	0x3e6a8a06	0.22904214
72	0xbed59dc1	-0.4172192
73	0xbe73c6ed	-0.23806353
74	0xbec21890	-0.37909365
75	0x3ebcdfe9	0.3688958
76	0x3e8bb80b	0.2728885
77	0xbe882769	-0.26592568
78	0x3eee51dc	0.4654683
79	0x3eb64ea7	0.35606882
80	0x3f11b604	0.5691836
81	0x3e6445ee	0.22292301
82	0x3ef82297	0.4846389
83	0x3eb10f89	0.34582165
84	0x3e95f362	0.2928725
85	0xbea96e0c	-0.33091772
86	0x3e25f41a	0.16206399
87	0x3f0c5726	0.5482048
88	0x3e9f126c	0.31068742
89	0xbeea73ad	-0.4579138
90	0x3ecf882f	0.40533587
91	0x3f010062	0.5039121
92	0xbe60b5a6	-0.21944293
93	0xbe609b91	-0.21934344
94	0xbedc009d	-0.42969218
95	0x3edb10e3	0.4278632
96	0x3f088cf9	0.5334011
97	0xbe78971e	-0.24276397
98	0x3f1d3877	0.61414284
99	0x3ed6863f	0.41899297
100	0x3e3dc0c8	0.18530571
101	0x3ee10879	0.43951777
102	0x3e9872ff	0.29775235
103	0x3ec84097	0.39111778
104	0x3eeefccd	0.46677247
105	0xbe686e36	-0.22698292
106	0x3e80e485	0.25174347
107	0x3e5548be	0.2082853
108	0x3f0d947c	0.55304694
109	0xbe9e403b	-0.3090838
110	0x3ef85a27	0.4850628
111	0x3ede17d7	0.43377563
112	0xbed77d37	-0.4208772
113	0xbf100764	-0.5626128
114	0xbe3f2a93	-0.18668585
115	0x3f1553bd	0.583309
116	0x3eb1e255	0.3474299
117	0xbed067d9	-0.4070423
118	0x3efc16df	0.492362
119	0x3e2416ba	0.16024294
120	0x3ecfdfcd	0.40600434
121	0x3f11b4ef	0.5691671
122	0x3e970fa9	0.29504135
123	0x3eb0e58e	0.34550136
124	0x3eec5d67	0.4616501
125	0xbebabced	-0.36472264
126	0x3eb6728e	0.35634273
127	0x3ee6f43d	0.45108214
128	0x3ea57385	0.32314697
129	0xbebc1d1d	-0.36740962
130	0x3eab13f5	0.33413664
131	0x3ef344e4	0.47513497
132	0xbe1602b9	-0.14649476
133	0xbea7c84c	-0.32770002
134	0xbe9aedee	-0.3025965
135	0x3e45023b	0.19239132
136	0x3ef833cb	0.48477015
137	0xbe604129	-0.21899857
138	0x3e2c395d	0.16818757
139	0x3f00df7e	0.5034102
140	0x3eb86cd3	0.36020526
141	0x3e529eef	0.20568441
142	0x3e90cc97	0.2828109
143	0x3e00c9db	0.12577002
144	0x3eaa8595	0.3330504
145	0xbe4d8651	-0.20070769
146	0x3e32e1b7	0.17468916
147	0x3ea6592b	0.32489905
148	0x3ef7321f	0.48280427
149	0xbe21a344	-0.15784937
150	0x3ee67f34	0.45018923
151	0x3e408678	0.18801296
152	0xbea49db4	-0.32151568
153	0xbed7cc5f	-0.4214811
154	0xbdb91f2d	-0.090391494
155	0x3ea95e83	0.3307992
156	0x3e3fde93	0.18737249
157	0xbeb096ef	-0.34490153
158	0x3e9af527	0.3026516
159	0x3ed1f218	0.41005015
160	0x3eb2448f	0.3481793
161	0x3ece58b8	0.40302062
162	0x3e0cae45	0.13738354
163	0x3e8eb902	0.27875525
164	0x3efc6099	0.49292448
165	0xbe82a579	-0.2551687
166	0x3f11ced4	0.5695622
167	0x3f0c5260	0.54813194
168	0x3eeac42c	0.45852792
169	0xbeecfe3d	-0.46287718
170	0x3f11289c	0.5670259
171	0x3f03f612	0.5154735
172	0xbee6752e	-0.45011276
173	0xbee86c1c	-0.4539498
174	0xbef9f8e7	-0.4882271
175	0x3e5db902	0.21652606
176	0x3ede7df8	0.43455482
177	0xbeeaca65	-0.4585754
178	0x3f12e583	0.5738146
179	0x3ed38996	0.41315907
180	0x3eb29ba8	0.3488438
181	0x3ee94ee1	0.45567992
182	0x3ef8584b	0.48504862
183	0x3ea77bf9	0.3271177
184	0x3e35cc6e	0.17753765
185	0xbf11a142	-0.56886685
186	0x3f13633a	0.5757328
187	0x3f183b69	0.5946565
188	0x3e868fee	0.26281685
189	0xbe35ef5c	-0.1776709
190	0x3edf6aaf	0.4363608
191	0x3e2389c9	0.1597053
192	0xbec85649	-0.3912833
193	0xbf0e128e	-0.5549706
194	0xbe7a9206	-0.24469766
195	0x3ede68ca	0.43439323
196	0x3ef294e4	0.4737922
197	0xbeb84856	-0.35992688
198	0x3ebde263	0.37086782
199	0x3e7945a8	0.24342978
200	0x3e5be1f5	0.21472915
201	0x3e8db301	0.27675632
202	0x3ee46794	0.44610274
203	0x3e9c2c1d	0.30502406
204	0x3eabfd06	0.3359148
205	0xbef88a85	-0.48543182
206	0x3e7478fd	0.23874278
207	0x3e7cb753	0.24679308
208	0x3e9ecbc1	0.31014827
209	0xbe0a99bf	-0.13535212
210	0x3ea5bb90	0.3236966
211	0x3eb0a98a	0.34504348
212	0xbf007b05	-0.5018771
213	0xbf004197	-0.5010008
214	0xbf1b84a9	-0.607493
215	0x3e6e9653	0.23299532
216	0x3e8807f3	0.26568565
217	0xbed2bca2	-0.4115954
218	0x3e719293	0.2359107
219	0x3eb7f2d0	0.3592744
220	0x3f1652b5	0.5871995
221	0x3e5381b5	0.20654948
222	0x3f01f8fb	0.5077054
223	0x3e430af2	0.19047144
224	0x3ed9890f	0.4248738
225	0xbeb8f376	-0.36123246
226	0x3e3fa693	0.18715887
227	0x3e89a9f8	0.26887488
228	0x3e8159d4	0.25263846
229	0xbf09dff9	-0.5385738
230	0x3ecd107f	0.40051648
231	0x3e4bc4a7	0.19899236
232	0xbe344af6	-0.1760672
233	0xbeb58f79	-0.35461023
234	0xbf0ef53a	-0.55842936
235	0x3e92d03d	0.28674498
236	0x3f0d3014	0.55151486
237	0xbebe4512	-0.3716207
238	0x3efd76b5	0.4950463
239	0x3f098d49	0.5373121
240	0x3e89fd5f	0.2695112
241	0x3f0c7a90	0.54874516
242	0x3e6a0920	0.22855043
243	0x3e2050b3	0.15655784
244	0x3efeb14e	0.49744648
245	0xbf03e8f8	-0.5152736
246	0x3e48a94f	0.19595836
247	0x3e40b99f	0.18820809
248	0x3ed4eb4c	0.41585767
249	0xbeb617e1	-0.35565093
250	0x3f0dbc33	0.55365294
251	0x3e832b02	0.2561875
252	0xbeb5258f	-0.35380217
253	0xbe6bc4ad	-0.23024245
254	0xbecf279c	-0.40459907
255	0x3eaecff5	0.34143034

lstm_layer.bias_ih f4 [80]
0	0x3ebb4f0b	0.36583742
1	0x3dfcbe84	0.123410255
2	0x3eb64348	0.35598207
3	0x3e78e81e	0.24307296
4	0x3e4e56af	0.20150255
5	0x3e9c72c2	0.30556303
6	0x3ea36452	0.31912476
7	0x3dd62cb8	0.10457748
8	0x3ec8ee34	0.39244235
9	0x3ebc4744	0.3677312
10	0x3e300c5d	0.17192216
11	0x3eb82170	0.3596301
12	0x3e526dfa	0.20549765
13	0x3eedf489	0.46475628
14	0x3e73fccf	0.23826908
15	0x3ebed618	0.37272716
16	0x3eb1ae91	0.34703496
17	0x3e9111cd	0.28333893
18	0x3e245dd9	0.16051425
19	0x3ed90bb1	0.42391732
20	0x3ec59338	0.38588881
21	0x3e8530fa	0.2601393
22	0x3ea191d4	0.3155657
23	0x3eddf005	0.43347183
24	0x3e3314d6	0.17488417
25	0x3eba86cc	0.36430967
26	0x3ec33d08	0.381325
27	0x3de0157d	0.109415986
28	0x3eb3d3a8	0.35122418
29	0x3e312f2c	0.17303151
30	0x3e16048c	0.14650172
31	0x3f091a0f	0.5355539
32	0x3ee13050	0.43982172
33	0x3efff0a6	0.49988288
34	0x3f0e50fc	0.5559232
35	0x3e62d4aa	0.22151437
36	0x3e84c607	0.25932333
37	0x3ea8d4ca	0.32974845
38	0x3eda5ebc	0.42650402
39	0x3ec18516	0.3779685
40	0x3e6e926e	0.23298046
41	0x3ef773a9	0.4833043
42	0x3e08a0cc	0.13342589
43	0x3e9ba662	0.30400378
44	0x3eaf8db3	0.34287795
45	0xbea977c0	-0.33099174
46	0x3ec1d518	0.3785789
47	0x3ed27f21	0.41112617
48	0x3e516833	0.20449905
49	0xbec4f640	-0.38469124
50	0x3ec3a3bd	0.3821086
51	0x3ed29829	0.41131714
52	0xbe345794	-0.17611533
53	0xbe62fcd9	-0.22166766
54	0xbe1bdc7f	-0.15220831
55	0x3e9ef9dc	0.31050003
56	0x3e1f9152	0.15582779
57	0xbed66e5e	-0.41881078
58	0x3e05ff53	0.1308568
59	0x3eae4195	0.3403441
60	0x3e672e70	0.22576308
61	0x3ed7ec94	0.42172682
62	0x3de21079	0.11038298
63	0x3df0f585	0.11765579
64	0x3eb76bef	0.35824534
65	0x3c27bb6b	0.010237555
66	0x3eb0ca3c	0.34529293
67	0x3edc5add	0.43038073
68	0x3e11b5fc	0.14229578
69	0x3ec611cb	0.3868545
70	0x3e542791	0.20718218
71	0x3c3a604e	0.0113755
72	0x3dea2879	0.11433501
73	0x3e0a74c8	0.13521111
74	0x3d906cbe	0.07051991
75	0x3db0143f	0.08597612
76	0x3eaf57aa	0.3424657
77	0x3eeb0d5d	0.45908633
78	0x3eea6fcd	0.45788422
79	0x3ebc9ca8	0.3683827

lstm_layer.bias_hh f4 [80]
0	0x3df42afb	0.119222604
1	0x3e8e0354	0.27736914
2	0x3ec115b4	0.3771187
3	0x3ee69a8b	0.45039782
4	0x3e48bdfd	0.19603725
5	0x3ed1eb43	0.40999803
6	0x3ed9bed1	0.42528394
7	0x3e8af6ff	0.27141568
8	0x3da890e5	0.082307614
9	0x3ec56c2a	0.38559085
10	0x3ed463a6	0.41482276
11	0x3de48f32	0.11160125
12	0x3efec52d	0.49759808
13	0x3e92079a	0.28521425
14	0x3e2e6025	0.17028864
15	0x3e9fc8e3	0.31207952
16	0x3eccf84d	0.40033188
17	0x3e9bcf93	0.30431804
18	0x3de1a083	0.11016943
19	0x3e4a45be	0.19753167
20	0x3eeb5daf	0.45969912
21	0x3eeb5222	0.459611
22	0x3efabdb8	0.4897287
23	0x3ed8b120	0.42322636
24	0x3f022268	0.5083375
25	0x3e90b86d	0.28265706
26	0x3ee02fcd	0.4378647
27	0x3ec8389b	0.39105687
28	0x3eb73b0f	0.35787246
29	0x3f0c2f76	0.5475992
30	0x3e84eaf2	0.259605
31	0x3f026925	0.5094169
32	0x3e7317d1	0.23739554
33	0x3f04e7ef	0.519164
34	0x3ea3cfcd	0.31994477
35	0x3f02a1d3	0.51028174
36	0x3e902353	0.2815195
37	0x3eb238a6	0.34808844
38	0x3f0852e2	0.5325147
39	0x3eabc1d7	0.33546326
40	0x3e70b9e0	0.23508406
41	0x3e29bce8	0.16575968
42	0x3ece394a	0.40278083
43	0x3ea398e9	0.319526
44	0x3e4df934	0.20114595
45	0xbe909b08	-0.2824328
46	0x3ee6db33	0.4508911
47	0x3ec913d8	0.39272952
48	0x3edc1b79	0.4298971
49	0xbeb3d912	-0.3512655
50	0x3e241893	0.16025
51	0x3dc3d1ef	0.09561526
52	0xbed9a7c7	-0.42510816
53	0xbe8c435b	-0.27395138
54	0xbe8a61ed	-0.27027836
55	0x3e04406a	0.12915197
56	0x3e1ed9f2	0.15512827
57	0xbe710acb	-0.23539273
58	0x3e3d1116	0.18463549
59	0x3db5a29e	0.088689074
60	0x3f000b8a	0.5001761
61	0x3e8604ec	0.2617563
62	0x3e879be9	0.26486138
63	0x3ec93805	0.39300552
64	0xbbb2aeb2	-0.005452954
65	0x3dfb30f2	0.12265195
66	0x3dd70f4e	0.10500966
67	0x3edf29f5	0.43586698
68	0x3cdc5226	0.02689464
69	0x3eccc5ed	0.39994755
70	0x3e8f9d6c	0.2804979
71	0x3ddf74d6	0.109109566
72	0x3e9f5e27	0.3112652
73	0x3cd14bb8	0.0255488
74	0x3df41409	0.11917884
75	0x3e45be96	0.19310984
76	0x3eeb7e13	0.45994624
77	0x3d68142d	0.056659866
78	0x3ecbe23b	0.39821038
79	0x3f03ae35	0.51437694

metalstm_layer.Wf f4 [22, 1]
0	0x3e5971fc	0.21234888
1	0x3e0e37c9	0.13888468
2	0x3e1891b3	0.1489933
3	0x3e06c881	0.13162424
4	0x3e4f0f05	0.20220573
5	0xbe2d2500	-0.16908646
6	0x3e1759b5	0.14780314
7	0x3e0f6bff	0.14006041
8	0x3e2a3a85	0.16623886
9	0xbe080e62	-0.13286737
10	0x3e3862cc	0.18006438
11	0x3e310402	0.17286685
12	0xbe42ae6c	-0.19011849
13	0xbe2ce4a0	-0.16884089
14	0xbe5791c1	-0.21051694
15	0x3e2fd955	0.1717275
16	0x3e06f659	0.13179912
17	0xbe2723c7	-0.16322242
18	0x3e52c01e	0.205811
19	0x3e228a93	0.15873174
20	0xbd2b5950	-0.041833222
21	0x3df26557	0.11835735

metalstm_layer.Wi f4 [22, 1]
0	0x3e26ac25	0.16276605
1	0x3e2b2208	0.167122
2	0x3e3ac895	0.18240578
3	0x3e3119bc	0.17294973
4	0x3e3c1ca8	0.18370306
5	0xbe2bf990	-0.1679442
6	0x3e3218f6	0.17392334
7	0x3e29cef4	0.16582853
8	0x3e4139c6	0.18869695
9	0xbe3bc0d5	-0.18335278
10	0x3e3b3ffb	0.18286125
11	0x3e3a8376	0.18214211
12	0xbe32a280	-0.17444801
13	0xbe360475	-0.17775138
14	0xbe2e39c1	-0.17014219
15	0x3e3b94f9	0.18318547
16	0x3e38f4c6	0.18062124
17	0xbe383948	-0.17990601
18	0x3e291f87	0.16515933
19	0x3e345323	0.17609839
20	0xbe664d13	-0.22490339
21	0xbf676d5f	-0.9040126

metalstm_layer.ct f4 [17386, 1]
0	0x3d5c06f6	0.053717576
1	0x3cfc83cd	0.030824566
2	0xbe3b070b	-0.18264405
3	0xbe5f6a5f	-0.21817921
4	0xbe62fad1	-0.22165991
5	0x3d8cb39a	0.06870194
6	0x3d11b991	0.03557736
7	0x3da3e5ac	0.08002791
8	0xbe0770cf	-0.13226627
9	0xbdfe6c74	-0.124230295
10	0xbd2ddb43	-0.042445432
11	0x3cdbc3d0	0.02682677
12	0xbd8d4c8d	-0.068993665
13	0xbe072f89	-0.13201727
14	0xbdca8f2d	-0.0989059
15	0xbd59ec4b	-0.053203862
16	0x3da81934	0.08207932
17	0x3e387ec4	0.18017107
18	0x3d5a6301	0.053317074
19	0x3da71bcb	0.08159598
20	0xbb50bbe1	-0.0031850266
21	0x3dfd3d0c	0.123651594
22	0x3d8b2c90	0.06795609
23	0x3e5ce253	0.21570711
24	0x3e29383e	0.16525361
25	0x3d88ce7a	0.06680007
26	0x3d966643	0.073437236
27	0xbe476626	-0.1947256
28	0xbe52d57e	-0.20589253
29	0xbe535f3a	-0.20641795
30	0xbbee4079	-0.0072708693
31	0x3e0ceea7	0.13762914
32	0xbdb0e3c1	-0.086371906
33	0xbe336154	-0.17517596
34	0xbe711d3c	-0.23546308
35	0xbdecf0eb	-0.11569389
36	0xbc9277ca	-0.017879386
37	0x3e0ff308	0.14057553
38	0xbb839be2	-0.0040163854
39	0x3b98b07e	0.0046597114
40	0xbd5291ad	-0.05140846
41	0xbcba84d9	-0.022768425
42	0x3e058dc4	0.1304236
43	0x3cc2db57	0.02378623
44	0x3d466e5e	0.048445098
45	0xbdd65571	-0.104655154
46	0x3dce128b	0.100621305
47	0x3e233f15	0.15942033
48	0x3d9fef3e	0.07809304
49	0x3e3802d8	0.17969835
50	0x3e038313	0.1284297
51	0x3dab5d8f	0.08367454
52	0xbd2b1bda	-0.04177461
53	0xbdf0d5e2	-0.11759545
54	0xbdcc4d2a	-0.099756554
55	0xbcf7cd34	-0.030249216
56	0x3d733a45	0.059381742
57	0xbdcef3f3	-0.10105123
58	0xbe4ee710	-0.20205331
59	0xbe5b9628	-0.21443999
60	0x3d371608	0.044698745
61	0x3dc486d0	0.09596026
62	0xbcddd4b3	-0.027078962
63	0xbca9394f	-0.02065721
64	0x3c45fdad	0.012084407
65	0xbd939212	-0.07205595
66	0x3d2746f8	0.040839165
67	0x3e0cf249	0.137643
68	0x3e501b02	0.20322803
69	0x3e7892b5	0.24274714
70	0xbe09546e	-0.13411114
71	0xbc6e5aed	-0.014548046
72	0x3e0c63b2	0.13709906
73	0x3e665efb	0.2249717
74	0x3e91958c	0.28434408
75	0x3e198eeb	0.14995925
76	0x3c8cc3f1	0.017183276
77	0xbe5b31b3	-0.21405677
78	0xbe54f039	-0.20794763
79	0xbe973539	-0.29532793
80	0xbca1a308	-0.01973106
81	0x3e3a618d	0.18201275
82	0x3d959e5a	0.07305594
83	0xbe4a4162	-0.19751504
84	0xbc15b06d	-0.009136301
85	0x3b915762	0.0044354657
86	0x3d3aac99	0.04557476
87	0x3d1a2a1e	0.037637822
88	0x3e0f5b3c	0.13999647
89	0x3d5ecd17	0.054394808
90	0x3c754266	0.014969444
91	0x3df125d8	0.11774796
92	0x3e65fb85	0.22459228
93	0x3e4eddd8	0.20201814
94	0x3da94f35	0.08267061
95	0xbddbf061	-0.10739208
96	0x3d7463b8	0.05966541
97	0x3d3bb44a	0.045826234
98	0xbd89c70d	-0.06727419
99	0x3de10a76	0.109883234
100	0x3e207661	0.15670158
101	0x3d93792d	0.07200847
102	0xbe27ed8b	-0.16399209
103	0xbe7d9421	-0.24763538
104	0xbeaa8a89	-0.3330882
105	0x3dafb95a	0.08580275
106	0xbbf6c1f8	-0.007530447
107	0xbdd49bcc	-0.103812784
108	0xbdb5a2d3	-0.08868947
109	0xbc5bbd2d	-0.013411802
110	0xbcbfb3ad	-0.023401106
111	0x3e084959	0.1330923
112	0x3ca5b3d4	0.02022735
113	0x3e4d2c4c	0.20036429
114	0x3e4ec2d0	0.20191503
115	0xbdff76c1	-0.124738224
116	0x3cfacfbc	0.030616634
117	0x3e16acc3	0.14714341
118	0x3e33e83d	0.1756906
119	0x3e65b86b	0.22433631
120	0x3c5231b5	0.012829234
121	0x3c123ea0	0.008926064
122	0xbd0e0fac	-0.034682915
123	0x3d9e9995	0.07744137
124	0x3d865ea1	0.06561018
125	0xbca6cc7c	-0.020361178
126	0xbd0e23d8	-0.034702152
127	0xbe2df809	-0.16989149
128	0xbe84979b	-0.25896916
129	0xbea2add3	-0.31773242
130	0x3d81ac36	0.06331675
131	0x3dd53462	0.10410382
132	0xbdb84196	-0.089968845
133	0xbdb4bdf8	-0.08825296
134	0x3d54a024	0.051910535
135	0x3c44e3e2	0.012017222
136	0x3d8ad318	0.06778544
137	0x3da4ee58	0.08053273
138	0x3df3a1ec	0.118961185
139	0x3e48e9af	0.19620393
140	0x3da7f9b3	0.08201923
141	0x3e07de32	0.13268355
142	0x3e80cc47	0.2515585
143	0x3e1a1af9	0.15049352
144	0x3dbeed28	0.09322578
145	0xbdb2a4cd	-0.087228395
146	0x3da52350	0.08063376
147	0x3cab4ade	0.020909723
148	0xbd0db01c	-0.03459178
149	0x3db3fe8a	0.08788784
150	0xbe68cf51	-0.22735335
151	0xbe189dd2	-0.14903954
152	0x3d99928d	0.074986555
153	0x3e163b32	0.14671019
154	0x3d128df1	0.035779897
155	0xbe58eca8	-0.21184027
156	0x3d34a3a8	0.044101387
157	0xbc0d632e	-0.008629603
158	0x3d36413c	0.044495806
159	0xbdba4d37	-0.09096759
160	0xbde820f3	-0.113344096
161	0xbce19aef	-0.027539698
162	0x3cbcee31	0.023062797
163	0x3c9a3e37	0.018828494
164	0xbdbbff59	-0.09179563
165	0xbd9f8255	-0.07788531
166	0xbd5a3c78	-0.053280324
167	0x3e03ebe1	0.1288295
168	0xb98db219	-0.0002702631
169	0xbd8cf371	-0.0688237
170	0x3cf7a318	0.030229136
171	0xbda6dc52	-0.081474915
172	0x3dfae4e6	0.1225069
173	0x3def3e56	0.116818115
174	0xbe1f9f11	-0.15588023
175	0xbd3d5506	-0.046223663
176	0xbd84ece3	-0.06490495
177	0x3d3ff256	0.04686197
178	0x3e33f043	0.17572121
179	0xbdf5adae	-0.119960174
180	0xbdb463d6	-0.08808105
181	0xbd556a91	-0.052103583
182	0x3e281fe5	0.16418417
183	0x3dcf2260	0.101139784
184	0x3c39c0bc	0.011337455
185	0xbd4e1ce6	-0.05032053
186	0xbd05acfa	-0.032635666
187	0x3dd1b492	0.10239519
188	0x3cbf78a5	0.023372957
189	0xbc36d47a	-0.011159057
190	0x3c499f8d	0.012306106
191	0x3da01ec7	0.0781837
192	0x3b7e6411	0.0038816968
193	0x3dded768	0.10880929
194	0xbe11d952	-0.14243057
195	0xbe0a2010	-0.13488793
196	0xbdd033b0	-0.101661086
197	0x3d6c54e3	0.05769814
198	0x3bcad9a2	0.0061904946
199	0xbd5df74e	-0.054190926
200	0xbdea58cb	-0.11442717
201	0x3cbb3c9e	0.022856053
202	0x3c363c84	0.0111228265
203	0x3b86dd0f	0.0041157077
204	0xbdbfe4d3	-0.09369817
205	0xbca0f26c	-0.019646846
206	0xbd8e3427	-0.06943541
207	0x3e376c11	0.17912318
208	0x3de2a299	0.11066169
209	0xbcf1df32	-0.029525373
210	0xbdbc5632	-0.09196128
211	0xbce2df26	-0.027694296
212	0x3e108de4	0.14116627
213	0x3dbcbf93	0.092162274
214	0xbd98a763	-0.074538015
215	0xbd846472	-0.06464471
216	0xbdbaab1f	-0.0911467
217	0x3ccb3efc	0.024810307
218	0x3e49a056	0.1969007
219	0xbe1e748a	-0.15474144
220	0xbda30c1d	-0.07961295
221	0x3da38af6	0.07985489
222	0x3d758cf4	0.059948877
223	0x3da04bdf	0.07826971
224	0xbe1b61e1	-0.15174057
225	0x3cea653b	0.028612724
226	0xbded4f8a	-0.115874365
227	0xbd652831	-0.055946533
228	0xbd960a0c	-0.07326135
229	0xbd3fb4a3	-0.046803128
230	0xbc4c69df	-0.0124764135
231	0x3d880c50	0.066429734
232	0xbbc47167	-0.005994964
233	0x3da0aa2c	0.07844958
234	0x3d3ebfb8	0.046569556
235	0xbdaf7c78	-0.085686624
236	0x3d0c6bce	0.034282498
237	0xbdbf43fe	-0.0933914
238	0xbd8385e0	-0.06422019
239	0x3cbf80c7	0.023376836
240	0x3ca492e8	0.020089582
241	0x3d8ef5ce	0.06980477
242	0xbd4f7c63	-0.050655734
243	0xbc986683	-0.018603569
244	0x3d4651db	0.048417907
245	0xbe05d9a6	-0.13071308
246	0x3d7e94d9	0.06215367
247	0xbdfe1e6c	-0.12408146
248	0xbcb10eae	-0.021613445
249	0xbd2cebbd	-0.042217005
250	0xbdb71939	-0.08940358
251	0xbc96716b	-0.018364629
252	0x3d941aed	0.07231698
253	0xbd8bd2e3	-0.06827333
254	0xbdc93ba9	-0.098258324
255	0xbd6732aa	-0.0564448
