saved_models/metalearner_10_shot.pth (torch, 82127 bytes, 7 tensors)

weight_ih f4 [80, 4]
0.8282493 0.2832564 -0.4329828 -0.2831774 0.22923312 0.51643276 -0.21263443 -0.25551367
0.33683556 0.3929226 -0.15857975 -0.34633124 0.3749049 0.57625306 -0.488737 -0.23694603
0.48140314 0.38991126 -0.13206068 -0.45555973 0.48760435 0.26166335 -0.42483422 -0.6084186
0.5071119 0.46506602 -0.33224574 -0.34849197 0.5517559 0.4611738 -0.46224353 -0.27996537
0.6763445 0.6327267 -0.4664289 -0.42424777 0.38626373 0.35846516 -0.40225357 -0.26709193
0.122320056 0.3376356 -0.5167238 -0.36143786 0.5042651 0.48679453 -0.42533115 -0.4487658
0.250952 0.44396916 -0.18185768 -0.51040477 0.4329731 0.15381415 -0.29204306 -0.4526698
0.5731175 0.5421749 -0.46152782 -0.5728834 0.37519598 0.52670354 -0.1689438 -0.48974046
0.19346474 0.44185415 -0.59616715 -0.21282876 0.16844779 0.41695884 -0.4707687 -0.46993643
0.7486002 0.6261919 -0.45233798 -0.43501693 0.51192796 0.28872076 -0.29375073 -0.195852
-0.41434914 -0.23485488 -0.5527144 -0.6406739 -0.053746276 0.09293523 -0.39216506 -0.30014747
-0.24365634 0.05871157 0.018494962 -0.51676875 0.0071971403 0.16019386 -0.56343 -0.32157815
0.04348041 0.023013186 -0.35299775 -0.58043706 -0.22501339 0.12682308 -0.32054 -0.49864072
-0.056217626 0.00016179433 -0.276207 -0.4020033 -0.38065764 -0.25529465 -0.30244142 -0.40726134
-0.0870621 0.21004753 -0.41952747 -0.64190054 -0.31681773 0.14128412 -0.374872 -0.39240608
-0.13117287 0.06037797 -0.28600496 -0.2774609 0.11043798 -0.065949626 -0.5594254 -0.7582118
0.06462299 0.009130087 -0.6061151 -0.5102451 -0.22746447 -0.02534751 -0.030933559 -0.39188296
0.16949728 -0.02935613 -0.22162129 -0.26242363 -0.37317264 -0.13543788 -0.15410013 -0.42495665
0.048850693 0.25178236 -0.3199365 -0.21671434 0.09259395 0.22361448 -0.4162543 -0.47582695
0.020715756 -0.049559087 -0.34691048 -0.46028247 -0.25889608 0.194269 -0.22112012 -0.3087689
-0.14286329 0.27756262 -0.39735013 -0.5528151 0.08024617 0.3676137 -0.26203367 -0.2136332
0.24286854 0.16222805 -0.32427296 -0.37487316 0.062452927 0.25403792 -0.49422553 -0.2724459
0.09032648 0.09530624 -0.39448395 -0.48162842 -0.38040414 -0.32894775 0.48503348 0.38036674
-0.0047437944 -0.06850015 -0.1641321 -0.36014628 0.21239488 -0.0810915 -0.5181514 -0.34316033
-0.034105998 0.0030151044 -0.46774969 -0.50396377 -0.13756484 -0.052126456 0.45313773 0.27465895
0.27898654 0.25129083 -0.34704715 -0.309153 0.40702635 0.16070502 -0.44956842 -0.375951
-0.40322655 -0.29042035 0.31870162 0.3822828 -0.17200519 -0.2519142 0.13747124 0.3731323
-0.4070359 -0.444596 0.3107329 0.40425283 0.19036967 0.16025457 -0.47388288 -0.46565506
0.28803977 0.41494894 -0.59918684 -0.24470969 -0.30569467 -0.32177016 0.10652275 0.35572702
0.10554885 0.11599262 -0.33620507 -0.4571264 0.16074881 0.22387487 -0.56976986 -0.38884237
0.5120661 0.35192677 -0.16751985 -0.64830947 0.3344415 0.1719498 -0.36882243 -0.3292122
0.626807 0.21078916 -0.5074919 -0.3655755 0.33866856 0.40196836 -0.3726641 -0.12432111
00000000: 2508 543f fc06 913e ecaf ddbe a1fc 90be
00000010: 16bc 6a3e f034 043f d7bc 59be b0d2 82be
00000020: b675 ac3e 272d c93e bb62 22be 5452 b1be
00000030: 89f3 bf3e 5285 133f bc3b fabe fba1 72be
00000040: 797a f63e 73a2 c73e ea3a 07be 203f e9be
00000050: 47a7 f93e bdf8 853e df83 d9be 52c1 1bbf
00000060: 16d2 013f 221d ee3e 1d1c aabe 8a6d b2be
00000070: e03f 0d3f f91e ec3e 2fab ecbe 9f57 8fbe
00000080: ea24 2d3f 61fa 213f c5cf eebe 0137 d9be
00000090: 5cc4 c53e bf88 b73e 2ef4 cdbe 46c0 88be
000000a0: f082 fa3d 93de ac3e 0348 04bf 620e b9be
000000b0: 8517 013f 223d f93e 01c5 d9be a2c4 e5be
000000c0: c87c 803e ed4f e33e e638 3abe e3a9 02bf
000000d0: a6ae dd3e 7581 1d3e ab86 95be 56c4 e7be
000000e0: d4b7 123f f9cb 0a3f 604d ecbe 7da8 12bf
000000f0: b019 c03e 0bd6 063f 9aff 2cbe 43bf fabe
00000100: 9f1b 463e b53a e23e 699e 18bf c8ef 59be
00000110: 947d 2c3e a17b d53e 9808 f1be 829b f0be
00000120: 43a4 3f3f 1d4e 203f d898 e7be 8aba debe
00000130: b60d 033f 35d3 933e 7f66 96be 6d8d 48be
00000140: 9225 d4be cc7d 70be b17e 0dbf 3403 24bf
00000150: 0e25 5cbd d354 be3d dcc9 c8be eeac 99be
00000160: 0c81 79be 8b7b 703d bf82 973c f54a 04bf
00000170: fdd5 eb3b dc09 243e f33c 10bf e4a5 a4be
00000180: 8418 323d 2686 bc3c 1fbc b4be 8697 14bf
00000190: e969 66be e9dd 013e d21d a4be d64d ffbe
000001a0: 7444 66bd 56a7 2939 016b 8dbe 60d3 cdbe
000001b0: 8fe5 c2be fbb5 82be 9ad9 9abe 8f84 d0be
000001c0: 9d4d b2bd b316 573e 4ecc d6be 9853 24bf
000001d0: ef35 a2be c9ac 103e 39ef bfbe 73e9 c8be
000001e0: 2e52 06be e44e 773d 3e6f 92be 5b0f 8ebe
000001f0: 4f2d e23d 9910 87bd 8136 0fbf 2b1a 42bf
00000200: 0f59 843d 5c96 153c 5c2a 1bbf 6c9f 02bf
00000210: 72ec 68be 95a5 cfbc 6068 fdbc e2a4 c8be
00000220: b290 2d3e 447c f0bc b1f0 62be 645c 86be
00000230: 7c10 bfbe 3ab0 0abe 6dcc 1dbe eb93 d9be
00000240: aa17 483d 9ee9 803e b8ce a3be 5dea 5dbe
00000250: e6a1 bd3d 32fb 643e 491f d5be 979f f3be
00000260: 17b4 a93c 78fe 4abd 409e b1be 25aa ebbe
00000270: 078e 84be 74ee 463e 506d 62be f516 9ebe
00000280: c14a 12be b01c 8e3e 7a71 cbbe 4a85 0dbf
00000290: 1b58 a43d dd37 bc3e 4729 86be a9c2 5abe
000002a0: 88b2 783e 1c1f 263e 1b07 a6be 60ef bfbe
000002b0: a4ce 7f3d 4211 823e 210b fdbe 077e 8bbe
000002c0: 17fd b83d eb2f c33d cdf9 c9be 0098 f6be
000002d0: 55c4 c2be d76b a8be 4f56 f83e 6ebf c23e
000002e0: d571 9bbb cf49 8cbd 3f12 28be 1865 b8be
000002f0: 0b7e 593e 4d13 a6bd 92a5 04bf b6b2 afbe
00000300: bbb2 0bbd 0f99 453b e37c efbe c503 01bf
00000310: ccdd 0cbe 8d82 55bd ab01 e83e 19a0 8c3e
00000320: 53d7 8e3e 31a9 803e 2ab0 b1be 4d49 9ebe
00000330: c265 d03e db8f 243e d52d e6be a67c c0be
00000340: b673 cebe fab1 94be dc2c a33e 92ba c33e
00000350: 2122 30be e6fa 80be 43c5 0c3e 320b bf3e
00000360: 0267 d0be 16a2 e3be 6218 9f3e 3afa ce3e
00000370: 44f0 423e c619 243e c7a0 f2be 576a eebe
00000380: f379 933e 3074 d43e 4f64 19bf 2d95 7abe
00000390: 0384 9cbe 0fbf a4be 9928 da3d da21 b63e
000003a0: ff29 d83d 8a8d ed3d 1223 acbe 790c eabe
000003b0: 569b 243e 743f 653e 70dc 11bf 5916 c7be
000003c0: c416 033f bf2f b43e 538a 2bbe 9cf7 25bf
000003d0: eb3b ab3e 9c13 303e 4bd6 bcbe 808e a8be
000003e0: 6c76 203f 1dd9 573e fdea 01bf b62c bbbe
000003f0: f765 ad3e ccce cd3e d4cd bebe 119c febd

weight_hh f4 [80, 20]
0.2984257 0.13007222 0.45133206 0.1942429 0.53998154 -0.41198465 0.59972465 -0.0152227115
0.44570464 -0.26032713 0.23780982 0.46721196 -0.39876157 -0.18772857 -0.3838999 0.5664043
0.17020126 -0.34555262 0.7418264 0.63914007 0.113879815 -0.13312717 -0.022182973 -0.100775614
0.23275517 0.0041352455 -0.030590674 -0.03213153 0.23506148 0.16175024 0.014671996 -0.15204376
-0.1619012 0.10994276 0.03267411 0.1688349 0.229808 -0.15906945 0.16039625 0.066614166
-0.07635308 -0.13456833 0.15688615 0.067558154 0.28059098 0.18570934 -0.04190669 0.011933286
0.048389427 0.10468819 0.12081691 0.2772839 0.082346864 0.04644743 -0.18842468 -0.07031673
-0.17973037 -0.19621 0.015872518 0.28622368 -0.1785001 0.26293325 0.2069475 0.21474306
0.13491234 0.11001935 0.061846916 -0.1691972 0.19831468 0.10871489 0.18076946 -0.11310153
-0.082535975 0.14328219 -0.023546154 -0.029920697 -0.057161164 0.038063176 0.060862068 0.002623592
0.25335476 0.013323063 0.2821377 0.15472873 0.13420942 -0.20133956 -0.037117798 0.27573156
0.17594317 -0.25684336 0.2190593 0.40538138 -0.09136379 -0.039346155 -0.27637243 0.20919487
0.32286432 -0.119873315 0.41998306 0.23444471 -0.26904622 0.07050736 -0.03729836 0.053865448
0.11801758 0.13641544 -0.078336194 -0.20125283 0.22599678 0.059780117 0.118155405 0.08252173
-0.06990392 -0.20783065 0.2115436 0.19118224 -0.011805341 -0.09209172 0.12654759 -0.16618916
0.13646084 0.39824593 0.09570803 0.18727437 0.31078887 -0.29502338 0.13203233 0.18271506
0.17358078 -0.21910375 0.2055773 0.37843135 -0.06870374 -0.15340804 -0.22998667 0.0033517804
0.3155392 -0.078379296 -0.01694733 0.30816418 0.107445925 -0.04748684 0.16104531 -0.101845875
0.27971914 0.016341109 0.09156525 0.073207475 0.45808458 0.07916782 0.20668076 0.046096798
-0.14121374 -0.28425866 0.13684087 0.17046398 -0.06269606 -0.19414712 0.23081343 0.30976182
0.070508204 0.2510817 -0.07034124 0.1409806 0.34473756 -0.21158622 0.34607613 0.2626937
0.32892242 -0.32745838 0.45422402 0.47218207 -0.39547873 -0.28213257 -0.44321543 0.014002945
0.28512752 -0.35674107 0.3865552 0.22472742 -0.07893909 0.17331001 0.15495564 0.06960237
-0.1596978 -0.30573913 0.24441151 0.19156192 -0.04222572 0.10224855 0.14985803 -0.118198104
-0.13218488 -0.21733908 0.046363946 0.064858384 0.19765341 -0.110221274 0.0017315801 -0.06740899
-0.24086931 -0.10646442 0.10236153 -0.046757456 -0.01209452 -0.111184426 -0.09950128 -0.17408465
-0.022509053 0.24338144 -0.050024234 -0.0121865515 -0.14159183 -0.14592369 -0.21361667 -0.16158696
-0.09681509 -0.09253969 -0.11846936 0.026193066 0.27054283 -0.079246484 0.23606464 -0.072781675
0.19556828 -0.15645015 -0.087644026 -0.042690516 0.056813035 -0.27804625 0.15155077 -0.025584089
0.021691417 -0.11405965 -0.3415377 0.030653274 0.2736153 -0.13102514 0.24999177 0.26649773
-0.097788736 0.1739632 -0.015777916 -0.18938203 0.26767915 -0.15552254 -0.014276139 -0.16607602
0.19724149 0.025769062 0.17721835 -0.054113667 -0.015287732 0.035851356 -0.017918479 0.039194483
00000000: 41cb 983e a731 053e ff14 e73e 9ce7 463e
00000010: 3b3c 0a3f a7ef d2be 8e87 193f ae68 79bc
00000020: 6633 e43e 9949 85be 6b84 733e 6836 ef3e
00000030: 7a2a ccbe eb3b 40be 878e c4be dfff 103f
00000040: 3d49 2e3e 46ec b0be 56e8 3d3f af9e 233f
00000050: d239 e93d 7d52 08be 11b9 b5bc 7263 cebd
00000060: 5f57 6e3e f480 873b 4b99 fabc 5a9c 03bd
00000070: f5b3 703e dba1 253e d062 703c 5cb1 1bbe
00000080: 6ec9 25be ab29 e13d 4ad5 053d 0ee3 2c3e
00000090: ca52 6b3e 1ae3 22be ea3e 243e 026d 883d
000000a0: 015f 9cbd 48cc 09be c3a6 203e ee5b 8a3d
000000b0: 9fa9 8f3e 972a 3e3e 59a6 2bbd d483 433c
000000c0: fe33 463d c366 d63d db6e f73d 28f8 8d3e
000000d0: 79a5 a83d a93f 3e3d 66f2 40be 3802 90bd
000000e0: 3d0b 38be 46eb 48be 1507 823c e98b 923e
000000f0: bbc8 36be 309f 863e 0cea 533e 9be5 5b3e
00000100: 7626 0a3e d351 e13d 3153 7d3d 0842 2dbe
00000110: 0113 4b3e eaa5 de3d a11b 393e c6a1 e7bd
00000120: 9f08 a9bd 91b8 123e dde3 c0bc 401c f5bc
00000130: d321 6abd 22e8 1b3d 814a 793d 92f0 2b3b
00000140: b7b7 813e fa48 5a3c 5a74 903e 3571 1e3e
00000150: 326e 093e f52b 4ebe d508 18bd b02c 8d3e
00000160: 722a 343e f980 83be 1551 603e 268e cf3e
00000170: f01c bbbd 6f29 21bd b080 8dbe 2e37 563e
00000180: 794e a53e 2480 f5bd 0508 d73e 4612 703e
00000190: 6dc0 89be 2a66 903d 2ac6 18bd 04a2 5c3d
000001a0: 33b3 f13d 7db0 0b3e ba6e a0bd 3915 4ebe
000001b0: b36b 673e ffdb 743d 76fb f13d 2701 a93d
000001c0: c929 8fbd 8fd1 54be e39e 583e 47c5 433e
000001d0: 306b 41bc 959a bcbd b195 013e 7e2d 2abe
000001e0: 64bc 0b3e e4e6 cb3e 9202 c43d dac4 3f3e
000001f0: b81f 9f3e 4e0d 97be 7c33 073e a819 3b3e
00000200: 29bf 313e bc5c 60be db82 523e c1c1 c13e
00000210: 8cb4 8cbd ff16 1dbe a081 6bbe 8ba9 5b3b
00000220: 5b8e a13e 5385 a0bd 21d5 8abc b2c7 9d3e
00000230: 9c0c dc3d 9081 42bd 10e9 243e 9294 d0bd
00000240: 5937 8f3e cadd 853c 9086 bb3d cded 953d
00000250: 108a ea3e bd22 a23d 1fa4 533e ffcf 3c3d
00000260: 569a 10be 5a8a 91be 0320 0c3e 1c8e 2e3e
00000270: cb66 80bd 81ce 46be 5b5a 6c3e 1a99 9e3e
00000280: 9b66 903d c88d 803e 110f 90bd 385d 103e
00000290: 7181 b03e 0faa 58be e430 b13e ca7f 863e
000002a0: 8568 a83e a0a8 a7be 0d90 e83e d9c1 f13e
000002b0: 307c cabe ae73 90be 22ed e2be 9c6c 653c
000002c0: 3cfc 913e c4a6 b6be 90ea c53e f21e 663e
000002d0: d1aa a1bd 2e78 313e b1ac 1e3e b08b 8e3d
000002e0: d287 23be d789 9cbe 0347 7a3e cf28 443e
000002f0: e0f4 2cbd b067 d13d 6274 193e d911 f2bd
00000300: 795b 07be 238e 5ebe 1fe8 3d3d 79d4 843d
00000310: a865 4a3e b1bb e1bd 30f6 e23a b90d 8abd
00000320: 72a6 76be 050a dabd eca2 d13d bf84 3fbd
00000330: 1828 46bc a9b4 e3bd 54c7 cbbd 3f43 32be
00000340: e864 b8bc fc38 793e 36e6 4cbd 1aaa 47bc
00000350: 73fd 10be 056d 15be 54be 5abe 0d77 25be
00000360: fd46 c6bd 7385 bdbd 10a0 f2bd d792 d63c
00000370: 9784 8a3e fb4b a2bd eeba 713e 8f0e 95bd
00000380: 0d43 483e 7834 20be b67e b3bd 40dc 2ebd
00000390: c9b4 683d 145c 8ebe 2030 1b3e b995 d1bc
000003a0: 33b2 b13c 1b98 e9bd 08de aebe 931c fb3c
000003b0: 4e17 8c3e 742b 06be d8fd 7f3e 6472 883e
000003c0: 7645 c8bd 6923 323e b040 81bc 5ded 41be
000003d0: 3e0d 893e 4d41 1fbe 78e6 69bc d50f 2abe
000003e0: acf9 493e a419 d33c ba78 353e 4ba6 5dbd
000003f0: 6579 7abc dfd8 123d c6c9 92bc 658a 203d

bias_ih f4 [80]
0.5331079 0.13449098 0.39625815 0.34588486 0.35938725 0.38812542 0.4529072 0.08664031
0.5892612 0.48085454 0.17328845 0.51858777 0.22889178 0.43051535 0.2981227 0.4860429
0.40187338 0.32560575 0.34624064 0.4694991 -0.0016418266 -0.0690391 -0.058291703 0.105108984
-0.07861938 0.03910041 0.1323763 -0.26670134 0.091012865 -0.15138553 -0.21001638 0.21059842
0.14329435 0.11154475 0.2724241 -0.1292378 -0.04825814 0.014770993 0.13375525 0.096654415
0.04663449 0.51177996 -0.08570966 0.3487138 0.14713323 -0.38524666 0.16274521 0.26513508
0.02855599 -0.4018076 0.3709828 0.3324753 -0.13248338 -0.02144583 -0.16268922 0.17549638
0.18518011 -0.28436416 -0.037447635 0.14343867 0.31585494 0.3443668 0.2440717 0.23171352
0.63219106 0.14927246 0.442354 0.5771134 0.45788828 0.54342526 0.2575269 0.112149596
0.27198565 0.20051728 0.21777555 0.18683608 0.4561294 0.43381616 0.60537624 0.49344233
00000000: c279 083f 01b8 093e 59e2 ca3e d217 b13e
00000010: 9b01 b83e 60b8 c63e 74e3 e73e 7a70 b13d
00000020: d2d9 163f 9132 f63e 8772 313e 2bc2 043f
00000030: 9b62 6a3e 826c dc3e 8aa3 983e 9dda f83e
00000040: 59c2 cd3e ccb5 a63e 7446 b13e 3062 f03e
00000050: 8f32 d7ba 5f64 8dbd 48c3 6ebd 6143 d73d
00000060: 3303 a1bd c027 203d a78d 073e 148d 88be
00000070: f464 ba3d cf04 1bbe 890e 57be 1da7 573e
00000080: c1bb 123e 9371 e43d 2c7b 8b3e ea56 04be
00000090: 54aa 45bd 0902 723c 23f7 083e c0f2 c53d
000000a0: cf03 3f3d 0304 033f 8c88 afbd 9d8a b23e
000000b0: 18aa 163e 0d3f c5be aea6 263e c9bf 873e
000000c0: 40ee e93c bab9 cdbe 75f1 bd3e 343a aa3e
000000d0: b9a9 07be 2aaf afbc 0198 26be 53b5 333e
000000e0: db9f 3d3e 2e98 91be b162 19bd 96e1 123e
000000f0: bdb7 a13e d850 b03e efed 793e 4f46 6d3e
00000100: 46d7 213f e1da 183e 397c e23e b4bd 133f
00000110: 5570 ea3e eb1d 0b3f 91da 833e b0ae e53d
00000120: b441 8b3e 6754 4d3e 8e00 5f3e f551 3f3e
00000130: cb89 e93e 271d de3e f0f9 1a3f 79a4 fc3e

bias_hh f4 [80]
0.28649345 0.28845 0.4173949 0.55320925 0.3539221 0.49256042 0.5590669 0.2534785
0.27912667 0.49871442 0.41618896 0.27055895 0.520991 0.2509726 0.23014264 0.4253952
0.45517007 0.3465849 0.29589555 0.24311383 0.07216843 0.13043217 0.115870856 0.09486358
0.25483376 -0.04255244 0.18891586 0.014938659 0.09766117 0.22318242 -0.096912704 0.18446136
-0.0591315 0.13082604 0.036444936 0.15953021 -0.026061723 0.033110958 0.23976466 0.054149225
0.048738044 0.19423549 0.18364592 0.364236 0.005401117 -0.33668765 0.23505746 0.24673909
0.25395387 -0.36838195 0.14912388 0.016773125 -0.38147622 -0.073729746 -0.2807591 -0.005851381
0.18448061 -0.100947015 0.016330829 -0.10821639 0.59026927 0.18439592 0.39855 0.5070633
0.2684936 0.26168704 0.20207049 0.58259976 0.34248778 0.5565184 0.33084282 0.20988369
0.46891522 0.09085472 0.26643437 0.29396918 0.5736105 0.031389963 0.5457019 0.6394358
00000000: 45af 923e b8af 933e c9b4 d53e 1f9f 0d3f
00000010: 4735 b53e e130 fc3e 021f 0f3f efc7 813e
00000020: b1e9 8e3e 7f57 ff3e b816 d53e b486 8a3e
00000030: ab5f 053f 7b7f 803e 83aa 6b3e 66cd d93e
00000040: 0d0c e93e 9373 b13e 9f7f 973e d5f2 783e
00000050: 0bcd 933d 0390 053e b34d ed3d d647 c23d
00000060: 9279 823e 784b 2ebd 2973 413e 47c1 743c
00000070: 9402 c83d ef89 643e 2b7a c6bd 70e3 3c3e
00000080: df33 72bd 43f7 053e 4947 153d e35b 233e
00000090: 657f d5bc 5b9f 073d de84 753e 94cb 5d3d
000000a0: 8ba1 473d abe5 463e ad0d 3c3e 247d ba3e
000000b0: dafb b03b 5362 acbe e7b2 703e 2ca9 7c3e
000000c0: 3e06 823e 8f9c bcbe eeb3 183e cb67 893c
000000d0: da50 c3be 9fff 96bd a8bf 8fbe f1bc bfbb
000000e0: 7ce8 3c3e 4fbd cebd 3bc8 853c 8ea0 ddbd
000000f0: e31b 173f 49d2 3c3e bf0e cc3e e7ce 013f
00000100: fe77 893e d8fb 853e 91eb 4e3e 4225 153f
00000110: 8f5a af3e fd77 0e3f 3b64 a93e c0eb 563e
00000120: a815 f03e 0a12 ba3d 166a 883e 2183 963e
00000130: 23d8 123f c392 003d 1fb3 0b3f 11b2 233f

Wf f4 [22, 1]
0.5368803 0.006046673 0.25977483 0.026950246 0.48448125 -0.13288927 0.34731677 0.30999154
0.47124988 0.011053383 0.10670275 0.56807864 -0.24680425 -0.25682953 -0.22362901 0.35236937
-0.05312255 -0.46535158 0.46058837 0.46229184 -0.43722507 -0.028235715
00000000: fd70 093f 2b23 c63b 3501 853e c3c6 dc3c
00000010: ed0d f83e 2014 08be 81d3 b13e 36b7 9e3e
00000020: aa47 f13e 4019 353c f986 da3d 9a6d 113f
00000030: 41ba 7cbe 297f 83be 01ff 64be c269 b43e
00000040: 0897 59bd 9042 eebe 3dd2 eb3e 84b1 ec3e
00000050: f7db dfbe 964e e7bc

Wi f4 [22, 1]
0.49438626 0.29135704 0.38660166 0.27093863 0.42924345 -0.37718305 0.43469688 0.38023183
0.46150994 -0.2929286 0.32032537 0.41552475 -0.35710454 -0.35075542 -0.3555337 0.43895513
0.27143872 -0.3547562 0.4240861 0.36330393 -0.59103477 -0.068839155
00000000: 3220 fd3e c02c 953e a7f0 c53e 78b8 8a3e
00000010: ccc5 db3e 231e c1be 9790 de3e bfad c23e
00000020: 084b ec3e bdfa 95be b001 a43e a9bf d43e
00000030: 68d6 b6be 3796 b3be 8308 b6be babe e03e
00000040: 04fa 8a3e 9ba2 b5be d021 d93e f902 ba3e
00000050: 0e4e 17bf 8bfb 8cbd

ct f4 [17386, 1]
0.010321841 0.06940328 -0.19512574 -0.24232279 -0.17721829 0.104095705 0.12581122 0.06136194
-0.14319538 -0.074874595 0.019190729 0.13516769 -0.033087704 -0.075762294 -0.07061122 -0.018744243
0.175863 0.27400467 0.108041726 0.01907766 -0.027433177 0.17264397 0.14211962 0.25362036
0.059588503 0.02341257 0.11201483 -0.20721938 -0.23002133 -0.16196291 0.02813133 0.22768612
-0.10526255 -0.18616751 -0.18619521 -0.05411371 0.09050558 0.17661922 0.05236362 0.033023197
-0.016944693 0.07098491 0.2243321 0.078542605 -0.014092868 -0.12917067 0.14958812 0.23345594
0.116186544 0.0740409 0.0850818 0.1222519 -0.05411108 -0.14161654 -0.055206273 0.005155521
0.1495748 -0.11996102 -0.2130838 -0.16515556 0.106402375 0.20423245 0.00885344 0.035705995
0.04045301 -0.037639875 0.13461068 0.23154032 0.25778824 0.18032904 -0.15870275 0.034292933
0.2111661 0.262873 0.17874113 0.04756949 -0.008787825 -0.21084902 -0.25530973 -0.3098568
-0.104837 0.12147302 0.033591717 -0.20145184 0.004154388 -0.030764379 0.023091098 0.07653068
0.20280747 0.05875557 0.010850802 0.11590879 0.24522625 0.18357407 -0.013851254 -0.11797322
0.009628823 -0.011552971 -0.21029367 -0.11683443 0.054313682 0.0460144 -0.1607305 -0.295139
-0.34774134 0.00070142513 -0.06792715 -0.14347616 -0.09242221 -0.00012658861 -0.05863982 0.1106567
0.05912844 0.26311734 0.20627734 -0.12910366 0.028688235 0.16787289 0.15727577 0.12795907
0.0023372658 -0.041168466 -0.09208106 -0.06544551 -0.16120343 -0.12279565 -0.060652055 -0.16663626
-0.3065132 -0.33233538 -0.021785466 0.043624084 -0.12961733 -0.09198495 0.065280914 -0.023171987
0.045313757 0.11940506 0.18179223 0.20056613 0.078023665 0.13086005 0.27215815 0.13210604
-0.0032856409 -0.09779483 0.0306215 -0.036475446 -0.17758206 -0.13887759 0.025868325 0.09074582
-0.038717955 0.01257554 0.0062724967 0.007434327 0.18331423 -0.24309082 -0.16068822 -0.1863472
0.09173327 0.08292317 -0.30735585 -0.37073183 -0.2637395 0.09533468 0.023461651 -0.18768287
-0.41577727 -0.28796315 0.21275601 0.00040702708 -0.11121239 -0.21806808 -0.32078665 0.20721404
0.1749395 -0.066872634 0.041593384 -0.14962412 0.13134664 0.08698552 -0.06993361 -0.103991486
-0.083869696 0.15485178 0.07781962 -0.22780806 -0.366176 -0.18292478 0.18567926 0.15509054
-0.31298614 -0.30637655 -0.3617631 0.04737599 -0.019790513 -0.17615688 -0.3289369 -0.21888828
0.13892782 0.262764 -0.10264927 -0.13005157 -0.12333616 0.19986807 0.06963171 -0.054963995
-0.09446049 -0.12480221 0.113148145 0.08276827 -0.1889295 -0.29721907 -0.2464444 0.10859725
-0.014451417 -0.2919992 -0.2180173 -0.37410524 0.102737576 0.1618292 -0.17390166 -0.25670168
-0.3166386 0.08274751 -0.26290148 -0.39440635 0.06194214 0.21030094 -0.16668518 -0.22513182
-0.3316173 0.2385727 0.27640632 -0.30289042 -0.21321756 -0.3301356 0.13476177 0.2190546
-0.010378578 -0.086992905 -0.16234192 0.20639805 0.23234762 -0.025989728 0.011262461 -0.06428764
0.23715827 0.16219327 -0.035444427 -0.16519894 -0.26566985 0.066933535 0.15883598 -0.21081695
00000000: f01c 293c 4f23 8e3d 0bcf 47be 7723 78be
00000010: b678 35be 2130 d53d a8d4 003e a856 7b3d
00000020: cfa1 12be da57 99bd e035 9d3c 6669 0a3e
00000030: f986 07bd 4329 9bbd 9e9c 90bd 878d 99bc
00000040: 6e15 343e 574a 8c3e fb44 dd3d c148 9c3c
00000050: 8bbb e0bc 95c9 303e ce87 113e 87da 813e
00000060: 1313 743d b8cb bf3c 0868 e53d 5131 54be
00000070: b68a 6bbe 9bd9 25be ad73 e63c 8d26 693e
00000080: e493 d7bd b2a2 3ebe f5a9 3ebe 56a6 5dbd
00000090: fd5a b93d abdb 343e 3c7b 563d 5543 073d
000000a0: 99cf 8abc 8960 913d 50b7 653e f2da a03d
000000b0: c6e5 66bc 5145 04be a12d 193e 130f 6f3e
000000c0: 36f3 ed3d c1a2 973d 5e3f ae3d 345f fa3d
000000d0: 94a3 5dbd ed03 11be f91f 62bd a5ef a83b
000000e0: 232a 193e 20ae f5bd a432 5abe 8a1e 29be
000000f0: 7de9 d93d 5022 513e 050e 113c 7340 123d
00000100: 0eb2 253d 452c 1abd 62d7 093e e818 6d3e
00000110: d2fc 833e 2da8 383e f982 22be bf76 0c3d
00000120: ed3b 583e 4a97 863e ea07 373e 3ad8 423d
00000130: cffa 0fbc cee8 57be f5b7 82be 8da5 9ebe
00000140: c8b4 d6bd d9c6 f83d 7897 093d 6449 4ebe
00000150: 8821 883b 9405 fcbc 8b29 bd3c 1ebc 9c3d
00000160: c3ac 4f3e aea9 703d 90c7 313c 9661 ed3d
00000170: 971c 7b3e d7fa 3b3e 5ff0 62bc f29b f1bd
00000180: 36c2 1d3c ac48 3dbc 3957 57be e446 efbd
00000190: 0678 5e3d 9879 3c3d 8996 24be 761c 97be
000001a0: 270b b2be d8df 373a 641d 8bbd 6aeb 12be
000001b0: db47 bdbd dfbc 04b9 4f30 70bd fb9f e23d
000001c0: aa30 723d 51b7 863e 5e3a 533e c033 04be
000001d0: 9703 eb3c dfe6 2b3e e60c 213e b407 033e
000001e0: d02c 193b 44a0 28bd ff94 bcbd 4c08 86bd
000001f0: 8312 25be 497c fbbd 4a6e 78bd b2a2 2abe
00000200: 4cef 9cbe dd27 aabe 6f77 b2bc 2baf 323d
00000210: 68ba 04be 9b62 bcbd 00b2 853d 2ed3 bdbc
00000220: eb9a 393d a48a f43d be27 3a3e 3561 4d3e
00000230: dfca 9f3d 2d00 063e 5058 8b3e ce46 073e
00000240: e853 57bb a848 c8bd f1d9 fa3c 4767 15bd
00000250: 12d8 35be ed35 0ebe cfe9 d33c f2d8 b93d
00000260: b896 1ebd a309 4e3c 8489 cd3b a89b f33b
00000270: bab6 3b3e cdec 78be 748b 24be cdd1 3ebe
00000280: a7de bb3d 9fd3 a93d bf5d 9dbe 90d0 bdbe
00000290: dd08 87be d43e c33d a632 c03c f02f 40be
000002a0: c2e0 d4be e86f 93be b6dc 593e 4066 d539
000002b0: 52c3 e3bd 3d4d 5fbe 263e a4be eb2f 543e
000002c0: 5723 333e 85f4 88bd d35d 2a3d 1137 19be
000002d0: bc7f 063e 7725 b23d 5a39 8fbd 7df9 d4bd
000002e0: e0c3 abbd 7791 1e3e e55f 9f3d 8446 69be
000002f0: 6c7b bbbe a250 3bbe b422 3e3e 0ed0 1e3e
00000300: b83f a0be 63dd 9cbe 0339 b9be 530d 423d
00000310: b71f a2bc 7862 34be 6b6a a8be 4024 60be
00000320: 1843 0e3e 0189 863e c839 d2bd 3d2c 05be
00000330: ab97 fcbd 37aa 4c3e 129b 8e3d ed21 61bd
00000340: 8074 c1bd 4d98 ffbd 37ba e73d 6982 a93d
00000350: bc76 41be 192d 98be ec5b 7cbe 3c68 de3d
00000360: a3c5 6cbc eb80 95be ed3f 5fbe b98a bfbe
00000370: 1468 d23d 8eb6 253e 4713 32be 676e 83be
00000380: 741e a2be 8777 a93d 069b 86be a1ef c9be
00000390: 0bb7 7d3d 2159 573e 85af 2abe f588 66be
000003a0: bec9 a9be 674c 743e 2185 8d3e 7414 9bbe
000003b0: b455 5abe 8907 a9be fdfe 093e d94f 603e
000003c0: e90a 2abc 5629 b2bd f63c 26be 035a 533e
000003d0: 89ec 6d3e 69e8 d4bc 2f86 383c 3da9 83bd
000003e0: 9ed9 723e fe15 263e 2d2e 11bd e929 29be
000003f0: e105 88be 7314 893d e6a5 223e 66e0 57be
