saved_models/metalearner_2_shot.pth (torch, 82116 bytes, 7 tensors)

weight_ih f4 [80, 4]
000000 82 d1 de 3e 18 fa ed 3d dd 43 f8 be 55 81 72 3d
       0.43519217 0.11619967 -0.48489276 0.059205372
000010 70 bb 4f 3e 80 e8 01 3f fb 6a e1 bd 80 20 8c 3d
       0.20286345 0.5074539 -0.11006733 0.068421364
000020 18 be 37 3e 2c 02 b4 3e 45 b8 77 be 9e a1 49 3c
       0.17943609 0.35157907 -0.24191387 0.012306599
000030 47 97 8a 3e 37 b1 ee 3e 92 0e 57 be f3 6c 13 3e
       0.2706854 0.4661958 -0.21001652 0.1439703
000040 12 2e 5e 3e 4a fe 6c 3e 28 72 ec bd 74 a2 4a bd
       0.21697262 0.23143879 -0.11545211 -0.049471334
000050 ee f7 bb 3e 8e ea 34 3e b3 88 6c be 01 8e df bd
       0.36712593 0.176676 -0.23099022 -0.10915757
000060 85 5e a3 3e f1 7f a7 3e 0f b0 9d be be 00 22 3d
       0.3190805 0.327148 -0.30798385 0.03955149
000070 30 52 e3 3e c6 ba f8 3e e8 75 05 bf 8a cd e6 bc
       0.44398642 0.48579997 -0.52133036 -0.02817418
000080 aa 62 d2 3e 4c c5 dd 3e 9e 2e e9 be 1d c9 27 bd
       0.410909 0.43314588 -0.4554338 -0.04096328
000090 09 62 84 3e 68 f1 75 3e f8 dc 32 be 6e ca cf 3d
       0.25856045 0.2401787 -0.17467105 0.10146032
0000a0 ce d6 b9 3d 13 3c ab 3e 61 14 d4 be a4 d5 a3 3c
       0.09074174 0.3344427 -0.41421798 0.019999333
0000b0 74 4f 8e 3e ce 08 a6 3e 18 d4 9f be 13 be 5b 3d
       0.27794993 0.32428592 -0.31216502 0.053648066
0000c0 9a cc 09 3e ad fa d8 3e e0 0a dc bd 0a ab d3 bd
       0.13456956 0.4237875 -0.10744262 -0.103353575
0000d0 6c a6 b4 3e 42 68 40 3e 29 db ce be b0 30 d1 bd
       0.3528322 0.18789771 -0.4040158 -0.102143645
0000e0 5f d2 e4 3e 0e ea f9 3e 43 6a bd be df 6d df bd
       0.4469175 0.48811382 -0.36995134 -0.10909628
0000f0 15 cb fe 3d d3 ba d2 3e 1f e5 3e be 55 4c 61 bd
       0.124410786 0.4115816 -0.1864209 -0.055004437
000100 03 65 02 3e ad 80 c4 3e d8 83 d2 be 4f 35 0a 3e
       0.12733845 0.38379422 -0.41116214 0.13496898
000110 a3 97 e5 3d 77 fb bd 3e f5 b8 e2 be 97 5f de bc
       0.11210563 0.37105915 -0.44281736 -0.02714519
000120 4d 18 fd 3e 46 20 e1 3e 25 d7 e5 be 6a 1f 1e bd
       0.49432603 0.43969935 -0.44890705 -0.038604178
000130 6a 2a b4 3e 54 ed 79 3e f3 59 b4 be 10 75 b0 3d
       0.3518861 0.2440694 -0.35224876 0.08616078
000140 56 25 2b 3e 05 78 26 3e 7b ad 00 bf 7b ca 56 be
       0.16713461 0.16256721 -0.5026471 -0.20975678
000150 ff 22 ab 3e d7 ac db 3e 9b fd f3 be e6 7c 2f be
       0.33425137 0.42905304 -0.47654423 -0.17137489
000160 38 04 7c 3e 01 91 e0 3e 39 53 f3 bd bd 89 58 be
       0.24610984 0.4386063 -0.11881108 -0.21146293
000170 52 5b ee 3e 4e 57 ff 3e 10 34 fb be 12 51 11 be
       0.46554047 0.49871296 -0.49063158 -0.14191082
000180 a5 3e 0a 3f 66 72 92 3e 78 21 70 be 63 c6 43 be
       0.5400184 0.28602904 -0.23450267 -0.19118647
000190 de 36 0d 3e 90 4b eb 3e 8d 9f 98 be 86 9e 70 be
       0.13790461 0.45956087 -0.29809228 -0.23497972
0001a0 d9 37 bf 3e f5 2c 83 3e 51 12 e5 be e8 1f 28 be
       0.37347296 0.25620237 -0.44740537 -0.16418421
0001b0 3d 1e 1a 3e 99 f9 01 3e 75 41 a4 be 79 69 2a be
       0.15050597 0.1269287 -0.3208119 -0.16641797
0001c0 51 38 ca 3e 1f b8 f3 3e 02 2e a9 be 64 ab 78 be
       0.3949609 0.4760141 -0.33042914 -0.2428413
0001d0 80 25 12 3e cc 4a f3 3e e6 f9 a5 be ee 6c 43 be
       0.14272118 0.47518003 -0.3241722 -0.19084522
0001e0 e2 27 80 3e 91 8c d9 3e e7 05 a2 be 92 51 fe bd
       0.25030428 0.42490056 -0.31645128 -0.12417902
0001f0 d7 6c 0c 3f 32 ef 86 3e 0f 14 ca be 0b 2a 98 be
       0.54853576 0.26354367 -0.39468428 -0.29719576
000200 ff d3 07 3f 32 91 a1 3e 40 29 c3 be be 29 41 be
       0.53057855 0.31556088 -0.3811741 -0.1886358
000210 ff 4c 7c 3e e1 01 be 3e f7 32 26 be 9f 87 15 be
       0.24638747 0.37110808 -0.16230379 -0.14602517
000220 bc 72 d6 3e 15 1c 89 3e 32 ff 66 be cc e8 35 bd
       0.4188441 0.26779237 -0.22558287 -0.044411466
000230 8d b6 1b 3e a5 8f 65 3e 9c 39 e7 bd 44 ae c4 bd
       0.15206356 0.22418077 -0.11290285 -0.09603551
000240 b5 ea d5 3e 8b b5 11 3f 46 8d b2 be 60 71 91 bd
       0.4178063 0.5691764 -0.34873408 -0.07101703
000250 11 93 e1 3e a5 2a 0c 3f 23 4d f8 be 23 47 02 be
       0.44057515 0.5475257 -0.4849635 -0.12722449
000260 a9 5c dc 3e 4d 8e 82 3e f4 b7 d8 be b0 f0 ed bd
       0.43039444 0.25499192 -0.42327845 -0.11618173
000270 f8 e7 69 3e 05 28 f7 3e 31 1e 48 be af fd 21 bd
       0.22842395 0.4827272 -0.19542767 -0.039548572
000280 8d 6c 03 3e 90 d1 eb 3e 22 94 24 be 1e b4 71 bd
       0.12834378 0.4605832 -0.16072133 -0.059009664
000290 27 b3 1e 3d 42 bc aa 3e 5b 7b 19 be a4 25 c3 3d
       0.03874507 0.33346754 -0.14988463 0.09528664
0002a0 b0 4f d1 3e 82 1e bf 3e a7 32 9a be 8a d3 6f 3d
       0.4088111 0.37327963 -0.3011677 0.05855135
0002b0 de 8b 2f 3d 82 47 40 3e 16 f8 0e be da 27 0b 3e
       0.042857997 0.18777278 -0.13961825 0.13589421
0002c0 ff 3d 94 3e 85 e7 90 3e 7a 70 77 be e5 5e d1 3c
       0.2895355 0.28301635 -0.24164 0.025557945
0002d0 de 53 9f be 04 2b 87 be 67 e5 8c 3e b3 18 51 bd
       -0.31118673 -0.26400006 0.2751877 -0.051048946
0002e0 c6 fe f6 3d b9 fb 10 3e 11 56 98 be c6 85 60 3d
       0.12060313 0.14158525 -0.29753163 0.054815076
0002f0 ea 13 d0 3e e9 96 84 3d c6 d1 bc be 5e ac f0 3a
       0.40640193 0.06474096 -0.36878794 0.0018361916
000300 93 76 2b 3e b5 c6 31 3e 6e 64 d7 be c9 8d a8 3c
       0.16744451 0.17360957 -0.4206881 0.02057542
000310 57 0e 13 be a2 16 aa bc f6 7b 23 3e 72 60 c8 bd
       -0.14360939 -0.020762745 0.15965256 -0.097840205
000320 bb 64 8e 3e 15 84 81 3e 39 73 56 be 7b 69 3b 3d
       0.27811226 0.25296083 -0.20942391 0.04575489
000330 af c6 cf 3e 2c 30 68 3e 10 4f 80 be 78 65 8c 3d
       0.4058127 0.22674626 -0.2506032 0.06855291
000340 37 39 ed be 9b 3e a9 be c2 99 47 3d 28 ed 7f 3b
       -0.46332714 -0.33055577 0.04873062 0.0039051268
000350 fa 39 ba be 32 71 e5 be db aa 02 3e 33 07 8d bc
       -0.36372358 -0.44812924 0.12760489 -0.017215347
000360 8a 3b c2 be 4f cd da be f7 96 2a 3e 38 70 85 3c
       -0.3793605 -0.42734763 0.16659151 0.016288862
000370 33 f6 b6 3e 46 50 92 3e 7d 22 95 be 52 9d 31 3d
       0.3573471 0.2857687 -0.29127875 0.043362923
000380 2e 69 84 3e 00 2c be 3e 45 98 c5 be f2 57 e7 3d
       0.25861496 0.37142944 -0.38592735 0.11296071
000390 e0 cd ed be 33 93 e6 be 5b 3e 07 3d c0 60 2b bd
       -0.46446133 -0.4503418 0.03301845 -0.041840315
0003a0 a9 24 69 3e 44 7c 8b 3e 62 0d c4 be d0 f2 68 3d
       0.22767891 0.27243245 -0.3829146 0.05687219
0003b0 de 6d b3 3e fb 90 d4 3e 0e d2 e1 be 82 6c 21 3d
       0.3504476 0.4151686 -0.44105572 0.03941012
0003c0 54 5a c9 3e 03 47 82 3e f9 a2 83 be 84 12 4b be
       0.39326727 0.25444803 -0.25710276 -0.19831282
0003d0 0d 7f 3e 3f eb 58 81 3e 8e 82 81 be 4e 38 67 bd
       0.74412614 0.25263152 -0.25294918 -0.05645018
0003e0 ca 92 e1 3e c2 bf a2 3d c3 98 e2 be 60 fb 1a 3e
       0.44057304 0.07946731 -0.44257173 0.15134954
0003f0 fd e9 b7 3e 82 ce 98 3e f1 f6 1c be e2 79 35 3e
       0.35920706 0.29845053 -0.15328576 0.17722276

weight_hh f4 [80, 20]
000000 a4 a1 96 3e 0d 59 c3 3e 88 1b c0 3e 65 40 d1 3e
       0.29420197 0.38153878 0.37521005 0.40869442
000010 90 6d a7 3e 43 e5 0f bf f7 0c db 3e ce 95 fe 3d
       0.32700777 -0.562092 0.4278333 0.12430917
000020 93 d2 3c 3e de ee 00 bf 89 45 e5 3e c2 87 e8 3e
       0.18439703 -0.5036448 0.44779614 0.45416075
000030 76 f2 fe be d5 6b 17 be a6 18 06 bf 9e 4d 05 3f
       -0.49794358 -0.14787228 -0.5238136 0.5207156
000040 23 ba d4 3e cb 0f ca be f4 d4 0a 3f e3 d2 07 3f
       0.4154826 -0.39465174 0.5423119 0.5305616
000050 37 eb 02 3f ad 94 4d 3e fc ec 8a 3e 50 d6 4b 3e
       0.5114016 0.20076247 0.2713393 0.19905972
000060 35 2b 02 3f ac 60 9a be 1d 45 81 3e 27 76 b4 3e
       0.5084718 -0.3015188 0.25248042 0.35246393
000070 42 ec fe 3e bf d3 1e be 73 e3 a9 3e cf e6 0e 3e
       0.49789625 -0.15510462 0.33181342 0.13955234
000080 f9 c5 e5 be cf 31 47 be 38 53 91 be d8 99 00 3f
       -0.44877604 -0.19452594 -0.28383803 0.50234747
000090 8d c8 0a 3f d0 65 db be 48 5b e2 3e b5 10 b1 3e
       0.54212266 -0.42851114 0.44210267 0.3458306
0000a0 ed 46 a3 3e 82 2e 82 3e 68 62 d9 3e ac 65 db 3e
       0.3189005 0.25426108 0.4245789 0.42851007
0000b0 12 ba 0a 3f 70 22 26 be 49 f6 5c 3e b8 6e bf 3e
       0.5419017 -0.16224074 0.21578325 0.3738916
0000c0 d8 25 9c 3e 58 d3 8c be a9 58 00 3f d2 9c 17 3f
       0.30497622 -0.27504992 0.50135285 0.59223664
0000d0 87 ab 7e be 15 f8 6b be e3 ad 12 bf 8d 63 7a 3e
       -0.2487012 -0.23043855 -0.5729658 0.24452038
0000e0 18 95 4e 3e 22 18 fa be 5a 35 90 3e a7 fa 0d 3f
       0.20174062 -0.48846537 0.28165704 0.5546059
0000f0 74 e9 95 3e 66 7e 22 3f 41 7d 18 3f c7 fc 0b 3f
       0.29279673 0.6347412 0.5956612 0.5468258
000100 7d 8c 08 3f b1 de 7a be ae 5c e9 3e e3 47 96 3e
       0.5333937 -0.24499013 0.4557852 0.2935172
000110 ac 73 10 3f 2c 52 86 be 06 ce 0c 3f 19 1b 81 3e
       0.564265 -0.26234567 0.55001867 0.25215986
000120 25 8d e3 be 62 95 86 be 20 06 ce be 78 6d ca 3e
       -0.44443622 -0.26285845 -0.40239048 0.39536643
000130 28 1d 95 3e 88 a8 95 be 97 45 f7 3e 6c df c2 3e
       0.29123807 -0.29230142 0.4829528 0.38061082
000140 04 65 16 3f e9 d6 6f 3e 17 62 fc 3e 56 28 b6 3e
       0.5874789 0.23421825 0.49293587 0.3557765
000150 2b 4b 9b 3e 0e 1d b0 be 71 2e 38 3e 74 3f 10 3f
       0.30330786 -0.34397167 0.17986466 0.5634682
000160 e4 36 a4 3e 04 1c ec be 4a 34 d4 3e ac 0c 04 3f
       0.32073128 -0.46115124 0.41446143 0.51581836
000170 f8 f6 6f be 35 a0 6b be 38 bf e3 be 02 d0 e1 3e
       -0.23434055 -0.23010333 -0.44481826 0.4410401
000180 4f f0 0a 3f e7 4c 82 be b2 a2 1f 3f 3f 45 db 3e
       0.5427293 -0.25449297 0.6235763 0.42826268
000190 f7 2b 53 3e 5e 32 e3 3e 09 c1 9a 3e 43 30 c8 3e
       0.2062224 0.44374365 0.302254 0.3909932
0001a0 2f 0e f5 3e 63 89 74 be 8b f9 83 3e f4 57 59 3e
       0.47862384 -0.23880534 0.25776324 0.21224958
0001b0 d8 a7 0f 3f 0e a5 9d be c6 0f fe 3e 6a 7e e4 3e
       0.56115484 -0.3078999 0.4962141 0.44627696
0001c0 40 48 df be 1f 66 12 bf ac 9b 51 be 10 7f 18 3f
       -0.4360981 -0.57187074 -0.2046954 0.5956888
0001d0 23 1c b1 3e b6 47 d5 be 48 0a 01 3f 39 39 27 3e
       0.3459178 -0.41656274 0.5040631 0.16330422
0001e0 d9 16 da 3e 79 87 15 3f 2f c8 9b 3e 29 71 b4 3e
       0.42595556 0.5840984 0.30426165 0.35242584
0001f0 6d e4 f2 3e 4e 9a c0 be 2d 50 bc 3e 07 2f ee 3e
       0.474399 -0.37617725 0.3677992 0.46520254
000200 02 2f aa 3e f9 df c0 be 1f 5c b2 3e 14 ca f9 3e
       0.3323899 -0.37670878 0.34835908 0.48786986
000210 eb f9 26 be 6f d1 ad be 5d ed a2 be 20 8a 53 3e
       -0.16306274 -0.33948848 -0.3182172 0.2065816
000220 19 e4 fa 3e 5d 25 6d be 49 87 38 3e fd 94 03 3f
       0.4900215 -0.23158784 0.18020357 0.51399213
000230 cc 54 b5 3e f1 a0 5a 3e e1 ba 92 3e 27 aa 04 3e
       0.35416257 0.21350457 0.28658202 0.12955533
000240 04 52 a7 3e 61 d7 51 be 12 bd 39 3e 67 f0 a9 3e
       0.3267976 -0.20492317 0.18138531 0.33191225
000250 88 c1 f8 3e b0 ea 24 be 8f 4d e4 3e 91 91 40 3e
       0.48585153 -0.16105151 0.44590423 0.18805529
000260 e6 d4 a3 be 55 40 d9 be d6 43 ac bd 52 ce aa 3e
       -0.31998366 -0.42431894 -0.08411376 0.33360535
000270 24 d9 43 3e 40 08 b3 be e4 ba 96 3e 96 4c d4 3e
       0.19125801 -0.34967232 0.2943946 0.4146468
000280 3d 7c be 3e 8e fc d3 3e 26 14 16 3e 1f a2 91 3e
       0.3720416 0.4140362 0.14656124 0.28444
000290 66 1b 02 3f 6d 71 8a be 28 d1 14 3f 53 5f 0f 3f
       0.50823057 -0.27039662 0.5813165 0.5600483
0002a0 17 da f0 3e 2a 8c ef be 49 81 14 3f 8b 24 08 3f
       0.4704139 -0.46786624 0.58009773 0.5318076
0002b0 64 be f0 be b2 47 ef be 4b c6 02 bf a5 ca 6e 3e
       -0.47020257 -0.46734387 -0.5108382 0.2331949
0002c0 32 f5 df 3e 68 ab f1 be 12 c9 16 3f bb 4e d8 3e
       0.43741757 -0.47201085 0.5890056 0.42247567
0002d0 0c 4e bc 3e 9a 51 f5 3e 81 3a 00 3f 55 96 ae 3e
       0.36778295 0.4791382 0.5008927 0.3409907
0002e0 2c 91 42 3e 89 56 16 bf 17 89 18 3f 25 02 1e 3f
       0.19000691 -0.5872579 0.5958418 0.6172202
0002f0 c2 78 8e 3e 48 24 46 be 5b 41 e6 3e 86 b2 34 3e
       0.27826506 -0.19349778 0.44971737 0.17646226
000300 26 5b d2 be 93 99 12 bf 4f 43 85 be 61 64 e8 3e
       -0.41085166 -0.57265586 -0.26027915 0.45389083
000310 1b 3e f9 3e cc 36 c2 be ab 4c c3 3e a8 e9 85 3e
       0.48680195 -0.37932432 0.3814443 0.26154828
000320 d4 41 6f 3e 73 c4 93 3e b8 9d e8 3e 77 2f 9f 3e
       0.23364955 0.28860816 0.4543283 0.310909
000330 0f 8e b1 3e a4 e8 fe be 12 ee 80 3e a6 6e 84 3e
       0.34678695 -0.49786866 0.25181633 0.25865668
000340 63 a5 a3 3e c3 ba 0f be c0 fe aa 3e 85 e0 b6 3e
       0.31962118 -0.14036088 0.33397484 0.3571817
000350 81 7c 04 bf c8 17 03 bf ee 64 1f bf 3e 2b 7c 3e
       -0.5175248 -0.5120816 -0.6226338 0.2462587
000360 24 b6 8b 3e 01 e2 d8 be ea 2f 7c 3e 11 4e bc 3e
       0.272874 -0.42359927 0.24627653 0.3677831
000370 06 5c 1c 3f 8a b4 64 3e 79 bf 04 3f 69 bb 4b 3e
       0.61077917 0.22334495 0.51854664 0.1989571
000380 f7 cc e0 3e 51 7c c0 be af 9d 4f 3e 9b b5 91 3e
       0.43906376 -0.37594846 0.20274995 0.28458866
000390 c1 45 87 3e 55 4e 0c bf b3 2c d4 3e 56 7b 5b 3e
       0.26420406 -0.54807025 0.41440353 0.21433768
0003a0 83 fe 48 be 06 cd bc be c6 dd 13 bf a6 73 9b 3e
       -0.19628339 -0.3687517 -0.57760274 0.3036167
0003b0 53 74 0f 3f 12 ff c5 be 71 3d 02 3f b4 af 0c 3f
       0.5603687 -0.38671166 0.50875 0.549556
0003c0 8e 49 8f 3e 59 45 0d 3f 1d c8 6c 3e 04 f3 20 3e
       0.27985805 0.5518394 0.23123212 0.15717703
0003d0 2e 84 00 3f 98 d1 05 bf 32 1a 4e 3e 08 09 44 3e
       0.5020169 -0.5227294 0.2012718 0.1914407
0003e0 84 50 d7 3e 93 1e b5 be c1 9b 0e 3f 8d 05 86 3e
       0.42053616 -0.3537489 0.5570641 0.2617611
0003f0 81 02 b9 be ae c8 70 be e7 47 d3 be ff 13 b2 3e
       -0.36134723 -0.23514053 -0.41265795 0.3478088

bias_ih f4 [80]
000000 17 6b bb 3e 68 86 00 3e 5e b7 b5 3e 84 7c 71 3e
       0.3660514 0.12551272 0.3549146 0.23582655
000010 92 bc 4d 3e f7 34 9b 3e 45 46 a1 3e 67 df e3 3d
       0.20091465 0.30313846 0.31498924 0.11126595
000020 2e 84 c7 3e 88 a2 b9 3e d3 2d 2e 3e 01 50 b6 3e
       0.38968033 0.36256814 0.17009668 0.35607913
000030 de b7 55 3e f6 df ed 3e 5f eb 79 3e 53 e9 bd 3e
       0.20870921 0.4645993 0.24406193 0.37092075
000040 46 08 b0 3e 9c 35 8f 3e 9f 94 23 3e a9 85 d9 3e
       0.34381312 0.27970588 0.15974663 0.42484787
000050 ad a3 ca 3e 70 be 88 3e 1d a9 a4 3e 40 23 e3 3e
       0.39578 0.26707792 0.32160273 0.4436283
000060 98 d2 3c 3e 8d 61 be 3e 8a de c6 3e b5 96 ec 3d
       0.1843971 0.371838 0.3884166 0.115521826
000070 fb c5 b6 3e 01 e4 3a 3e 16 37 1e 3e 6c 43 0a 3f
       0.35697922 0.18251039 0.15450701 0.5400913
000080 6d 42 e6 3e 55 0c 02 3f 83 cf 11 3f eb e8 6b 3e
       0.44972554 0.5080007 0.5695726 0.2303807
000090 26 cc 89 3e b4 67 ad 3e c3 69 e0 3e 6f 2d c5 3e
       0.26913565 0.33868182 0.4383069 0.38511226
0000a0 7f 2a 6b 3e 63 8c f4 3e ab 59 00 3e 35 9d 90 3e
       0.2296543 0.47763357 0.12534206 0.2824494
0000b0 93 70 ab 3e 2e fe a3 be be e3 be 3e 71 6a d2 3e
       0.33484325 -0.3202986 0.37283128 0.41096833
0000c0 11 ee 4b 3e cd aa bd be 54 cc be 3e 50 0a cc 3e
       0.19915034 -0.37044373 0.37265265 0.39851618
0000d0 de c2 30 be 95 e2 5e be 40 ee 14 be 0b 1e 9a 3e
       -0.17261836 -0.21766122 -0.1454401 0.30101046
0000e0 53 0f 11 3e 61 6c d3 be 62 b2 f3 3d fa 61 ab 3e
       0.14166002 -0.41293624 0.11899258 0.33473188
0000f0 04 9e 5f 3e dd 9f d9 3e 3f e9 e6 3d df 45 03 3e
       0.21837622 0.42504779 0.11274957 0.12819622
000100 cb df b5 3e 05 01 9e 3a be 01 b0 3e 7d ba e0 3e
       0.35522303 0.0012054747 0.3437633 0.4389228
000110 51 31 06 3e 91 4f ca 3e 56 54 56 3e 05 78 25 3c
       0.1310475 0.3951383 0.20930609 0.010099416
000120 75 2c e5 3d 8f 35 09 3e 1b 6e 76 3d 4e 16 a9 3d
       0.1119012 0.13399337 0.0601636 0.082562074
000130 f4 61 b2 3e 85 54 eb 3e e0 fa e9 3e cd 09 bf 3e
       0.34840357 0.4596292 0.45699215 0.37312165

bias_hh f4 [80]
000000 44 9b f4 3d d9 16 8f 3e c8 89 c0 3e bd e4 e2 3e
       0.11943677 0.2794712 0.3760512 0.44315138
000010 ed 23 48 3e 7a ad d0 3e c6 a0 d7 3e a2 63 8e 3e
       0.19544955 0.40757352 0.42114848 0.2781039
000020 de e8 a2 3d 70 c7 c2 3e 37 74 d3 3e 0c 49 dd 3d
       0.07954572 0.38042784 0.41299602 0.10804948
000030 07 35 00 3f ee f2 91 3e c4 4e 34 3e 19 dc 9e 3e
       0.50080913 0.28505653 0.17608172 0.31027296
000040 fc 51 cb 3e 61 f3 99 3e d9 0d e0 3d a9 39 4b 3e
       0.39710987 0.30068496 0.10940141 0.19846214
000050 28 6e f0 3e 9b df ee 3e fc d4 fd 3e 5a e4 dd 3e
       0.46959043 0.46654972 0.49576557 0.4333828
000060 c9 91 04 3f 2b 93 94 3e 4f d1 e3 3e e2 58 cb 3e
       0.5178495 0.2901853 0.44495627 0.3971625
000070 63 2d ba 3e 9d 9c 0e 3f 36 04 89 3e 7c 92 03 3f
       0.36362752 0.5570772 0.26761025 0.5139539
000080 0a 3c 7d 3e f0 fb 06 3f c4 cc aa 3e e0 e6 04 3f
       0.24729934 0.52728176 0.3335935 0.5191479
000090 7b 29 95 3e 93 cb b6 3e 57 58 0b 3f 28 6a af 3e
       0.2913321 0.3570219 0.5443167 0.34260678
0000a0 f3 51 6d 3e 7a ee 23 3e c9 15 ca 3e b9 8f 98 3e
       0.23175792 0.1600894 0.39469746 0.29797152
0000b0 e5 be 45 3e 7c 21 8b be ce e9 e3 3e 29 ff c8 3e
       0.19311102 -0.27173984 0.44514316 0.39257172
0000c0 5c 5e d9 3e a6 8d ac be a0 69 1a 3e c0 9a a9 3d
       0.42454803 -0.3370182 0.15079355 0.08281469
0000d0 71 dd d7 be 33 36 8a be db ea 86 be 0c 12 f5 3d
       -0.42161134 -0.26994476 -0.26351056 0.11966333
0000e0 f5 57 10 3e d3 06 6b be e6 ea 30 3e 2d 24 aa 3d
       0.14096053 -0.22951822 0.17277107 0.08307681
0000f0 09 4f fc 3e 3e b8 87 3e 1e d2 88 3e 7c 9d ce 3e
       0.4927905 0.26507753 0.26722807 0.40354526
000100 df d9 0a bc 77 b1 e8 3d 13 ed d3 3d 9b 89 e3 3e
       -0.008474796 0.11361974 0.10347953 0.44440922
000110 50 2d 80 3c b3 03 d1 3e bd b3 90 3e fe d7 dc 3d
       0.015646607 0.40823135 0.2826213 0.10783385
000120 26 1f 9e 3e 59 51 c7 3c 52 de de 3d 87 3f 42 3e
       0.3088314 0.024330782 0.10882248 0.18969546
000130 57 88 ee 3e aa 4d 6a 3d 4a 6d cb 3e c2 e4 04 3f
       0.46588394 0.057202972 0.39731818 0.51911557

Wf f4 [22, 1]
000000 8b 3a 6b 3e d8 1f 0c 3e 4a 91 20 3e 98 68 06 3e
       0.22971551 0.13684022 0.15680423 0.13125837
000010 f5 60 5e 3e 4a 52 3c be 49 b8 19 3e d3 79 0b 3e
       0.21716674 -0.18390766 0.15011705 0.13620691
000020 77 58 39 3e f5 b6 05 be 55 0a 48 3e 7d df 40 3e
       0.18100153 -0.13058074 0.19535191 0.18835254
000030 5b 23 52 be 68 78 3b be f2 75 66 be ee 2d 3e 3e
       -0.205213 -0.1830765 -0.2250593 0.18572208
000040 46 f3 08 3e a9 65 34 be eb 06 66 3e b0 68 23 3e
       0.13374051 -0.17616905 0.22463576 0.15957904
000050 83 9b fa bc 5f ba 01 3e
       -0.030591732 0.12668751

Wi f4 [22, 1]
000000 bb 93 2b 3e 1d f0 30 3e b4 38 3f 3e 91 08 36 3e
       0.16755573 0.17279096 0.18673974 0.17776705
000010 3f d0 41 3e 84 b4 2f be 7e e8 35 3e 44 97 2d 3e
       0.18927096 -0.17158705 0.1776447 0.16952235
000020 79 f2 44 3e b4 b3 40 be 54 ff 3f 3e 22 8f 3f 3e
       0.19233121 -0.18818551 0.18749744 0.18706945
000030 76 a9 36 be 56 d1 39 be 10 18 34 be 63 8c 3f 3e
       -0.17838082 -0.18146262 -0.17587304 0.18705897
000040 ae 14 3d 3e 05 a4 3b be 06 54 2e 3e cf 3b 39 3e
       0.1846492 -0.18324287 0.1702424 0.18089221
000050 57 23 4d be a8 b0 73 bf
       -0.20033012 -0.9519143

ct f4 [17386, 1]
000000 4f 59 d6 ba 68 ff 23 3d 8a 4d 20 be d3 67 21 be
       -0.001635352 0.040038496 -0.15654579 -0.15762262
000010 a5 55 1e be 94 3a 76 3d 7f 44 2c 3d a4 34 b1 3d
       -0.15462358 0.06011446 0.04205751 0.086526185
000020 aa 2a 9d bd 07 87 cd bd c5 47 45 bc 03 89 1f 3d
       -0.07674153 -0.1003552 -0.012041037 0.038949024
000030 1a 54 b5 bd b1 f0 e6 bd 39 f1 e8 bd 9c 01 9f bc
       -0.08853932 -0.11276377 -0.113741346 -0.019409947
000040 8c 5a ce 3d 33 5c 2a 3e 44 3b 2c 3d 3b 12 24 3d
       0.10075864 0.16636734 0.042048708 0.04005645
000050 13 d9 0e 3c 69 bb 13 3e 88 4a 81 3d 6c 0a 54 3e
       0.008718747 0.1442696 0.06313044 0.207071
000060 4f 03 0a 3e 0c 8e 3b 3c e1 44 a9 3d 9a ac 2c be
       0.13477825 0.011447441 0.08265091 -0.16862717
000070 09 d3 14 be 31 ba 0e be 56 ea 81 bc 3e 91 13 3e
       -0.14533629 -0.13938214 -0.01585881 0.14410874
000080 49 94 a3 bd eb 0a f5 bd 5f aa 58 be d3 ab ae bd
       -0.079872675 -0.11964973 -0.21158741 -0.085288666
000090 11 a6 bc bb ac df f7 3d 0a a6 79 3c 9f b1 26 bc
       -0.0057571013 0.12103209 0.015237341 -0.010174184
0000a0 77 4c 90 bc 72 ff 85 bb 62 d6 ee 3d 96 17 4d 3c
       -0.017614586 -0.0040892893 0.11661984 0.01251783
0000b0 d8 45 e2 3b c1 f4 bd bd 5c 4c f8 3d 33 4e 1e 3e
       0.0069052987 -0.09275199 0.121239394 0.15459518
0000c0 77 3f 8e 3d f9 cd 18 3e 6b aa 95 3d 28 3c be 3d
       0.06945699 0.14922322 0.07307895 0.09288818
0000d0 bd 6f 80 bc 54 a5 69 bd 4d 0a 06 bd e2 13 1f bd
       -0.015678281 -0.057042435 -0.032724667 -0.03883732
0000e0 90 e2 86 3d 68 a4 c1 bd fd 0a 16 be 3d 23 43 be
       0.06586182 -0.09455186 -0.14652629 -0.19056411
0000f0 14 cf 99 3d 44 5a dd 3d 15 f9 3e bd d5 f2 b7 ba
       0.075102 0.108082324 -0.046624262 -0.0014034162
000100 9b 2e 34 bb be b8 1c bd 8a c9 73 3d 32 9f fd 3d
       -0.00274936 -0.03826212 0.059518375 0.1238388
000110 5f 91 44 3e fb 09 4e 3e 48 48 fa bd b9 e6 c6 3b
       0.1919608 0.20120995 -0.12220818 0.0060699848
000120 b9 72 07 3e 20 87 5d 3e 1d fb 81 3e e9 9a e0 3d
       0.13227357 0.21633577 0.25386897 0.10967047
000130 21 50 17 3d 94 21 2f be 15 0d 0c be 95 41 65 be
       0.03694165 -0.17102653 -0.13676865 -0.22388299
000140 e5 d0 53 bd 9b 62 25 3e 9a 7d ac 3d b8 16 26 be
       -0.05171289 0.16150896 0.08422394 -0.16219604
000150 dd f0 a1 3c 87 f0 41 bb ca 51 d1 3c 66 1f 0c 3d
       0.019768173 -0.0029592828 0.025551695 0.03420963
000160 e0 b0 17 3e 73 89 4b 3d 08 7d 01 3d a6 96 cf 3d
       0.14813566 0.04969163 0.03161338 0.10136156
000170 0a 5d 4d 3e f4 1f 35 3e 3e e1 81 3d 94 39 9c bd
       0.20055023 0.1768797 0.0634179 -0.0762817
000180 98 bc 83 3d 0e 34 1d 3d 8a 01 bb bd a6 41 b6 3d
       0.06432456 0.03837972 -0.09131153 0.0889924
000190 f3 69 ee 3d d3 ef bb 3d 4e bb f7 bd a6 b0 34 be
       0.11641302 0.09176602 -0.120962724 -0.17645511
0001a0 08 f6 85 be dd 73 5c 3d 82 a8 e5 bc 08 bc bd bd
       -0.2616427 0.053821433 -0.028034452 -0.0926438
0001b0 37 9c 5a bd 25 d5 7d 3c da 47 fc bc 67 91 e7 3d
       -0.053371634 0.015492712 -0.03079598 0.1130703
0001c0 4a 9e 89 3c e4 81 55 3e f4 f1 49 3e ef 60 dd bd
       0.01679911 0.2085033 0.19721204 -0.10809504
0001d0 a3 1f 69 3c 25 1c fc 3d 58 2a 1a 3e 56 01 52 3e
       0.014228734 0.12310056 0.15055215 0.20508322
0001e0 56 f9 33 3d 08 93 5e 3c 96 90 2c bd 15 c0 5a 3d
       0.043938957 0.01358486 -0.042130075 0.05340584
0001f0 9d 2b 37 3d 93 6e 78 bd 07 d3 74 bc 31 e8 01 be
       0.044719327 -0.060652327 -0.014942891 -0.1268623
000200 bb 4b 40 be b7 32 7c be 7c 59 00 3d 55 36 ab 3d
       -0.18778889 -0.24628721 0.03133534 0.083599724
000210 d3 61 a1 bd 7d d2 58 bd 3b 82 a5 3d 70 78 97 3b
       -0.078799866 -0.052935112 0.0808148 0.0046225116
000220 c9 a2 43 3d f0 e8 9d 3d 92 26 02 3e d8 18 44 3e
       0.047762666 0.07710445 0.12710026 0.19150102
000230 22 10 ca 3d 48 2d ee 3d 28 fa 68 3e 05 5d 00 3e
       0.09866358 0.116297305 0.22751677 0.12535484
000240 31 7f 97 3d ff db 65 bd 29 ae ae 3d d8 93 5c 3c
       0.07397307 -0.056118008 0.08529312 0.013462983
000250 a8 24 70 bd ba 35 89 3d 7d d9 b5 bd e5 a1 81 3d
       -0.058628708 0.06699701 -0.08879373 0.06329707
000260 42 7c 3c 3d 49 4a da 3d df 16 d2 3d b8 55 b9 bd
       0.04601694 0.106587 0.102582686 -0.09049553
000270 4d f0 49 3e 77 60 8a bd a3 ec 52 bb 0b 63 bd bc
       0.19720574 -0.067566805 -0.0032184504 -0.023118516
000280 58 59 38 3c 84 c0 c9 3d 05 6e 8b bd 06 15 ad bd
       0.01125177 0.098511726 -0.06808094 -0.084512755
000290 a9 50 04 bd 5e 8c fb 3c 2e ef 5e 3d bd e2 53 3d
       -0.032303486 0.03070658 0.05442732 0.051729906
0002a0 58 18 b3 bd 04 ce 89 bc 1f 1f f9 3d 69 13 2a 3d
       -0.087448776 -0.016821869 0.12164139 0.041522417
0002b0 80 d1 cd 3d 32 40 24 3d 83 0c 05 be 1d 16 bd 3d
       0.100497246 0.040100284 -0.12993054 0.092327334
0002c0 68 f7 16 3e 4b 92 92 3c 4e da 0a 3e ad b7 59 bd
       0.14742815 0.017892024 0.13559839 -0.053153683
0002d0 a9 39 08 3d bb da ce 3d 9e 8c d7 3d 1a d5 5a 3d
       0.033258114 0.10100313 0.105248675 0.053425886
0002e0 1e 2b a2 3d 2c 1c 98 3d d1 50 bf 3d ed 5c 38 3c
       0.0791838 0.07427248 0.093415864 0.011252624
0002f0 59 c6 a3 bd d2 f7 45 3d a5 97 f7 3d 96 59 3e 3e
       -0.07996816 0.048332043 0.12089471 0.18588862
000300 4e f4 95 bd e6 35 b1 3c 95 32 b9 bd 5c 0f 32 bd
       -0.07321988 0.021632146 -0.09042851 -0.04347168
000310 c4 ca ae 3c de 2c 12 3d 93 71 90 bd 22 5a e7 bc
       0.02133692 0.03568732 -0.070529126 -0.02824122
000320 0e a6 c5 3c 6a d4 70 3e 3e 34 92 bc 4d 7d 13 bd
       0.024127033 0.2351853 -0.017847177 -0.036008168
000330 02 4d dc bc 70 42 d0 3d 2e 5c ab 3d 02 25 f6 3d
       -0.026892189 0.10168922 0.08367191 0.120187774
000340 c4 ea 80 3d 91 f7 1c 3d c6 aa 05 3d 77 6f c9 3d
       0.06294778 0.038322035 0.032633565 0.09835713
000350 5b e6 4c 3d 47 23 37 bc f1 83 76 bc 68 01 34 3d
       0.05002437 -0.011177844 -0.015046106 0.043946654
000360 c1 ab 87 3c 0c 2f 56 bd 1d b7 e0 3d df 68 d2 bd
       0.01656139 -0.05229096 0.10972426 -0.10273909
000370 61 5c 41 3c 5e b7 4f 3e fd 64 1b 3d 14 52 cb 3a
       0.01180181 0.20284793 0.037938107 0.0015512132
000380 50 cf 00 be 4c 59 3d 3d c0 a3 98 be 5d 5d e3 be
       -0.12579083 0.04622774 -0.2981243 -0.44407168
000390 05 6c 07 be 03 1f 22 3e d1 a3 96 bd b0 62 93 bd
       -0.132248 0.15832143 -0.07355464 -0.071965575
0003a0 33 8b 9e be 55 c8 80 3d 54 06 6a 3e 21 47 5c be
       -0.30965576 0.0628821 0.22853976 -0.21511509
0003b0 76 e5 e3 bd 36 4a b4 be 88 cf 16 bd 1d 0f 2c 3e
       -0.111277506 -0.35212868 -0.03681901 0.1680264
0003c0 89 80 1c be 85 bb cc bd e9 a5 8e be bb 33 2d 3d
       -0.15283407 -0.09996704 -0.27860954 0.042285662
0003d0 a7 c4 21 3e b7 8c da be fd 5c 45 be f9 fa 98 be
       0.15797673 -0.42685482 -0.19273753 -0.29878977
0003e0 9c 1f a1 3d e3 db 90 3d 7b 06 93 bd 50 6c 4d be
       0.07867357 0.0707319 -0.071789704 -0.20060849
0003f0 7b af a1 be 71 50 02 be a8 dd da 3d 89 b0 f0 bd
       -0.31579193 -0.12725998 0.10686809 -0.117524214
