saved_models/metalearner_dict_4_shot.pth (torch, 81275 bytes, 7 tensors)

lstm_layer.weight_ih f4 [80, 4]
000000 2b ac 44 3f fd d5 9c 3e e9 48 0c bf e5 c2 77 be
       0.7682521 0.3063201 -0.5479875 -0.2419544
000010 28 73 94 3e 77 a9 1a 3f 17 5b d6 be 52 76 ba be
       0.28994107 0.6041483 -0.4186637 -0.36418396
000020 9b 4c cf 3e 7a de d8 3e 2b e7 91 be 98 53 b2 be
       0.40488133 0.42357236 -0.2849668 -0.34829402
000030 d6 ea e0 3e 07 eb 19 3f 13 8c 1a bf 78 a0 92 be
       0.43929166 0.6012425 -0.60369986 -0.28638053
000040 27 c2 fc 3e 84 db d0 3e 00 9f 2c be 7f 06 ca be
       0.49366876 0.40792477 -0.16857529 -0.3945808
000050 ac f0 1e 3f 2b 1c 87 3e 6e 76 89 be ec ac 18 bf
       0.62085986 0.26388678 -0.26848167 -0.5963886
000060 63 00 0d 3f 73 c6 de 3e 02 fd cf be de 04 ad be
       0.55078715 0.4351078 -0.40622717 -0.33792776
000070 14 23 11 3f 8a 67 ef 3e 48 af 05 bf ed c1 a6 be
       0.5669415 0.46758682 -0.5222058 -0.3256983
000080 59 75 29 3f 3b 45 16 3f ca c9 fe be c3 b0 b6 be
       0.66194683 0.5869939 -0.49763328 -0.35681733
000090 93 68 d6 3e f7 7d cc 3e 24 f2 13 bf ed 62 af be
       0.4187666 0.39939854 -0.5779135 -0.34255162
0000a0 cd f8 91 3e ae 96 cf 3e b0 70 d1 be e2 1f ac be
       0.28510132 0.40544647 -0.40906286 -0.33618075
0000b0 4f 97 1a 3f 3d af 01 3f 2b 0c cb be cb 98 aa be
       0.6038713 0.5065802 -0.3965772 -0.33319697
0000c0 58 12 99 3e 76 0a f1 3e d2 61 7e be a7 9d 0a bf
       0.29896808 0.47078294 -0.24842003 -0.5414681
0000d0 ac bb f4 3e ca b3 4c 3e 92 19 cb be 80 ba fc be
       0.47799432 0.19990459 -0.39667946 -0.49361038
0000e0 7a 4e 24 3f 32 3a 0f 3f db 7f b9 be e0 6d 0b bf
       0.64182246 0.55948174 -0.36230358 -0.5446453
0000f0 1b cc b1 3e d2 7a 0a 3f 33 02 8b be 4b 6f 07 bf
       0.34726033 0.5409366 -0.27150115 -0.52904195
000100 0c e1 78 3e 6d db 06 3f 06 d1 4f bf e8 84 9e be
       0.24304599 0.5267857 -0.8117832 -0.30960774
000110 ef e7 40 3e 27 3d db 3e e9 53 30 bf ca df fb be
       0.18838476 0.42820093 -0.68878037 -0.49194175
000120 3b 41 38 3f b5 df 24 3f e4 70 03 bf f1 2f c3 be
       0.71974534 0.6440385 -0.5134413 -0.38122514
000130 fb 3a 19 3f 51 86 9e 3e 4e 22 c0 be a4 b0 61 be
       0.5985562 0.3096185 -0.37526172 -0.2204004
000140 a6 94 ef be d2 30 0b be a5 da 51 bf ac aa 33 bf
       -0.46793097 -0.13592842 -0.8197425 -0.701823
000150 09 73 2c bd 5b 56 58 3e 2d 67 0a bf b2 a8 a3 be
       -0.042101894 0.21126692 -0.54063684 -0.31964642
000160 69 07 c5 be de 79 13 3d 98 69 83 be a6 42 21 bf
       -0.38482216 0.036004893 -0.256665 -0.6299232
000170 52 f8 06 be a3 e7 c4 3d 7c 8f 34 bf ec 17 dd be
       -0.13180664 0.09614494 -0.7053144 -0.43182313
000180 28 b5 0e be ac 5e de bc 6a 2b 0b bf f6 1f 2b bf
       -0.13936293 -0.027144752 -0.5436312 -0.66845644
000190 ae 6b fe be 89 48 a5 3d 04 68 0f bf 02 56 3a bf
       -0.49691528 0.080704756 -0.5601809 -0.7278749
0001a0 2d d5 64 be ac 8c f7 bd 1d 6c 18 bf 42 04 05 bf
       -0.22346945 -0.12087378 -0.5953997 -0.5195962
0001b0 22 b1 ce be e2 81 5e be 18 6f 00 bf f9 b0 0a bf
       -0.40369517 -0.21729234 -0.50169516 -0.5417629
0001c0 3f e5 9b be 92 01 d4 3d f8 6f 0c bf 54 a6 3a bf
       -0.30448338 0.10351862 -0.5485835 -0.72910047
0001d0 99 7f c8 be fb c8 28 3e c4 e6 06 bf 34 d2 ee be
       -0.3915985 0.16482918 -0.5269587 -0.46644747
0001e0 72 cc b9 be c6 d4 86 3d 74 8a fb be 68 cd 00 bf
       -0.36288792 0.06583552 -0.4912907 -0.50313425
0001f0 66 8e f8 bd d9 b4 d2 bd ad 55 02 bf 88 f1 3f bf
       -0.12136535 -0.102884 -0.5091198 -0.7497792
000200 8c 69 00 3d 0e ed 25 bd a5 8a 24 bf 13 99 23 bf
       0.031350657 -0.040509276 -0.64274055 -0.6390545
000210 a0 0d b6 be df ae 0a bd ea 35 92 be 51 2e 0b bf
       -0.3555727 -0.033858176 -0.28556758 -0.5436755
000220 40 3d 79 bd 4a 5c 50 bd 35 0a f7 be ec e1 f3 be
       -0.06084943 -0.050869264 -0.48249975 -0.47633302
000230 ac 63 b7 be 5f c8 16 be 8a 7f af be 5b d0 03 bf
       -0.3581823 -0.14724873 -0.34276992 -0.514898
000240 21 6c 07 3c 5b a0 a5 3e 45 8f f1 be a4 b0 7a be
       0.008265526 0.32348904 -0.47179618 -0.24481446
000250 14 b1 e6 3d 76 70 49 3e 8b 4d fa be 7b 68 97 be
       0.11264244 0.19671807 -0.48887286 -0.295719
000260 f9 59 68 be ab 30 8d bd 17 71 32 bf 0f 5a 1f bf
       -0.22690572 -0.06894048 -0.6970381 -0.62246794
000270 95 36 ac be da 9a 07 3e 93 a2 d5 be d6 d6 b5 be
       -0.33635393 0.13242665 -0.41725597 -0.3551547
000280 1c a1 d4 bd 60 9d 62 3e 8f 97 a2 be e2 0c 22 bf
       -0.10382292 0.22130346 -0.31756255 -0.6330091
000290 d1 b4 bc 3d 87 92 d3 3e a2 d6 ea be 14 f2 93 be
       0.092141755 0.4132273 -0.45866877 -0.28895628
0002a0 a8 27 3a 3e fa df 3d 3e f6 5c 34 bf fc 42 d7 be
       0.1817919 0.18542472 -0.7045435 -0.42043293
0002b0 9d 1f 8c bd 06 02 5e 3e 21 a1 39 bf e6 e7 b0 be
       -0.06841967 0.2168046 -0.7251149 -0.34551924
0002c0 8a 42 a3 3d d1 b9 8a 3d 08 04 fb be 2e e4 0c bf
       0.07971676 0.06773723 -0.49026513 -0.55035675
0002d0 99 c7 4b be f8 bd b6 bd 58 20 29 3f 43 cd 00 3f
       -0.19900359 -0.089229524 0.6606498 0.50313205
0002e0 36 0e 30 bd 85 44 5d bd 83 dd 18 bf 7c 40 c6 be
       -0.042982303 -0.054020423 -0.59713 -0.38721073
0002f0 f8 1e 3e 3e e1 8e d0 bd e9 06 32 bf bb 76 c7 be
       0.18566501 -0.10183502 -0.69541794 -0.38957772
000300 a0 88 e0 bc c8 2d f0 bc 4b 49 10 bf db e7 03 bf
       -0.027408898 -0.029318705 -0.56361836 -0.5152566
000310 10 f0 a7 bd 04 f7 81 bd 73 83 2d 3f 7a ed b5 3e
       -0.08200085 -0.063459426 0.677787 0.35532743
000320 a9 fe b9 3d 2c d8 b4 3d e6 e7 ee be 07 86 e9 be
       0.09081776 0.08830294 -0.466613 -0.45610067
000330 57 f7 a6 3e 6f d4 2b 3d 42 19 bb be 79 37 f3 be
       0.3261058 0.04195064 -0.36542708 -0.4750326
000340 f9 d9 93 be 03 51 84 be 2d 31 f6 3e 0f bb ff 3e
       -0.28877237 -0.25843057 0.48084393 0.49947402
000350 8b 1a f4 bd ad 28 8c be f0 19 b7 3e c4 ca e0 3e
       -0.11919125 -0.27374783 0.35761976 0.43904698
000360 99 b1 7f be 9e 07 7f be 6c e1 cd 3e 71 01 15 3f
       -0.24970092 -0.2490525 0.40211046 0.58205324
000370 bf 03 71 3e fb 5f 34 3e 79 eb 25 bf 02 a3 04 bf
       0.23536585 0.17614739 -0.6481243 -0.5181123
000380 c5 36 80 3e 21 40 d6 3e a3 ae 60 bf 25 e0 b7 be
       0.25041786 0.418458 -0.87766474 -0.35913196
000390 a3 bd f0 be f4 28 cb be c6 7d 89 3e 44 9c a6 3e
       -0.4701968 -0.39679682 0.2685377 0.32541096
0003a0 98 12 06 3e ea af d2 3d 77 1a 03 bf ee 53 fe be
       0.1309303 0.10287459 -0.5121226 -0.49673408
0003b0 ea e6 0b 3e 97 0e 6c 3e e0 b4 57 bf c2 7a d0 be
       0.13662305 0.2305244 -0.8426037 -0.40718657
0003c0 90 af 08 3f 15 71 aa 3e 8b e5 7f be 9c 80 32 bf
       0.5339289 0.332894 -0.24989907 -0.6972749
0003d0 6b ca dc 3e 6b 57 70 3e 53 9a 0c bf 7e fe b6 be
       0.43123183 0.23470847 -0.5492298 -0.35741037
0003e0 97 c9 30 3f 3f 75 78 3e 39 54 2b bf 67 dc c0 be
       0.690576 0.24263476 -0.6692539 -0.37668154
0003f0 45 aa db 3e 66 72 c1 3e 24 23 eb be a9 e3 2e be
       0.42903343 0.37782592 -0.45925248 -0.17079033

lstm_layer.weight_hh f4 [80, 20]
000000 b7 10 97 3e a6 60 8b 3d c8 40 b7 3e 4e 17 48 3e
       0.2950494 0.068055436 0.35791612 0.1954014
000010 44 c6 cb 3e 38 d9 1d bf 6f fe b0 3e e9 86 e5 3c
       0.39799702 -0.61659575 0.34569117 0.028018432
000020 bb d1 58 3e e3 ce 5a be bc ee e4 3e 13 a5 f1 3e
       0.21173756 -0.21367984 0.4471339 0.47196254
000030 16 93 ee be 01 24 f3 bd 10 c5 08 bf 0e b3 f9 3e
       -0.46596593 -0.118721016 -0.53425694 0.4876942
000040 5a f6 d4 3d 96 4f 47 be d1 7f 22 3f 7a f2 d6 3e
       0.1039855 -0.19463953 0.6347628 0.4198187
000050 fa 8e 85 3e bb 67 54 3b 96 ef 1c 3d 28 8f 97 bb
       0.26085645 0.003241046 0.038314424 -0.00462522
000060 3f 75 89 3e d0 fc dc bd dc b2 83 3c 5e 4a cd 3d
       0.26847264 -0.10790408 0.016076498 0.1002395
000070 65 03 8e 3e ea 04 ef 3c 4c 96 c6 3d f3 b8 b6 bd
       0.27736965 0.029177148 0.096966356 -0.08921995
000080 fa 51 86 be be 84 a5 3c e3 d4 d6 bd 08 f2 9c 3e
       -0.26234418 0.020204898 -0.10489824 0.30653405
000090 40 10 b7 3e b7 6a 89 be aa f8 54 3e de 94 b3 3d
       0.35754585 -0.2683923 0.20797983 0.087686285
0000a0 55 57 2d 3e 0b 5e 5f be c6 50 88 3e 6c bd 64 3d
       0.16927846 -0.21813218 0.26624125 0.05584471
0000b0 1b 5e e9 3e 2e e0 dc bc e4 ed b0 3b 23 ed e5 3d
       0.4557961 -0.026962366 0.0053994525 0.11226871
0000c0 40 b7 49 3e bb ef 3c 3e 80 53 b2 3e bb 17 fb 3e
       0.1969881 0.18450825 0.3482933 0.49041542
0000d0 5e 38 fe 3c b8 74 1c bd 42 cc c4 be 74 c3 94 3b
       0.031032737 -0.03819725 -0.38437086 0.0045399014
0000e0 d2 13 84 be fc ed 05 be 21 49 65 3e 05 c0 9f 3e
       -0.25796372 -0.13079065 0.22391178 0.31201187
0000f0 9c 8e 8e 3c 03 79 58 3e bf c0 af 3e 8a 73 55 3e
       0.017401986 0.21139912 0.3432674 0.20844856
000100 26 32 95 3e 7e 4a 60 bc e0 d8 20 3e af b4 b3 bc
       0.29139823 -0.013689635 0.15707731 -0.021936743
000110 27 ee a5 3e e9 46 12 3e bb d3 91 3e b6 5e fa bb
       0.32408258 0.14284863 0.2848185 -0.007640685
000120 b3 9f 0d be c3 e9 91 3c e0 83 ec bd 76 d8 dd 3d
       -0.13830452 0.017811662 -0.11548591 0.10832302
000130 49 34 f1 bd 3b d9 6c 3d 6e 55 83 3e 2c b2 8a 3d
       -0.11777551 0.057824355 0.25651115 0.06772265
000140 68 c5 f1 3e e6 ac 56 bd 7c 8d c1 3e 01 e2 21 3e
       0.47220922 -0.052410983 0.37803257 0.1580887
000150 2b af 7e 3e be 47 95 be 4d 55 c6 3c ff bf d2 3e
       0.24871509 -0.29156297 0.024210596 0.41162106
000160 86 53 78 3e 5a 46 7b be b3 4e 9c 3e 7b b1 d4 3e
       0.24250612 -0.24538556 0.30528793 0.41541657
000170 af 13 44 be 27 d0 f5 bd dd 85 ca be 18 49 b9 3e
       -0.19148134 -0.120025925 -0.39555255 0.3618858
000180 a9 6e 81 3e 89 ff 52 bd c5 d4 12 3f 6c 9e 75 3e
       0.2527974 -0.05151323 0.5735591 0.23986214
000190 ee cc c8 bb b5 c3 82 bd 2a 29 b0 3d bd aa eb bb
       -0.006127945 -0.063849844 0.086016014 -0.0071919844
0001a0 fd f1 a7 3e 78 23 26 bd 84 88 fe bb 64 40 ad bd
       0.3280181 -0.04056117 -0.007767739 -0.08459547
0001b0 0a ad c9 3e ba 55 35 3e 18 c8 90 3e 44 da 85 3e
       0.3938983 0.17708483 0.2827766 0.26143086
0001c0 68 5e fb bd 17 dc a7 be a2 ff 22 3d 2d 0b a1 3e
       -0.12273866 -0.32785103 0.03979457 0.3145384
0001d0 cf ef 1c be 97 ec 90 bc 09 c6 bc 3e e3 1c f9 bd
       -0.15325855 -0.01769094 0.3686984 -0.12163713
0001e0 05 0c a4 3e ed d7 2d 3e 52 8d 3b 3e bf fb ff 3c
       0.3204042 0.169769 0.18315628 0.031247972
0001f0 41 32 d9 3e d4 1b 96 be 25 9b 3b 3e d6 3d 7f 3e
       0.42421153 -0.29318106 0.18320902 0.24925932
000200 f8 5c 83 3e 16 66 c1 3c 99 85 74 3e 34 44 d5 3e
       0.25656867 0.023608249 0.23879088 0.41653597
000210 e7 bf 59 3d 06 ae 45 be f9 74 28 be 84 62 6f 3c
       0.053161528 -0.19304666 -0.16450872 0.01461089
000220 95 a8 ae 3d 6d c0 a3 3d 98 37 1d 3e f2 fa 9c 3e
       0.08528248 0.07995687 0.15353239 0.30660206
000230 35 7e 91 3e 2b 2f 29 be fb 3c 34 3e ad 9b 24 be
       0.284166 -0.165219 0.17601387 -0.1607501
000240 7c 3e a1 3e 0e 76 f2 bd 75 ce a5 3c 09 6a 01 3e
       0.31492984 -0.118389234 0.020240048 0.12638105
000250 70 6a e4 3e 59 a3 46 3e 83 2a b3 3e 46 8b 0e 3e
       0.44612455 0.1939825 0.3499337 0.13920316
000260 ec b5 db bd 3f 28 97 be 95 e6 1e 3d 7e f8 1b 3e
       -0.10728058 -0.29522893 0.03879412 0.15231511
000270 bc d5 35 be 52 9f a0 bd 34 df 99 3e 9a 27 72 3e
       -0.17757314 -0.07842888 0.30053103 0.2364792
000280 a2 97 89 3e fb 10 ab 3d ab 0f 64 3d 9e 27 8f 3d
       0.268735 0.08352848 0.055679005 0.06989978
000290 8a 6f f1 3e 92 23 82 be 0d e9 df 3e 19 7a d6 3e
       0.4715541 -0.25417763 0.4373249 0.41890028
0002a0 4a 88 ce 3e 61 fb 40 be ec 40 fc 3e 29 04 e4 3e
       0.40338355 -0.18845893 0.4926828 0.44534424
0002b0 9d a4 d9 be d7 05 bd be fa 6b e6 be 9f fa 20 3e
       -0.42508402 -0.36918518 -0.45004255 0.15720604
0002c0 8c df d9 3d bb 5d 67 be 0c 81 12 3f 2c 0d 83 3e
       0.10638341 -0.22594349 0.5722816 0.25595987
0002d0 96 2e a9 3d 5d 80 3f 3e 3a bc 72 3e 55 a1 b9 3d
       0.08260839 0.1870131 0.23704615 0.09063975
0002e0 ea 22 93 bd 3e 08 b9 be 15 61 9a 3e 76 d2 a5 3e
       -0.07184394 -0.361391 0.30152193 0.3238713
0002f0 80 15 b0 3c 22 1e 62 3d d7 72 35 3e 59 5f c0 bd
       0.021494627 0.05520452 0.17719589 -0.09393186
000300 ba 4c 42 be b9 78 9d be 49 c4 9a bc cc 00 58 3e
       -0.18974581 -0.30756167 -0.018892424 0.21094054
000310 5a c9 53 3e 0d 06 0a be cf b3 e8 3d 2e 7d 67 bd
       0.20682278 -0.1347887 0.11362421 -0.056515865
000320 3d 1c 93 3d 74 d6 10 be e9 3f 8d 3e e7 c4 49 bc
       0.071831204 -0.14144307 0.27587822 -0.012315012
000330 40 31 73 3e e8 5d ba be f7 ef 00 3d ba 87 29 3c
       0.23749256 -0.3639977 0.03147885 0.010347301
000340 80 2e 48 3e 32 cc 7c 3e 58 45 29 3e b2 11 5d 3e
       0.19548988 0.2468727 0.16530359 0.21588781
000350 df 11 98 be c2 db a5 be 6f 43 f3 be 18 ab 41 3d
       -0.29701135 -0.32394224 -0.47512385 0.04728231
000360 91 f7 15 be b9 ea c7 bd 3c be 25 3e 64 95 ff 3d
       -0.1464522 -0.09761567 0.1618585 0.12479666
000370 65 3d fb 3e 0a 9d 24 be 30 b8 c9 3e e1 4a 72 bd
       0.49070278 -0.1607553 0.39398336 -0.05915344
000380 1f ca c0 3e 40 db a7 be 5d 90 18 3d 85 6f e1 3d
       0.37654206 -0.32784462 0.03724705 0.11007599
000390 91 72 36 3e d7 62 62 be f3 e6 97 3e 97 33 e5 3d
       0.17817141 -0.22108017 0.29668388 0.111914806
0003a0 18 aa af bd 08 f7 74 be 6f 2a 03 bf 6a 73 4c 3e
       -0.08577365 -0.2392236 -0.51236624 0.19965902
0003b0 5f 93 36 3e 38 33 c3 bd 46 c8 ec 3e b9 fa b0 3e
       0.17829655 -0.095312536 0.46246547 0.34566286
0003c0 9e f6 df 3d 3a 34 3d 3e 49 7b 58 3d dd 9c 22 be
       0.1093571 0.18476954 0.05285195 -0.15880151
0003d0 e9 bd c4 3e 3e d1 b3 be 19 78 b0 bc f0 14 91 bd
       0.3842614 -0.35120577 -0.021541642 -0.07084072
0003e0 38 f5 8f 3e 82 d5 0a 3c 53 05 c2 3e 22 19 ff 3d
       0.28116775 0.008473756 0.37894687 0.124559656
0003f0 83 9a d6 bd 80 19 0e bd e2 29 4b be 1d d0 cc 3d
       -0.104786895 -0.034692287 -0.19840196 0.10000632

lstm_layer.bias_ih f4 [80]
000000 3a 61 0e 3f 3a 8a 63 3e ab 93 da 3e 60 e3 bd 3e
       0.55617106 0.22220698 0.42690787 0.37087536
000010 ab 3a c1 3e e2 db c7 3e cc 8c d8 3e 86 92 be 3d
       0.37740073 0.39034945 0.4229492 0.09305291
000020 b0 24 0b 3f f2 93 05 3f bd e2 76 3e d6 d2 09 3f
       0.54352856 0.5217887 0.24109931 0.53837335
000030 ba eb 82 3e 9a 05 f4 3e 24 80 a1 3e 13 12 00 3f
       0.2557047 0.47660524 0.31543076 0.5002758
000040 89 3e f9 3e 4b 77 ac 3e 95 69 ba 3e 46 15 fb 3e
       0.48680523 0.33684763 0.36408678 0.49039668
000050 45 3d c7 3d 44 e6 49 3d a5 e2 a5 bd 67 2e 28 3d
       0.09728483 0.049291864 -0.0809987 0.041059878
000060 30 de 03 be bc f4 e5 bb e6 cd 39 3c 28 30 6a be
       -0.12877727 -0.0070177 0.011340594 -0.22869933
000070 5f 39 7e bc 84 e8 02 be d2 77 51 be ff d4 31 3e
       -0.015516608 -0.1278401 -0.20455864 0.17366408
000080 f9 cd bf 3d b9 03 d3 3d 69 77 80 3e 11 6f 10 be
       0.09365458 0.103034444 0.25091103 -0.14104868
000090 e0 17 c0 3c ea ab 46 bc c1 3c ea 3d ff 96 0e 3d
       0.023448884 -0.012125948 0.11437369 0.03481197
0000a0 64 b0 1d bc 52 b1 0e 3f c4 06 80 bd 92 7a 9f 3e
       -0.009624574 0.5573932 -0.062512904 0.311482
0000b0 f1 dd f4 3d 79 05 15 be 5d 7a 35 3e 15 42 7a 3e
       0.119563945 -0.14552869 0.17722459 0.24439271
0000c0 d3 98 77 bb 24 87 d3 be 58 fc 54 3e aa d9 5a 3e
       -0.00377803 -0.41314042 0.20799387 0.21372095
0000d0 94 cf cd bd 12 46 31 bd e3 91 06 3d 93 fb 43 3e
       -0.10049358 -0.043279715 0.032853972 0.19138937
0000e0 cd 37 41 3e 14 02 b8 be 2b 1e 4f bd 87 b0 19 3e
       0.18868943 -0.35939085 -0.05056588 0.15008746
0000f0 0a f9 97 3e af 72 d0 3e 03 45 8d 3e 6b 8d 54 3e
       0.2968219 0.40712497 0.27591714 0.20757072
000100 ed b7 24 3f ea 73 1b 3e b7 a7 c7 3e 1b 3d 18 3f
       0.6434315 0.15180936 0.38995144 0.5946824
000110 a7 ab e0 3e a2 42 0d 3f 9c 89 9b 3e 42 fb 1b 3e
       0.4388096 0.551798 0.30378425 0.15232566
000120 39 f0 8c 3e 88 bb 7f 3e 7c bc 54 3e c9 79 27 3e
       0.27527025 0.24973881 0.20775026 0.16355051
000130 8a e3 00 3f b0 c7 f3 3e 57 4c 1a 3f 0a ee ff 3e
       0.503472 0.47613287 0.60272735 0.49986297

lstm_layer.bias_hh f4 [80]
000000 49 7e 9e 3e db 98 c0 3e 17 66 e5 3e d0 04 14 3f
       0.30955723 0.3761662 0.4480445 0.57819843
000010 59 6e be 3e 64 54 fd 3e b1 73 07 3f 6e 10 85 3e
       0.37193564 0.49478447 0.52910906 0.25989097
000020 de fe 6e 3e 6e 26 0a 3f d3 ce f7 3e f5 a7 94 3e
       0.23339412 0.5396489 0.48399982 0.2903439
000030 ee 3c 0c 3f aa 18 98 3e c4 63 7d 3e f5 16 e1 3e
       0.5478047 0.29706317 0.24745089 0.43962827
000040 17 44 0a 3f 10 35 b7 3e c8 a2 a0 3e 84 2c 87 3e
       0.54010147 0.3578267 0.31374192 0.2640115
000050 8f 33 2f 3e dd bb 7e 3e ea cc be 3d 81 6e fc 3c
       0.17109512 0.24876352 0.09316428 0.030814411
000060 83 96 51 3e ea 98 b5 bd a2 04 8b 3d 96 d8 58 3d
       0.20467572 -0.08867057 0.06787993 0.052940927
000070 49 4c 11 bc 38 a6 7c 3e d3 4c bb bd 53 11 17 3e
       -0.008868285 0.24672782 -0.091455124 0.14752702
000080 43 c3 de bd 95 80 fa 3d 2d a4 74 3c 9d 43 17 3e
       -0.10877087 0.12231556 0.014931721 0.14771886
000090 9d f6 3a 3d 71 9f cb 3b 2d ac 61 3e aa 17 fc bb
       0.045645345 0.0062140753 0.22038336 -0.0076932507
0000a0 ed 72 f6 bb e0 9a 75 3e 89 ce 53 3e 17 6d a7 3e
       -0.0075210244 0.23984861 0.20684256 0.32700416
0000b0 47 99 b5 bc f1 97 c6 bd 89 86 7f 3e 80 6b 67 3e
       -0.022167815 -0.09696949 0.24953665 0.22599602
0000c0 49 f0 62 3e f7 69 c2 be d0 25 63 bc 7d db d0 bd
       0.22161974 -0.3797147 -0.013863996 -0.10198114
0000d0 d7 ef b2 be 86 b6 c3 bd b1 85 ae bd 21 85 24 3c
       -0.34948608 -0.09556298 -0.08521593 0.010041506
0000e0 6e 80 40 3e 67 32 34 be a2 8b 52 3b 6e 02 d0 bd
       0.18798992 -0.17597352 0.0032126685 -0.101567134
0000f0 7d 3c 12 3f 17 16 7d 3e db 5c dc 3e 61 41 f7 3e
       0.5712355 0.24715458 0.43039593 0.48292068
000100 38 39 8f 3e 5a 48 87 3e 76 42 19 3e a9 a4 19 3f
       0.27973342 0.26422387 0.14966759 0.60016876
000110 e3 95 a5 3e af 9c 10 3f 37 13 c1 3e df 07 80 3e
       0.32340917 0.5648908 0.37709972 0.25006005
000120 33 c4 f1 3e 2e 70 0f 3e 17 48 83 3e 2a 97 8a 3e
       0.4722 0.14007637 0.25640938 0.27068454
000130 b4 f6 1e 3f c1 f3 96 3d 8d 05 0b 3f d8 56 25 3f
       0.6209519 0.07370711 0.54305345 0.6458564

metalstm_layer.Wf f4 [22, 1]
000000 fa 2c f2 3e e8 d8 65 bd 6b bf 7c 3e 9e a4 03 3e
       0.4729994 -0.05611506 0.24682395 0.12855765
000010 9d f5 d9 3e 33 07 9e be bb b1 6c 3e f1 93 92 3e
       0.425702 -0.30864868 0.23114674 0.28628495
000020 8c d4 ca 3e e0 b4 8d bd e1 0b 9d 3e bb 6d 89 3e
       0.39615285 -0.06919265 0.30673125 0.2684153
000030 31 63 bf be e3 69 86 be 60 76 db be 0c 3c c9 3e
       -0.37380365 -0.2625266 -0.4286375 0.39303625
000040 b4 5f 5a bd b0 3f 72 be 23 1c e2 3e 83 fe 88 3e
       -0.053313926 -0.23657107 0.44162092 0.26756677
000050 f7 8d d4 be 3c c9 3c bd
       -0.4151456 -0.04609035

metalstm_layer.Wi f4 [22, 1]
000000 9d 88 d2 3e ee 4f 87 3e 4c ea ac 3e 9c c8 89 3e
       0.41119853 0.2642817 0.33772504 0.26910865
000010 65 d0 c0 3e 1e be ba be ee 30 b0 3e b5 db 9c 3e
       0.37658992 -0.36473173 0.3441233 0.30636373
000020 7e 1b c9 3e 26 04 8b be 5c d9 ab 3e a8 f4 c7 3e
       0.39278787 -0.27151603 0.3356427 0.39053845
000030 16 5e a1 be 60 85 a0 be 8e bb a9 be 90 bd b6 3e
       -0.31517094 -0.31351757 -0.33150905 0.356915
000040 d2 1d 89 3e c8 45 93 be b8 8d be 3e db 7b a8 3e
       0.26780564 -0.28764176 0.37217498 0.32906994
000050 5b 93 38 bf 53 0a 9f bd
       -0.72099847 -0.07765641

metalstm_layer.ct f4 [17386, 1]
000000 d1 7b 88 3b dc 00 a6 3d bd be 3d be 47 46 82 be
       0.0041651507 0.08105633 -0.18529792 -0.25444242
000010 90 f6 4b be 91 66 1f 3d 15 9b 82 3d 75 be 01 3d
       -0.19918275 0.038916174 0.06377236 0.031675775
000020 94 40 2a be 29 a2 fd bd 6f 5a 5d bd 25 54 62 3d
       -0.16626197 -0.12384445 -0.054041322 0.055256028
000030 96 bb c1 bd ba 6a f5 bd 73 5f ee bd f3 33 43 bd
       -0.09459607 -0.11983247 -0.11639299 -0.047656965
000040 6b 50 e5 3d f1 13 38 3e 4f 6a 4d 3d 7e a9 ef 3a
       0.11196979 0.17976357 0.050150212 0.0018284766
000050 11 cb 59 bc 91 cd 05 3e 43 95 3b 3d 6e b5 35 3e
       -0.013293044 0.13066699 0.045796644 0.17744991
000060 44 47 25 3d 0a 51 8d 3c 06 35 fd 3d da 20 4a be
       0.040351167 0.017250556 0.12363629 -0.19739094
000070 df ee 77 be 51 54 3c be ea e3 17 bd 7e aa 29 3e
       -0.24212216 -0.18391539 -0.03708259 0.16568944
000080 97 2a 0a be 3c 50 56 be 4a ea 70 be ba 68 02 be
       -0.13492809 -0.20929044 -0.23526874 -0.12735263
000090 f3 c9 2d 3c 1f 95 eb 3d b1 3b 09 3c 70 38 50 bc
       0.0106072305 0.11503052 0.008376048 -0.012708768
0000a0 35 d7 3b bd dc dc eb 3b f3 2b 05 3e f6 00 a9 3c
       -0.045859534 0.0071979593 0.13005047 0.020630341
0000b0 0f 51 00 bd 34 4a eb bd eb 72 dc 3d bc 88 0c 3e
       -0.031327303 -0.114887625 0.10764106 0.13724035
0000c0 93 54 23 3d 8c 73 60 3d 6b 93 a1 3d 15 14 09 3e
       0.039875578 0.054797694 0.07889446 0.13386567
0000d0 d0 69 35 bd 5a 44 1d be 3b d8 9d bd 87 0a 76 bd
       -0.044290364 -0.15358105 -0.07707258 -0.060068633
0000e0 34 4b b3 3d 37 37 19 be 59 e9 71 be c4 59 5b be
       0.08754578 -0.14962469 -0.23624171 -0.21420962
0000f0 ea e7 07 3d 95 90 fe 3d d7 bc 57 bd a4 dc 07 bc
       0.033180155 0.124299206 -0.052670326 -0.008292351
000100 c5 dd ac bb 69 41 88 bd 9a ea 90 3d 08 8f 0c 3e
       -0.0052754604 -0.06653101 0.07075997 0.13726437
000110 0a ce 4c 3e ec ea 26 3e 18 d8 13 be 0c 00 f6 bb
       0.20000473 0.16300553 -0.14437902 -0.00750733
000120 55 5d eb 3d 7b 31 3f 3e 6c 48 23 3e 5e 0a 41 3d
       0.11492411 0.18671219 0.15945596 0.047129028
000130 01 92 1f 3d 74 b4 2d be 18 38 3f be ca 43 7a be
       0.0389576 -0.16963369 -0.18673742 -0.24439922
000140 10 f9 cb bd f6 65 0c 3e a8 8c 6b 3d 07 d0 1e be
       -0.09959614 0.1371077 0.057507187 -0.15509044
000150 8b 58 0c 3d f3 27 54 bc 15 1b cb 3c db 16 5a 3d
       0.03426413 -0.012948978 0.024793187 0.053244453
000160 fc c1 33 3e c6 4d 3d 3d 0a f8 17 3d 59 8f bb 3d
       0.17554468 0.04621675 0.037101783 0.09158201
000170 4c 3a 30 3e 27 8b e1 3d f5 8a 4e bd 10 0c de bd
       0.17209738 0.11012869 -0.05042549 -0.108421445
000180 ea 1c 50 3b 21 e2 5d bd b6 8b 73 be b2 9b be bd
       0.0031755515 -0.05417073 -0.23783764 -0.0930704
000190 95 ad 5c 3d 1b f9 bf 3d e0 cf f4 bd ef f6 67 be
       0.05387648 0.09373685 -0.119537115 -0.22652791
0001a0 02 80 90 be 22 17 c3 3b 34 d6 55 bd 68 b3 f4 bd
       -0.28222662 0.0059536854 -0.052206233 -0.119482815
0001b0 0b e3 3c bd 75 a3 f5 3c c1 21 27 bd 37 ee e5 3d
       -0.046114963 0.029985169 -0.040803675 0.112270765
0001c0 1c ce 12 3d 38 88 71 3e 61 5e 46 3e 28 6b d2 bd
       0.035841092 0.2358712 0.1937194 -0.10274345
0001d0 ac 9b 91 3b 01 dd c1 3d eb a0 ab 3d 6e 09 bb 3d
       0.0044436064 0.09465981 0.08380302 0.09132658
0001e0 5d 57 43 3c 90 ec 42 bd 6b 05 0a be 02 3b be bd
       0.0119226845 -0.047588885 -0.1347863 -0.092885986
0001f0 47 b2 0c be d0 8c fc bd 6b 1c 53 bc 65 73 00 be
       -0.13739882 -0.12331545 -0.012885193 -0.1254402
000200 af 99 73 be b8 9f 88 be 2e 76 87 bc 04 df 72 3d
       -0.23789094 -0.26684356 -0.016535845 0.059294716
000210 64 54 d8 bd b2 18 3b bd b1 4c c3 3d aa b5 af bb
       -0.10562971 -0.04567785 0.09536112 -0.005362232
000220 9c 7c 40 3d 83 db c4 3d 71 3b 1e 3e 6c 85 40 3e
       0.046993837 0.09612181 0.15452363 0.18800896
000230 7e 71 d5 3d 71 26 da 3d 5d d6 4b 3e ac 0e 70 3d
       0.104220375 0.10651863 0.19905992 0.058607742
000240 83 48 23 bd ce b5 b4 bd 05 df c5 3c 01 0a a2 bd
       -0.039864074 -0.08823739 0.024154196 -0.07912064
000250 97 06 52 be 16 b6 eb bd 4b 65 8f 3d 63 3c 20 3e
       -0.20510326 -0.115093395 0.07001742 0.15648036
000260 ee 07 3b 3d 4e 34 37 3c 0a 66 28 3c 97 9f 2e 3d
       0.04566186 0.011181904 0.010278234 0.042632665
000270 27 e6 86 3e 93 a7 05 be 93 45 f2 bd f6 ec b4 bd
       0.26347467 -0.13052206 -0.118296765 -0.08834259
000280 33 bc 0a 3e fe c2 32 3e be e8 08 be 30 f5 55 be
       0.13548355 0.17457196 -0.13370034 -0.20894313
000290 c2 4f b8 bd 44 f6 26 3e 74 a2 04 3e 99 44 83 bc
       -0.089995876 0.1630488 0.12952596 -0.01602392
0002a0 8b 00 78 be 45 8b ab bd 35 e2 97 3e b0 02 f2 3d
       -0.24218957 -0.08376173 0.2966477 0.11816919
0002b0 8c c3 fe 3c 58 50 c5 bd 15 6c 59 be 4e 81 80 3e
       0.031099103 -0.09634465 -0.21232636 0.25098652
0002c0 2d 43 76 3e d7 e8 8f 3c 92 81 24 3d 03 ca 14 be
       0.24049063 0.017567081 0.04016263 -0.14530186
0002d0 79 3f 2a 3e 4e 69 2b 3e 0a f4 2c 3d 90 b0 7c bd
       0.16625775 0.1673939 0.04222492 -0.06169182
0002e0 41 18 63 3c 81 33 4b 3e c9 8c 2d 3e af c5 5e bd
       0.013860763 0.19843866 0.16948237 -0.054387745
0002f0 0c 4e 51 be 6c ec 19 bc c5 9c 81 3e a5 88 85 3e
       -0.20439929 -0.009394746 0.25314918 0.26080814
000300 51 54 10 be 4f 4b 08 be 92 1e 21 be 3e dc 06 3e
       -0.14094664 -0.13309978 -0.15734318 0.13169953
000310 b9 be c8 3d 87 e0 09 bd 7b e9 53 be 67 a1 e2 bd
       0.098020025 -0.03366139 -0.20694534 -0.11065941
000320 8c 3b 3b 3e 4c ff a7 3e 35 8e 94 bc ab 6a 06 be
       0.18284434 0.32811964 -0.018134216 -0.13126628
000330 0a d9 f3 bd 2b 3f 70 3e c1 af 19 3e 6f 1e 6a 3d
       -0.11906631 0.23461597 0.15008451 0.05715793
000340 20 b7 55 bd 3f dd dc bc 7e 9b 20 3e 81 9a 32 3e
       -0.052176595 -0.026960967 0.15684316 0.17441751
000350 95 02 80 bc 7d e0 0a be c0 fb 94 bd b2 81 34 3e
       -0.015626231 -0.13562198 -0.0727458 0.176276
000360 00 d3 bb 3d 40 ce f5 bd f4 51 38 bd b3 b8 2d be
       0.091711044 -0.1200223 -0.04500003 -0.16964988
000370 87 67 3f 3e 1f f3 8e 3e 15 aa 00 bd fa 1e 0a be
       0.18691836 0.27919862 -0.031412203 -0.13488379
000380 fc 2e 55 be 98 30 82 bc 2e f5 5b bc 52 1c c4 bd
       -0.20818704 -0.015892312 -0.013425155 -0.09575714
000390 ac 18 86 be 2f 15 4c be 69 58 c8 3c e4 89 67 3e
       -0.26190698 -0.19929956 0.02445622 0.22611195
0003a0 32 21 e7 3d 65 0d 2a 3e 73 cd e3 3d b2 52 95 bd
       0.112856284 0.16606672 0.11123171 -0.072911635
0003b0 8f 40 2f 3e fc e5 a6 3d 79 b7 ed 3d d6 3a 0b 3e
       0.17114471 0.08149335 0.1160726 0.13596663
0003c0 fe ab 16 3c f4 e2 12 3e 97 4f 1c 3d c3 d8 8a 3d
       0.00919628 0.14344388 0.03816184 0.06779625
0003d0 12 b5 02 3e dc 1b 59 bd 55 7e 0f 3e 72 f9 be bd
       0.12764385 -0.053005084 0.14013036 -0.09324922
0003e0 da 4e b8 bd f8 c0 81 3c aa 2c 09 be cc 03 ac 3d
       -0.08999415 0.015839085 -0.13395944 0.08399162
0003f0 f0 60 05 3d 03 8a 83 be e0 68 80 be 43 c0 9f bc
       0.03256315 -0.25691232 -0.25080013 -0.019500857
