saved_models/metalearner_dict_6_shot.pth (torch, 81275 bytes, 7 tensors)

lstm_layer.weight_ih f4 [80, 4]
000000 7b 75 67 3f ce 65 ba 3e ef 37 ce be b9 c1 a6 be
       0.90413636 0.36405796 -0.4027705 -0.32569674
000010 8c 56 44 3e 5e 10 ff 3e 16 9d 8d be df 8b 90 be
       0.1917364 0.49817175 -0.2765891 -0.28231713
000020 a0 59 66 3e 38 16 b2 3e 34 d2 c3 be d3 89 c9 be
       0.22495127 0.34782577 -0.3824631 -0.39362964
000030 c1 1e 85 3e 31 5d fc 3e c2 73 0c bf b6 60 83 be
       0.26000026 0.4928985 -0.5486413 -0.25659722
000040 af 9b f7 3e 4b d2 d4 3e 1b 08 5c be 03 15 ec be
       0.48360965 0.4156669 -0.21487467 -0.4610978
000050 1d e1 08 3f 4a 97 5b 3e f1 33 a0 be 39 1d 34 bf
       0.53468496 0.21444431 -0.31289628 -0.7035709
000060 61 8b f0 3e 03 98 f6 3e c0 27 db be 32 26 80 be
       0.46981338 0.4816285 -0.42803764 -0.2502914
000070 7c 26 f1 3e da 31 e0 3e fa 14 f8 be df 54 a1 be
       0.47099674 0.43788034 -0.48453504 -0.31510064
000080 7e a2 2e 3f 53 bd 11 3f 82 97 d0 be ad 83 d2 be
       0.68216693 0.5692951 -0.4074059 -0.41116086
000090 d4 60 8c 3e 67 4c 91 3e 67 f1 02 bf 15 d2 a9 be
       0.27417624 0.28378603 -0.511496 -0.33168092
0000a0 2d 08 9b 3d d3 9c a1 3e 6c 10 16 bf 3e 83 cd be
       0.07569919 0.3156496 -0.5861881 -0.40139192
0000b0 b7 36 0a 3f e7 96 12 3f 9b 8b 02 bf a4 c2 c0 be
       0.5398974 0.5726151 -0.5099427 -0.376485
0000c0 b2 35 a1 3e e7 89 fd 3e 0d b1 19 be 41 2d 11 bf
       0.3148628 0.49519274 -0.15008946 -0.56709677
0000d0 01 00 b4 3e 15 39 02 3e 43 86 b7 be 19 26 de be
       0.35156253 0.12717088 -0.3584462 -0.4338844
0000e0 f7 17 30 3f 97 f8 0e 3f 73 08 a9 be be df 12 bf
       0.6878657 0.5584807 -0.3301426 -0.57372653
0000f0 f8 dd bf 3e bb 16 13 3f b8 34 72 be 2c 74 03 bf
       0.37474036 0.5745656 -0.23652923 -0.5134914
000100 3c fd e6 3d 57 e8 cc 3e 08 9d 2c bf 83 19 78 be
       0.112787694 0.4002101 -0.6742711 -0.24228482
000110 e5 ce df 3d 7a d1 b9 3e d4 25 17 bf b4 75 c9 be
       0.10928134 0.3629263 -0.59042096 -0.39347613
000120 51 46 36 3f b4 0d 09 3f 29 99 bf be 75 33 e2 be
       0.71201044 0.53536534 -0.3742154 -0.44179884
000130 c4 c3 ef 3e 3d 86 a2 3e 97 8a b4 be d3 24 1c be
       0.46829045 0.3174304 -0.35261986 -0.15248422
000140 94 ab 0a bf fd 7f 85 be e8 bf 4b bf 89 39 26 bf
       -0.5416806 -0.2607421 -0.795897 -0.6493154
000150 55 8e e9 3b b0 40 2b 3e 6c 9a 01 bf 9b 55 0b bf
       0.007127563 0.16723895 -0.50626254 -0.544275
000160 44 e1 84 be c9 49 0a 3e ec 06 9d be e8 ca 24 bf
       -0.25953114 0.1350471 -0.30669343 -0.6437211
000170 f1 51 c7 3d 98 38 82 3e f3 3f 27 bf 3c 97 fb be
       0.09732426 0.25433803 -0.65331954 -0.4913882
000180 4e 47 aa bd 65 01 a8 bd ef 65 08 bf bc 2b 2a bf
       -0.083143815 -0.08203391 -0.5328054 -0.66472983
000190 d3 a7 e9 be 9b 7a 84 3d 40 50 16 bf 42 83 2f bf
       -0.45635852 0.06468698 -0.587162 -0.6855966
0001a0 2e cc 04 be 8c 86 e5 3c bf 74 06 bf ca ac 10 bf
       -0.12968513 0.028018259 -0.5252189 -0.56513655
0001b0 eb b1 a3 be 7c b1 40 be b8 be eb be 01 fc 12 bf
       -0.31971678 -0.18817705 -0.46043944 -0.5741578
0001c0 bb f0 46 be 22 d3 b3 3d 22 22 04 bf 72 dd 33 bf
       -0.19427769 0.08780505 -0.5161458 -0.70259774
0001d0 2c d9 98 be 74 a8 5d 3e 72 0c fd be 5a 27 0e bf
       -0.2985319 0.21646291 -0.49423558 -0.55528796
0001e0 6b 5c da bd 74 44 f1 3d b9 37 cc be 29 56 df be
       -0.106621586 0.117806345 -0.39886263 -0.43620422
0001f0 15 2a 2f bd 68 4d 9b bd 20 fd c8 be 4f 60 47 bf
       -0.042764742 -0.075831234 -0.3925562 -0.7788133
000200 2c 77 a1 bd ed 94 6c bd c1 eb 21 bf 84 c1 21 bf
       -0.07884058 -0.057759214 -0.63250357 -0.63185906
000210 b0 45 63 be 37 21 ec 3c 02 41 8e be c8 46 24 bf
       -0.22194552 0.028824432 -0.27783972 -0.64170504
000220 f8 09 1c be 6d ab e8 bd 58 a1 1f bf b0 15 04 bf
       -0.15238178 -0.11360822 -0.62355566 -0.5159559
000230 53 33 e3 be 2f 2c 22 be ba ee af be 1c 6e fa be
       -0.44375095 -0.15837167 -0.3436182 -0.48912132
000240 08 3b 8c 3d 77 9f b0 3e d3 28 e7 be d0 00 ce be
       0.06847197 0.34496662 -0.45148334 -0.40234995
000250 25 86 3d 3e b4 5e 8a 3e 5a 60 01 bf 41 a4 f3 be
       0.18508203 0.27025378 -0.50537646 -0.47586253
000260 d6 b9 38 be 3d d3 19 be 3b d1 28 bf 79 9b 0a bf
       -0.18039641 -0.15021987 -0.6594426 -0.5414348
000270 5a 68 9b be 84 1e 5f 3e 38 77 e1 be 6d 2d e1 be
       -0.3035305 0.21788985 -0.4403627 -0.4397997
000280 ae 76 08 be 8f 5a 83 3e 23 e7 f3 be 7b be 22 bf
       -0.13326523 0.25655028 -0.4763728 -0.635719
000290 b0 7d a1 3d 05 b7 bc 3e 37 fd 9e be 59 e6 4f be
       0.07885301 0.36858383 -0.31052563 -0.20302714
0002a0 8c 5d 98 3e b3 a2 94 3e cd a1 1b bf 5d 18 c8 be
       0.2975887 0.2903038 -0.60793763 -0.39081088
0002b0 bd 04 3d 3c 1c f5 4e 3e 58 a9 08 bf f2 62 94 be
       0.011536774 0.2021069 -0.533834 -0.2898174
0002c0 d5 da 1d 3e 26 5e c5 3d 37 42 00 bf e1 01 0c bf
       0.15415509 0.09637098 -0.50101036 -0.54690367
0002d0 c1 cd 55 be 44 84 43 be cb 99 2d 3f 6c 49 09 3f
       -0.2087927 -0.19093424 0.67812794 0.5362766
0002e0 7d c8 d4 3d c7 28 e4 bc a8 ed 81 be 04 f2 b8 be
       0.103898026 -0.027851475 -0.2537663 -0.36122143
0002f0 18 2c 4f 3e 49 f5 d9 bd 61 bc 1e bf b2 2b c1 be
       0.20231664 -0.106424876 -0.62006193 -0.3772865
000300 52 59 bf 3c f0 80 bb 3c d0 9b 1d bf e3 07 00 bf
       0.023358021 0.02288863 -0.61565876 -0.50012034
000310 ba 61 9e bd 82 83 82 bc 10 da 13 3f 5e 9d ac 3e
       -0.077334836 -0.015931848 0.5775461 0.33713812
000320 82 33 5f 3e af e8 5a 3e de 7f ef be 6f 2b b5 be
       0.21796992 0.21377824 -0.46777242 -0.353847
000330 5f 8a e4 3e 4a 73 ce 3d c6 9a 45 be 80 a7 dd be
       0.4463682 0.100805834 -0.19297323 -0.43291855
000340 31 ff 46 be 4c 57 47 be da b6 fa 3e d7 1a 10 3f
       -0.19433285 -0.19466895 0.4896763 0.56290954
000350 56 69 87 be 24 cb a6 be de 86 78 3e 67 42 c8 3e
       -0.26447552 -0.3257686 0.24270198 0.3911316
000360 00 6a 8a be 12 dd 86 be f9 1a da 3e 26 b6 11 3f
       -0.27033997 -0.26340538 0.42598704 0.5691856
000370 8c 86 12 3e 5d 3c 2e 3e 8f e4 34 bf 1e dd 0a bf
       0.14309138 0.17015214 -0.7066125 -0.5424365
000380 5f cb 6c 3e 76 24 be 3e e9 2c 29 bf a6 08 85 be
       0.23124455 0.37137192 -0.6608415 -0.2598316
000390 a3 8f e9 be 1c a2 d9 be f3 00 2d 3e bc fe 91 3e
       -0.456174 -0.42506492 0.16894893 0.2851466
0003a0 cf d5 0f 3e 6a b0 17 3e 37 d7 0f bf a2 63 e6 be
       0.14046405 0.1481339 -0.56187767 -0.4499789
0003b0 86 8b 84 3e 1e 1c 73 3e 2e 1b 0f bf 8e dc c9 be
       0.25887698 0.23741195 -0.5590085 -0.39426082
0003c0 63 c2 1b 3f cb 79 c9 3e ef 61 30 be 5c 5d 1b bf
       0.60843486 0.39350733 -0.17224859 -0.6068933
0003d0 a9 81 6f 3e 6d 5c bc 3d b7 21 f6 be 2b 67 e6 be
       0.23389305 0.09197316 -0.48072597 -0.45000586
0003e0 9e 66 f7 3e 89 a4 21 3e 50 cc 4c bf ba 43 c8 be
       0.48320478 0.15785421 -0.79999256 -0.3911417
0003f0 b5 fd 36 3e 21 83 98 3e e5 00 03 bf 72 6e 6a be
       0.17870219 0.29787543 -0.5117324 -0.22893694

lstm_layer.weight_hh f4 [80, 20]
000000 c4 d2 3a 3e ef 3c 53 3e f3 79 9d 3e fa 81 79 3e
       0.18244463 0.20628713 0.30757102 0.24365988
000010 28 c8 cd 3e 70 2d 06 bf 12 a8 29 3f 1c bb 2b bd
       0.4019177 -0.5241308 0.6627208 -0.04192649
000020 84 38 d5 3d 36 f5 91 be 01 8a 87 3e e3 86 43 3f
       0.1041117 -0.28507394 0.26472476 0.76377696
000030 af cc 9e be 2b 23 14 be b1 55 10 bf d4 49 8c 3e
       -0.31015536 -0.1446654 -0.56380755 0.27400076
000040 c9 04 73 3e 2e 8d 8d be fb c0 ee 3e 48 37 23 3f
       0.23732294 -0.27646774 0.46631607 0.6375623
000050 da 9c 86 3d 8a a9 34 bd 5a 4a f8 3c 2f 88 09 bc
       0.06572886 -0.044106998 0.030308891 -0.008394285
000060 75 9b 27 3e 1b 9a 46 3c f2 9a ab bc 40 7a 10 3d
       0.16367896 0.012121703 -0.020947907 0.035272837
000070 dd 3e 13 3e 40 7e af 3d 35 e0 64 3d 4b b7 32 be
       0.14379449 0.08569002 0.055877883 -0.17452733
000080 a7 fc df bd d7 f2 77 3d e2 bb 88 3d 7d 9c 03 3e
       -0.109368615 0.060534324 0.06676461 0.12852664
000090 8a 57 a7 3e 88 77 44 be ea fd ac 3d 5c 35 a9 3d
       0.32683975 -0.19186223 0.08446868 0.082621306
0000a0 44 41 17 be 10 1e 02 be 91 09 be 3d da f8 93 3d
       -0.1477099 -0.1270678 0.092791684 0.07225199
0000b0 4e 34 42 3e 17 93 58 3e 90 23 11 bd ca f1 5f bc
       0.18965265 0.2114986 -0.035434306 -0.013668487
0000c0 54 66 ad bd 0b 8d 08 3e 86 8a a1 3d 88 6f 9a 3e
       -0.08466783 0.13335054 0.078877494 0.30163217
0000d0 89 9b 2e 3e 79 09 ca 3d 34 90 2e be 78 37 4f be
       0.1705152 0.09865088 -0.17047197 -0.20236003
0000e0 bc 33 2e be 2d 8b fd bd ad 38 ed bd c7 cb 99 3e
       -0.17011923 -0.12380061 -0.11583076 0.30038282
0000f0 02 ff 50 be 33 6e b5 3e db b8 9a 3e 69 b0 a2 3e
       -0.20409778 0.35435638 0.3021916 0.31775215
000100 de fc dc 3d 63 9c 09 3e 2f 2b c7 3d ad 8f 9b bd
       0.10790418 0.13438563 0.097250335 -0.07595763
000110 41 d5 1e 3e f7 05 96 3c 1c b3 61 3e 13 7b 2d be
       0.15511037 0.018313391 0.22040981 -0.1694148
000120 67 e8 f8 bc d7 99 71 3d 10 1a da 3c 55 bd fb bc
       -0.030384256 0.058984604 0.026623756 -0.030729929
000130 e1 2f 52 3d 36 5f 58 bc 3d 4e 31 3d 6d b7 26 3d
       0.051315192 -0.013206294 0.043287504 0.040702272
000140 cd 65 62 3e fc 6a 48 3d 80 7b c3 3e ef c3 33 3e
       0.22109146 0.048930153 0.3818016 0.17555211
000150 57 2f d3 3d e7 4e 45 be 5e 1e 71 3d f6 79 a6 3e
       0.10311764 -0.1926838 0.05886685 0.32514924
000160 f9 94 88 3d 3e f0 85 be 03 4f 66 3e d7 6c c8 3e
       0.06669039 -0.26159853 0.22491078 0.39145538
000170 0c c0 12 bd 10 f0 c1 bd bd 29 88 be 40 57 22 3e
       -0.03582768 -0.094696164 -0.26594344 0.15853596
000180 01 3c b5 3e 69 6d bb bd 8a 36 b1 3e 05 66 83 3e
       0.35397342 -0.09151728 0.34611923 0.25663772
000190 62 a5 95 be 03 90 63 bd 34 38 fc bd d9 ae c1 bd
       -0.2922774 -0.055557262 -0.123154074 -0.09457178
0001a0 5f 21 ca 3d 51 30 55 3e e6 85 1c bc 9c 13 79 be
       0.09869646 0.20819212 -0.009553408 -0.24323887
0001b0 8b b1 05 3e c4 e4 70 3e 50 d7 5b bd 64 d5 0c 3e
       0.13056009 0.23524767 -0.053672135 0.13753277
0001c0 1f 56 58 3d 3f 18 2b be 02 3c 86 3e c3 fe b0 3d
       0.052816506 -0.16708468 0.26217657 0.08642342
0001d0 2c e5 21 be 74 df 81 3d 0f dd 7c 3d 97 31 fa bd
       -0.15810078 0.063414484 0.061734255 -0.1221649
0001e0 c0 51 3c 3d 3d 19 f1 3e 5d 87 7e 3e b1 f4 72 3e
       0.0459764 0.47089568 0.24856324 0.23726155
0001f0 cc e4 81 3e 42 0c 83 be 34 b2 2d 3e 37 f4 87 3e
       0.2536987 -0.2559529 0.1696251 0.2655351
000200 7c 33 c4 3d 27 8e 8a be 10 4e 75 3e d1 4f 7f 3e
       0.09580132 -0.2706158 0.2395556 0.24932791
000210 1e cc d0 39 c0 61 86 be 20 e7 15 be 18 b3 11 bd
       0.0003982493 -0.26246452 -0.14638948 -0.035571188
000220 95 ec bd 3e da ac 0a be 38 27 a6 bd 0e 11 9c 3e
       0.3709456 -0.135425 -0.08112949 0.30481762
000230 0f b4 85 3d c0 4a 1b bd 34 fd c7 3d be f0 e7 bd
       0.06528484 -0.037913084 0.097650915 -0.11325215
000240 2f 10 43 3e 14 37 fb bc df f4 d2 3d 50 7f c7 3d
       0.19049142 -0.030665912 0.10300612 0.0974108
000250 9f ac 8f 3e 8e bd eb 3d ef 21 36 3e 51 f0 f2 3d
       0.28061387 0.11510764 0.17786382 0.11862243
000260 dd 32 99 bd 3d c3 8a be cf f0 c7 3d 48 0a 5c 3d
       -0.074804045 -0.2710208 0.097627275 0.053720742
000270 91 22 74 bd 66 a3 05 be d9 d2 ca 3d c5 fa a2 3e
       -0.059603278 -0.13050613 0.09903497 0.31831947
000280 f3 c2 6e 3d 9f 51 2b 3e 8c e5 9d bc 86 81 4c 3d
       0.058291387 0.16730355 -0.019274496 0.04992821
000290 8c f7 da 3e a5 2e c5 bd f9 19 24 3f 2e 6f 9b 3e
       0.42766988 -0.09628037 0.6410213 0.3035826
0002a0 57 ae 89 3e fa 9d 36 be e6 4f 9a 3e 30 00 23 3f
       0.26890823 -0.17833701 0.30139083 0.6367216
0002b0 ee 8d 28 be 9e 8a ae be 04 83 c1 be 15 19 00 be
       -0.16460392 -0.34090132 -0.3779527 -0.12509568
0002c0 85 c9 41 3e d7 d3 83 be 91 9d bf 3e 90 0d c7 3e
       0.1892453 -0.25747558 0.374249 0.38877535
0002d0 2a 71 e0 bd 33 f4 61 3e 79 85 70 3e 60 c4 02 3e
       -0.10959084 0.22065811 0.23488416 0.12770224
0002e0 f5 31 54 be b0 9d 6f be 30 3b 83 3e 02 9a 8c 3e
       -0.20722182 -0.23399997 0.25631094 0.2746125
0002f0 58 69 de bd 25 f2 7e 3d b3 b2 13 3e 46 b3 65 be
       -0.108599365 0.062242646 0.14423637 -0.22431669
000300 f3 d6 fb bc 26 90 8f be 3f 10 11 3e 64 eb 57 3d
       -0.030742144 -0.28039664 0.14166354 0.05271472
000310 e0 a9 86 3e 19 14 f7 bd ad 21 06 bd 62 1e 67 bd
       0.2630148 -0.1206438 -0.03274696 -0.05642546
000320 43 ca 83 be 1a d4 16 bd 25 2b 1e 3e a4 a3 85 3c
       -0.2574025 -0.03682337 0.15446146 0.016313381
000330 29 84 d9 bc 48 cb 0a be 2b 51 25 bd e4 37 e0 bd
       -0.026552277 -0.13554108 -0.04036061 -0.1094816
000340 ab a1 92 bd b9 0a 4b 3e 5c b6 d0 bc 08 da c4 3c
       -0.07159742 0.19828309 -0.02547758 0.024029747
000350 a9 97 fd bd 1a cb 4e be 17 4e 61 be 74 fb 3a be
       -0.123824425 -0.20194665 -0.22002445 -0.18259984
000360 82 62 0a bd b4 d3 e1 bd bc 0d 22 be b2 19 a8 3d
       -0.03378535 -0.11026707 -0.15825552 0.08208026
000370 06 11 2d 3e fe 51 05 3e 7d 56 df 3e cb b7 d0 3d
       0.16901025 0.13019559 0.43620673 0.10191306
000380 2d 30 1e 3e bb 4b 4f be ec ef 9e bc 1f b7 84 3d
       0.15448065 -0.20243733 -0.019401513 0.0648024
000390 a2 f4 d1 bc cc 07 e9 be a5 d3 95 3e 8c 26 72 bd
       -0.025629345 -0.4551376 0.29263034 -0.059118792
0003a0 94 88 a4 3c 48 eb 87 be 63 07 af be 90 7d 69 3c
       0.020084657 -0.26546693 -0.34185323 0.014251128
0003b0 64 e4 eb 3e dd 38 99 be 33 ca 43 3e 79 7e 9c 3e
       0.46072686 -0.29926196 0.19120102 0.3056524
0003c0 5c f6 a6 bd 3f c2 99 3e c2 76 b0 3c fe cd aa bd
       -0.08152458 0.3003101 0.021541003 -0.08340071
0003d0 a1 e7 5f 3e 27 89 95 be 33 04 32 3d 65 ef c0 bd
       0.21865703 -0.292062 0.043461036 -0.09420661
0003e0 e4 7d cd 3d 61 ea a8 bd 97 04 8f 3e 10 58 bf 3d
       0.10033777 -0.08247829 0.2793319 0.093429685
0003f0 ff d8 a8 bd ac 9f cd bc 7e 72 ee bd da 6a fb 3b
       -0.08244514 -0.025100552 -0.116429314 0.00767265

lstm_layer.bias_ih f4 [80]
000000 1b 29 1d 3f f6 09 ee 3d 69 cb b3 3e 54 6a 86 3e
       0.61390847 0.11622994 0.35116127 0.26252997
000010 6d 31 c5 3e 5e 8b ae 3e 5e 5e f0 3e b8 bb 81 3d
       0.3851427 0.34090704 0.46946996 0.06334633
000020 cc 9c 06 3f 34 f6 cf 3e 0a ef 1a 3e 88 ba 1a 3f
       0.52583003 0.40617526 0.15130249 0.60440874
000030 4d 6b 8f 3e 45 c8 ce 3e ea fc a0 3e f4 ad 08 3f
       0.28011551 0.4038717 0.31442958 0.5339043
000040 f1 6f b8 3e 8a 0b 8b 3e 85 c5 82 3e 41 15 ff 3e
       0.36022905 0.2715724 0.2554132 0.49820903
000050 c4 83 e1 bc 0e 7e ac 3b 8c d0 93 3c 0f 09 4c 3e
       -0.027528651 0.0052640503 0.018043779 0.1992533
000060 fc 12 3c be 6f b5 bc bc ef 13 24 3e b9 5f 4c be
       -0.18366617 -0.023035733 0.16023229 -0.1995839
000070 df d5 ff bc 57 12 9c bd 12 40 1c be d1 88 4d 3e
       -0.031229911 -0.076206855 -0.15258816 0.20071723
000080 58 7a 9c 3d ba b1 29 3e f6 af 40 3e df d2 1b be
       0.07640523 0.16571704 0.18817124 -0.1521716
000090 be 04 38 3d 17 89 7b 3d 7b 8e 07 3d 74 52 f6 3d
       0.044926398 0.061410036 0.033094864 0.120274454
0000a0 0e e6 d1 3c 9e 43 03 3f 64 88 2d 3d f3 f3 97 3e
       0.025622394 0.5127505 0.0423664 0.29678306
0000b0 1d c1 17 3e 90 2a 7d be 8f 46 50 3e b6 8e 75 3e
       0.1481976 -0.24723268 0.20339416 0.23980221
0000c0 dd 5d 46 3d a5 31 bb be 87 bc aa 3e 15 8f 8b 3e
       0.04842936 -0.36561313 0.3334696 0.272576
0000d0 c8 73 16 bd a4 2c c3 bd 78 90 97 3c ea d7 3d 3e
       -0.03673151 -0.09529999 0.018501505 0.18539396
0000e0 4c 00 11 3e 3d 7b c6 be a0 e1 ad bb 10 be 20 3e
       0.1416027 -0.38765898 -0.0053064376 0.15697503
0000f0 ce 01 b7 3e 19 5e 87 3e 47 b9 43 3e 10 af 02 3e
       0.35743564 0.26438978 0.19113646 0.12762094
000100 06 fe 24 3f d1 49 08 3e e2 8b be 3e 7f e9 0f 3f
       0.6445011 0.13309409 0.37216097 0.5621566
000110 f1 9f d2 3e 13 4f e9 3e 20 0d 53 3e 99 70 f2 3d
       0.4113765 0.4556814 0.20610476 0.118378825
000120 6a c8 9b 3e f8 6f 27 3e c8 bd 6f 3e 26 ae 66 3e
       0.3042634 0.16351306 0.2341224 0.2252737
000130 08 23 be 3e 63 32 ca 3e a1 73 01 3f 14 b9 f4 3e
       0.37136102 0.39491567 0.5056706 0.47797453

lstm_layer.bias_hh f4 [80]
000000 16 0e bc 3e 36 56 8a 3e d4 9d be 3e c6 90 f0 3e
       0.36729497 0.270189 0.37229788 0.46985453
000010 1e 65 c2 3e de 03 e4 3e 6b 5c 13 3f 87 b5 6b 3e
       0.3796777 0.445342 0.57562894 0.23018466
000020 14 df 5c 3e 1d 1b d9 3e f3 d4 c9 3e 5b 77 b6 3e
       0.21569473 0.42403498 0.3942028 0.35637936
000030 ab 7c 12 3f 98 b6 65 3e 1b 5d 7c 3e b0 4e f2 3e
       0.5722148 0.22432935 0.24644892 0.4732566
000040 a9 b9 d3 3e 51 c9 95 3e 58 fd 51 3e 72 2c 8b 3e
       0.41352585 0.29255155 0.20506799 0.27182347
000050 bb 91 3d 3d 2e a6 51 3e c3 d1 44 3e 51 8b 41 3e
       0.046281558 0.20473549 0.19220643 0.18900801
000060 c8 61 19 3e 0b 67 d6 bd 8d f9 5d 3e 3b 0d a8 3d
       0.14978707 -0.10468873 0.21677227 0.082056485
000070 70 5f c9 bc d1 c2 98 3e 7a ba 21 bd 29 c5 32 3e
       -0.024581641 0.29836133 -0.03948448 0.17458023
000080 7e 0b 01 be 33 70 3d 3e 6f d1 43 bd f7 df 0b 3e
       -0.1260204 0.18499832 -0.047807153 0.13659655
000090 9f 77 89 3d 00 54 a3 3d 4b 71 0e 3e 73 45 9f 3d
       0.06712269 0.07975006 0.13910405 0.07776918
0000a0 78 21 e3 3c 0b e4 47 3e f9 99 9f 3e 79 e6 9f 3e
       0.02772592 0.19520585 0.3117216 0.31230524
0000b0 05 e1 d3 3b 39 71 4b be 60 29 8d 3e 16 b8 62 3e
       0.0064660334 -0.1986741 0.2757063 0.22140536
0000c0 10 33 8c 3e 7a 14 aa be 71 94 e4 3d 85 a4 30 bd
       0.27382708 -0.33218747 0.111611255 -0.043125648
0000d0 7d 4a 92 be 29 20 17 be 82 ea cb bd b5 96 84 3b
       -0.28572455 -0.14758362 -0.09956838 0.004046286
0000e0 ee 48 10 3e a6 24 51 be 88 8a 46 3d 98 e7 c1 bd
       0.1409032 -0.20424137 0.048471957 -0.09468001
0000f0 d5 c0 21 3f c0 d9 d5 3d 72 f4 b0 3e 19 52 ce 3e
       0.63184863 0.10441923 0.34561497 0.4029701
000100 58 c5 8f 3e 9a 66 7b 3e f4 0a 07 3e 0d 51 11 3f
       0.2808025 0.24550858 0.13187772 0.567643
000110 39 8a 97 3e 37 03 f0 3e 2c 10 8f 3e bb 4c 5d 3e
       0.29597643 0.46877453 0.27942026 0.21611302
000120 3a 4e 00 3f 62 92 5c 3d b5 c8 90 3e 54 31 aa 3e
       0.50119364 0.05385054 0.28278127 0.3324076
000130 71 49 fa 3e fd 1c f6 bb aa 59 e4 3e 60 bc 1f 3f
       0.48884156 -0.00751078 0.44599658 0.6239681

metalstm_layer.Wf f4 [22, 1]
000000 ae 6d 14 3f 9e 1d b0 bd 5f b9 90 3e 5d f3 c8 bd
       0.5797986 -0.08599399 0.28266427 -0.09812043
000010 91 f2 f4 3e 9b c0 a6 be 4e 35 f4 3e 27 ec 66 3e
       0.47841313 -0.3256882 0.47696918 0.22551022
000020 96 67 cc 3e f0 f6 f1 3d 88 c9 68 3d 85 e3 ec 3e
       0.3992278 0.11814678 0.05683282 0.46267334
000030 b2 b5 9f be b7 d7 88 be c9 c0 e0 be 6f 4f b8 3e
       -0.3119331 -0.26727077 -0.43897083 0.35998103
000040 ec 08 03 be f7 23 1e bc 57 62 d9 3e 85 65 f8 3e
       -0.12796372 -0.009652129 0.4245784 0.48514953
000050 a1 34 b7 be 52 14 fe bd
       -0.3578234 -0.124062195

metalstm_layer.Wi f4 [22, 1]
000000 14 80 e8 3e 32 ba 88 3e c5 d0 98 3e fb eb 69 3e
       0.45410216 0.26704556 0.2984678 0.22843926
000010 b1 56 c2 3e 18 88 bb be d3 6a c8 3e f2 eb 9d 3e
       0.37956765 -0.3662727 0.39144 0.30844074
000020 c2 d6 c7 3e 10 6b 82 be 52 54 98 3e 94 c1 e3 3e
       0.39031035 -0.25472307 0.2975183 0.44483626
000030 44 54 b4 be 54 9b 93 be 58 da ba be 5b 7c cb 3e
       -0.3522054 -0.28829443 -0.36494708 0.39743313
000040 0f 83 73 3e 2c 75 94 be 6a b6 b2 3e a2 e3 9b 3e
       0.23780464 -0.28995645 0.34904796 0.30447108
000050 e9 44 0f bf 66 05 f3 bd
       -0.55964524 -0.11866264

metalstm_layer.ct f4 [17386, 1]
000000 4f ac 70 bd e0 8d be 3d 43 ab 0b be d5 1e 3b be
       -0.058758076 0.09304404 -0.1363955 -0.1827348
000010 8d 20 40 be e6 ff f4 3c 67 30 f4 3d 65 5b c1 3d
       -0.18762417 0.029907178 0.119232945 0.0944126
000020 72 38 6e bd 25 c3 25 bd be c1 34 bd a9 6f 00 3e
       -0.0581593 -0.040469307 -0.04413008 0.12542595
000030 82 df a0 bc 8f 2a ab bc 73 42 e1 bc c2 8e 67 bd
       -0.019637827 -0.020894317 -0.027497506 -0.05653263
000040 8a 1d 23 3e b0 7a 7b 3e ab 2e e3 3d 86 e5 24 3d
       0.15929237 0.2455852 0.110928856 0.040257953
000050 67 9a ed bc 26 78 22 3e 6b f8 bd 3d 79 08 5a 3e
       -0.029004289 0.15866145 0.092758976 0.21292295
000060 f8 2e 75 3d c4 00 3b bd 65 e9 0a 3e 94 08 18 be
       0.059859246 -0.045655027 0.13565595 -0.14847022
000070 ac 87 2e be 98 81 30 be c3 16 3d bd 4d 8e 62 3e
       -0.17043942 -0.17236936 -0.046164285 0.22124596
000080 fa 92 93 bd 20 12 cf bd 27 5e 1b be fe a3 f0 bd
       -0.07205768 -0.10110879 -0.15172635 -0.11750029
000090 8b 55 a5 3d de 89 42 3e 2d 96 db 3d 78 d5 9b 3d
       0.08072957 0.18997905 0.10722003 0.07609075
0000a0 3e 30 60 bd e2 c5 5e 3d fa 94 48 3e a9 c1 a6 3d
       -0.054733507 0.054387935 0.1958808 0.081424065
0000b0 ce 2a e9 3b ff cb 05 be cf de 0a 3e 5d 98 3c 3e
       0.0071156984 -0.130661 0.13561557 0.18417497
0000c0 d0 8c 9a 3d 81 27 98 3d a4 ab 83 3c fb 64 15 3e
       0.07546389 0.0742941 0.016073056 0.14589302
0000d0 1b 10 90 3b 60 1a a8 bd 2d 60 86 bd 10 aa 8d bd
       0.004396451 -0.08208156 -0.06561313 -0.069172025
0000e0 08 76 12 3e 3e a6 b1 bd 54 15 03 be d0 d5 05 be
       0.14302838 -0.08674286 -0.12801105 -0.13069844
0000f0 a1 c9 30 3d a6 36 47 3e 1c 91 b6 3c bb 79 b9 3d
       0.04316104 0.1945444 0.02228599 0.09056421
000100 0c 0b ab 3d 0a 78 9a bd 9e b9 f1 3d ce f7 4f 3e
       0.083517164 -0.07542427 0.11802982 0.20309374
000110 52 7b 85 3e 0c 33 4e 3e c1 03 24 be 61 e0 a6 3c
       0.26070648 0.2013666 -0.16017057 0.020370664
000120 12 c0 25 3e 6a 82 63 3e 83 28 37 3e 92 a4 24 3d
       0.1618655 0.22217718 0.17886548 0.04019601
000130 fa ff cb 3d 17 f5 cd bd 90 34 08 be ff be 2c be
       0.09960933 -0.10056513 -0.13301301 -0.16869734
000140 f0 bd 02 be ec 8a 32 3e d5 d6 f3 3d 6d c6 5c bd
       -0.12767768 0.17435807 0.1190621 -0.05390017
000150 c7 90 14 3e 57 4c 4e bd 1f ff 36 3d f2 8c f3 3d
       0.14508353 -0.050365772 0.044676896 0.118921176
000160 31 01 93 3e da 22 09 3e 16 45 c3 3c 32 7b 03 3e
       0.28711846 0.13392201 0.023836654 0.12839964
000170 fd 12 6d 3e 00 89 3b 3e a5 eb 34 3c 9f fa 36 bd
       0.23151775 0.1831398 0.01104251 -0.044672605
000180 60 31 c0 3d 26 12 14 3c 3f 80 43 be aa 1d ce bb
       0.093844175 0.00903753 -0.19091891 -0.0062901573
000190 37 48 40 3d b1 17 1e 3e c7 e6 4e bd 41 e3 30 be
       0.04694387 0.15438725 -0.050513055 -0.1727419
0001a0 8b 6d 53 be a9 f7 b4 bc 44 ea 78 bc 6f b8 6d bd
       -0.20647256 -0.02209075 -0.015192572 -0.058037218
0001b0 d9 25 61 3d db 30 10 3e b3 3a a0 bd 78 81 07 3e
       0.054967735 0.14081137 -0.07823696 0.13232982
0001c0 ca e3 cf 3d e5 d8 b1 3e 8d fe 8f 3e 7d a3 ed bd
       0.10150869 0.3473579 0.28123894 -0.116034485
0001d0 cb 9d 28 3d e4 c7 1d 3e 12 9a 20 3e 03 5a 1c 3e
       0.041166108 0.15408283 0.15683773 0.15268712
0001e0 1f a6 9a 3d 7a 85 30 3d d7 70 92 bd 65 ce 3c bd
       0.07551216 0.043096043 -0.07150429 -0.04609527
0001f0 62 20 4f bd f9 62 05 be 70 a8 43 3d 0f 0f 67 bd
       -0.050567992 -0.13026036 0.047768056 -0.056410845
000200 a6 81 3c be 7b b2 43 be 04 a2 36 bd 7b 85 c5 3d
       -0.18408832 -0.19111054 -0.044588104 0.096446
000210 45 f1 34 bd c0 ef 62 3d 1e 07 53 3e 24 34 2f bd
       -0.044175405 0.055404425 0.20608184 -0.042774335
000220 31 0e 89 3d 6d b4 25 3e d6 41 88 3e 14 13 8d 3e
       0.0669216 0.16182108 0.2661273 0.27553618
000230 a7 4c ba 3d 03 cb 12 3e 64 57 84 3e 15 d3 06 3e
       0.090966515 0.14335255 0.25847924 0.13166459
000240 39 ea b0 3c 83 d3 c8 bc c2 24 eb 3d 2c 2a 82 bc
       0.021596061 -0.02451492 0.1148162 -0.01588925
000250 54 02 22 be 02 bc e7 bc 74 02 44 3d 25 cc 25 3e
       -0.158212 -0.028287891 0.047853902 0.16191156
000260 78 ba a5 3c 5e 8e 10 bd 4e 15 46 bd 2c 78 56 3d
       0.020230517 -0.035292022 -0.04836016 0.0523607
000270 0b 41 8d 3e fa 85 24 be 6f f4 38 be fd b4 42 be
       0.27588686 -0.16066733 -0.18061994 -0.19014354
000280 9e d5 18 3e e3 04 36 3e 66 d2 4a be 27 64 a4 be
       0.14925238 0.17775302 -0.19806823 -0.3210766
000290 6d 1f 6a be 48 6e 31 3e 30 4a ee 3d a3 07 b7 bd
       -0.2286355 0.17327225 0.11635244 -0.089370035
0002a0 b0 0f ab be 42 19 5d be 31 5f 99 3e f4 0e b8 3d
       -0.33410406 -0.21591666 0.29955438 0.08987227
0002b0 ef 16 04 bd 2a 89 1f be e3 9c 97 be 18 da 6a 3e
       -0.032248434 -0.15579668 -0.29611883 0.22934759
0002c0 40 05 7c 3e ec fa 01 bc 6b 9d cc bb 49 39 51 be
       0.24611378 -0.00793336 -0.0062443516 -0.20432009
0002d0 63 84 34 3e 62 ea 37 3e f0 5e 4c 3c 05 b6 fd bd
       0.17628627 0.17960504 0.012473807 -0.12388233
0002e0 83 77 b3 bd bb 6f 59 3e dc cb 30 3e ee c0 f2 bd
       -0.087630294 0.21234028 0.17265266 -0.11853205
0002f0 4b 0f a2 be db 4f 17 be de f3 86 3e f3 eb 7d 3e
       -0.31652293 -0.14776556 0.2635793 0.24797039
000300 f7 dc 5b be 55 21 66 be 45 57 94 be 76 71 09 3e
       -0.2147101 -0.22473653 -0.2897283 0.13422188
000310 c4 ac 8e 3d fe 32 c7 bd db 90 88 be fa d7 46 be
       0.06966546 -0.09726523 -0.26673016 -0.19418326
000320 82 de 24 3e 47 fb aa 3e a3 15 33 bd 70 55 36 be
       0.16100505 0.33394834 -0.043721806 -0.1780603
000330 55 4b 36 be 97 b0 7a 3e 63 27 26 3e bb cd e0 3c
       -0.17802174 0.24481426 0.16225962 0.02744185
000340 7d 2d ea bd bb a9 03 be b1 c0 2e 3e 49 dc 35 3e
       -0.114344575 -0.12857716 0.17065693 0.17759813
000350 a3 24 a3 bd 6b 88 7d be 82 66 58 be 94 01 3f 3e
       -0.07965972 -0.2475907 -0.21132854 0.18652946
000360 9f a6 a0 3d 8d 5d 46 be 27 ae 0b be 48 a9 9a be
       0.078442805 -0.19371624 -0.13640653 -0.30207276
000370 fd 1d 42 3e 20 b4 80 3e 2f 93 c2 bd b3 1e 47 be
       0.18956752 0.25137424 -0.09500729 -0.19445305
000380 f0 7c 95 be 2f 59 14 bf 13 66 32 be 7c 13 ab 3e
       -0.29196882 -0.57948583 -0.1742175 0.33413303
000390 ac ff 72 3d f9 50 35 be 26 a8 b4 be b1 bf 03 3d
       0.05932586 -0.1770667 -0.35284537 0.032165233
0003a0 3b 8a 9b 3e 65 d8 8a 3e 56 9c d9 3d ed ad 89 be
       0.303789 0.2711822 0.10625522 -0.26890507
0003b0 11 2a b8 3c 12 96 7f 3d 16 8d 1a 3e 0e 1e 79 3e
       0.022480996 0.062398978 0.15092883 0.24327871
0003c0 7e 96 43 bd f2 b1 07 3e 37 55 61 3d 9c 4f 07 3e
       -0.047750942 0.13251474 0.055012908 0.13213962
0003d0 59 17 a8 3e 04 d2 53 bd ea ab 40 3e 2b e1 e6 3d
       0.32830313 -0.05171396 0.1881558 0.11273416
0003e0 99 1a ca 3d c1 88 8b 3e c4 ab 32 bf ca 7f 9c bd
       0.09868354 0.27252772 -0.69793344 -0.07641561
0003f0 0d a1 ec 3e 26 bb 83 3d a9 19 6a be 64 36 cb be
       0.46216622 0.0643218 -0.22861351 -0.39689934
